Navigation/checkpoint.pth (torch_old, 205807 bytes, 8 tensors)

fc1.weight f4 [256, 37]
00000000: 64f8 bdbe 27e7 e83e 44f1 9abd e753 2dbf
00000010: 788a abbf 94e9 d13e a6ca 77bf 1cce 44bf
00000020: ae32 42bf e417 13c0 a1db b7be 26f1 503e
00000030: 9a8f cabe 1370 8fbe ee3f 11bf 79b3 193e
00000040: 9593 86bd 6123 a2be d8e8 80bf 2bdb 78c0
00000050: d3ec 25be 885c 173e d21d cebf a666 0cbf
00000060: c54f 31c0 3769 793e 5d4b 4fbe 20bc b5be
00000070: 99a2 76bf 862b 6dc0 2c0a 8a3d 5366 67be
00000080: 6daf 93bf 4094 9dbf 4e6e 6fc0 286d ddbd
00000090: b392 523d 5d93 513f d112 35bf f431 c6be
000000a0: 1837 66bf 58c7 77c0 3940 a8be eeb6 04be
000000b0: 010f 343d 967b 7b3e 7908 413e 05e5 55bd
000000c0: 6b3e 0fbe fd6a 0a3d 609c c93e c074 513e
000000d0: f94c 1b3d 652e 01be d71d bd3d d5e1 4e3e
000000e0: 928e 313e 6004 cdbd 3981 2fbe acd9 c0bd
000000f0: ab45 413e 00e8 b23e cf79 2bbe c0d7 1b3e
00000100: 76e9 ce3d 55ce a53d b08b 893e 7c7f 8dbe
00000110: 4607 a03e a9b2 7a3c 5713 593e ef76 0d3e
00000120: dd4d f7bc 31a1 cb3c 06cd 093e 85a0 26bf
00000130: 697d 853e 402c cebe 5d29 18bf 66d5 0abf
00000140: 9d5d 1cbf 556e ae3e 6e13 91bf b533 78c0
00000150: a2c4 a73e b3cb f5bc 5ec5 bcbe 0575 cfbd
00000160: 526a fd3d df5c a2bf 81ad d53e 82fa 863e
00000170: a3a4 e0be 644a 01c0 b0c6 89be b18d b3be
00000180: 7db0 653e 8ec8 c7be 7be3 f0be 3ec9 d0be
00000190: e605 373e 2ee1 1b3d 1f0e 02bf f9e3 39c0
000001a0: fd43 113e 217a 04be 38af bcbe 5160 2bbf
000001b0: 8f06 57bf e3d2 673d 2e44 ec3d 52cd 533e
000001c0: 983d 8abf af05 a13c 0979 b13c 8749 81bf
000001d0: d95c 34be 41f1 a53b 5386 9d3d a5f5 923e
000001e0: db9b 493e 5df7 6b3e 1214 05bf 625b 0d3d
000001f0: 20d0 7abe 8a50 93be af4c d6be 25e0 26bf
00000200: ec00 2e3d 3e14 603e e301 acbe 69da 8ebe
00000210: 7157 2ebf ecfd e23e 0123 debe 8793 e4bf
00000220: ad5a 62bc c74c 593e 2860 0bbb 4835 653e
00000230: 604b 113e 6293 10bf 9be6 23bf baf5 ea3e
00000240: edf6 c63d 9a27 36bf 1ce1 0a3e 2331 263d
00000250: 12e8 3fbd 45a7 d5bd 5b2c 523e 1abe 65be
00000260: e5af fd3d b304 b93e c980 12bf 9519 d2be
00000270: ed7c 80bf 187b 56c0 3787 03be 3156 953e
00000280: c28b 323e dc73 ecbd 2f86 b5be 9f7d 51bd
00000290: 9340 c8bc 91e2 c13a e392 183e f7e5 913e
000002a0: fe3b d13d efec 473d 8432 d03a dfa1 bd3e
000002b0: a330 fc3e cc5e 26be f656 0a3e eac6 a13e
000002c0: eb64 943e 0b18 883e 41f7 763c e6cf 2f3e
000002d0: 2e51 803e 7b8e da3e 1521 a43e 56ec ac3d
000002e0: 8e86 b93c b17a f6bd 340e a6bd 3bbc 893d
000002f0: 278c fbbe 7ba4 75bf 4e87 9dbf de1a d7bd
00000300: f347 2b3f 1361 20bf 7388 d1bf bb8a d9be
00000310: ca2d 54bf 03fa e6be a145 233e a7bf 96be
00000320: 3f16 89bf f073 b33e 6fef b3be c5c5 3cbe
00000330: 901b a9bf a87a 25bf fad7 27be 7882 a63d
00000340: 7fd8 36be 60b0 bdbe ce2b 1ebf b0fa c23e
00000350: 005d edbe de41 f9be 6482 93bf 9cc3 a8bf
00000360: 296a adbe f8dc 6d3e df81 bfbe 8277 8dbf
00000370: 93d4 c0bd 7661 373c db3c 66bd 4c48 f9be
00000380: 74f3 42bf a713 023c 1f4a 9fbf a4cc 03bf
00000390: 944d 54be ed36 b23d ddac 55be 3e81 233f
000003a0: c0b5 be3d 7dcd 85bf 6208 12bd 0e64 0abf
000003b0: b1bf 86be 465b 023e baa2 45be ffd5 1ebf
000003c0: bff4 30bf bac2 d23e 2c63 5bbf 5205 133f
000003d0: 002d 6bbf d721 2fbf 379a f13e a3b4 35be
000003e0: edfd 8dbf 2e83 87be 77c1 38be e1e3 d1bb
000003f0: ebf4 e03e a565 15bf 770a 8fbf 147a efbe
-0.3710357 0.45488855 -0.07565549 -0.6770615 -1.3401632 0.40998518 -0.9679359 -0.76877
-0.7585858 -2.2983332 -0.3590975 0.20404491 -0.39562684 -0.28015193 -0.56738174 0.1500987
-0.06571118 -0.31667617 -1.0071058 -3.888377 -0.16203623 0.14781392 -1.610285 -0.5484413
-2.7704937 0.24356543 -0.20243593 -0.3549509 -0.96341854 -3.7057815 0.067402214 -0.22597627
-1.1537911 -1.2310867 -3.7411075 -0.108118355 0.051409435 0.81865484 -0.70731837 -0.38709986
-0.89927816 -3.871542 -0.32861498 -0.12960407 0.04395962 0.24558863 0.18850888 -0.052220363
-0.13988654 0.03379344 0.39377117 0.20454693 0.037915204 -0.12615354 0.09234207 0.20203336
0.17339543 -0.100106 -0.17139138 -0.094165176 0.18874232 0.34942627 -0.16745685 0.15219021
0.10103123 0.08095995 0.26864386 -0.27636325 0.3125555 0.015301385 0.21198784 0.13814901
-0.030188495 0.024857135 0.13457116 -0.65088683 0.26072243 -0.40268135 -0.59438115 -0.5423187
-0.6108034 0.34068552 -1.1334054 -3.878156 0.32767206 -0.030004358 -0.3686933 -0.101297416
0.123737946 -1.2684592 0.41733935 0.26362997 -0.43875608 -2.0201654 -0.269094 -0.3506904
0.22430606 -0.390202 -0.47048554 -0.40778536 0.17873344 0.038056545 -0.508028 -2.9045393
0.14186092 -0.12937213 -0.3685243 -0.6694384 -0.8399438 0.0565976 0.11536442 0.20683792
-1.0800047 0.01965603 0.02166416 -1.0100564 -0.17613544 0.00506416 0.07691636 0.28703037
0.1968836 0.2304358 -0.5198375 0.034510978 -0.24493456 -0.28772384 -0.4185538 -0.6518577
0.042481348 0.21882722 -0.3359519 -0.2790101 -0.68102175 0.44334352 -0.4338608 -1.7857522
-0.013815564 0.21220694 -0.002126703 0.22383606 0.1418891 -0.5647489 -0.6402375 0.458906
0.09715066 -0.7115418 0.13562435 0.040574204 -0.04685218 -0.10432295 0.20524733 -0.22435799
0.12387065 0.36136398 -0.5722776 -0.41035143 -1.0038124 -3.351263 -0.12844549 0.2916732
0.17436126 -0.11545536 -0.35453936 -0.051145192 -0.024444854 0.0014792253 0.14899783 0.28495762
0.10216521 0.04880994 0.0015884195 0.3703756 0.49255857 -0.162471 0.13509735 0.31597072
0.28983244 0.26580843 0.015073598 0.1716915 0.25061935 0.4268683 0.3205649 0.08443515
0.022647168 -0.1203512 -0.08108178 0.06725355 -0.49130365 -0.959541 -1.2306917 -0.105031714
0.6690666 -0.62648124 -1.6369766 -0.42488655 -0.8288237 -0.4511262 0.1594453 -0.29443094
-1.0709914 0.3504939 -0.3514361 -0.18434818 -1.3211536 -0.64640284 -0.16390982 0.08130354
-0.17856024 -0.37048626 -0.6178559 0.38081884 -0.46360016 -0.48683065 -1.1524167 -1.3184695
-0.33870056 0.23228824 -0.3740377 -1.1052096 -0.09415545 0.01119267 -0.05621038 -0.4868797
-0.7615273 0.007939256 -1.2444495 -0.5148413 -0.20732719 0.087018825 -0.20866723 0.6386908
0.0931201 -1.0453335 -0.035652526 -0.5405892 -0.26318124 0.1273013 -0.19300357 -0.6204528
-0.6912345 0.4116419 -0.856982 0.57429993 -0.9186554 -0.6841101 0.4718797 -0.17744689
-1.1093117 -0.2646727 -0.18042551 -0.006405339 0.43936858 -0.5835822 -1.1175069 -0.46772826

fc1.bias f4 [256]
00000000: 5d35 4f3e f517 aabd b7ae 23be 6bd0 cdbe
00000010: 8cf2 ae3d 885a 8e3d 8382 afbe d829 cfbe
00000020: e36f dabe 5f31 efbe da4a 5cbc cb4d 1ebd
00000030: c787 b5be 395a 18bf 4a54 cdbe 6017 b7bd
00000040: 17d2 a6be 7aab 00bf baff eabe a883 d1be
00000050: df69 58be 3dab 8ebe aa62 e5bd f35b a2be
00000060: 240c 2ebe 5051 71be a676 623e 05ef 383e
00000070: 9e78 ddbe 93e5 45bd fa40 94bd 7460 85be
00000080: b6d4 e4be 4d67 003e df3a cfbd 9ab7 65bd
00000090: c29d dcbd e89b 0ebe 3f8a 16bf 1f96 84be
000000a0: 86c6 abbe a702 11bf a613 06be be10 b5bd
000000b0: ca8c 8dbd d283 abbe 246b 09bf 4aaf bebe
000000c0: 79ba 9dbe abcc a5be 2b76 87bd 50a0 88be
000000d0: f317 adbe 1a68 4dbe 64d0 d23c d9a5 12bf
000000e0: 27f5 283d 7bb9 bebe 927f 09be eb34 92be
000000f0: d7e5 b2be a600 f7be 2a33 39be a48c d9bd
00000100: 852b 09bd eb24 f9be f590 0abf fa63 12be
00000110: 2a5f 07bf 9cec 1cbf e9e3 b9be 6000 b7be
00000120: be04 26bf 410c babd 0363 92be e015 97be
00000130: d903 30be b04e 89be 84c4 0bbf 5455 eabc
00000140: 85d4 86be 398d 11be 28d6 4fbe 7c7d dbbe
00000150: 0f64 273e b704 bbbe d921 70be a4d0 84be
00000160: c0ab a8be b78a 00bf 1303 953d 525b 18be
00000170: 264e 06bf 986e ce3c 20a1 c3be a26e 74bd
00000180: 0dbe 843c d844 c7be fa59 60be 963b 6cbe
00000190: efcd d3be 0dbe e9be 41b8 c9be aa19 afbe
000001a0: d4db 12bf 2617 ccbe f9d3 d4bd c350 acbe
000001b0: 7c6d d7be 5305 cebd 7b10 9bbe 650b 7fbe
000001c0: 8898 bfbe 00d1 82be 199f babe 3886 02bf
000001d0: 8dd4 a4be bf8d 98be b25c 98bc 7ddc 3bbd
000001e0: fec5 82be 8bd1 a5be 6fd4 1fbf 5675 afbe
000001f0: b82b 39be 63c9 33bd 294d 8dbc 81a8 1dbe
00000200: 770c 78be 6fc2 c2bb fdfd 7b3e e353 13be
00000210: 759e bdbe 3d43 8abe 9bbe 7bbe 6229 1ebf
00000220: 5ed8 bbbe 466c 0dbf 011a cc3c d20b dcbe
00000230: 00ad e6bd 8d50 b3be 9e84 83be 02bc 0ebf
00000240: 690f cd3d 4603 23bd 87a0 0abf 7282 3d3c
00000250: 0804 e1be 4e75 c0bd d59e a8be 9423 25be
00000260: 0228 90be 60f7 3ebe 3738 c43d a93a d73d
00000270: ef6b ba3d b5e1 c6be fe58 6dbe b03a 58be
00000280: 53e1 adbd 6090 e03e 9b75 fdbd 0c0f a9be
00000290: 97fc 18bd 792e cbbe 52fe 1fbd b3d8 c7be
000002a0: 3b77 8fbe 4afa 73be 02c8 7fbe 1e9b 863e
000002b0: bc03 16be b656 edbd 20df 743d bc84 e1bd
000002c0: 0db1 6fbe 6c10 23be a2c5 6cbe 7e41 24be
000002d0: 8c3c 24be c664 81be 802f 85bb fe52 b9be
000002e0: 01b5 9cbe db81 bfbe 8db8 97be 5a7d 20bd
000002f0: 856c 73be 10b5 65be fc8a 8ebe 406a b6be
00000300: 4520 45be 48ab d2bd 25e2 fdbd d7d9 c93d
00000310: a0ab d3be a6f2 01bf 94ef f7be 642b 59be
00000320: 7514 b4bd 519c 34be c60a a9be 59bf dfbe
00000330: b195 d3bd 9663 01bf 1acc 8fbe b5ed a8be
00000340: 71dd 3dbe b7f9 21be 0a2c e1be c504 ebbe
00000350: f9d5 fbbe 3e8a cabe bed8 54be 3239 30bf
00000360: 4e02 4ebe 23e7 54be 1a94 45be c164 75be
00000370: c065 cabd 9f3e e8be 8edb a4be bee0 83be
00000380: cc5e 2abe e71f a7be 29d6 b1bd 3c48 0dbe
00000390: 3634 c0bd 9047 b0be 3027 f2be 0add d7be
000003a0: 897a cbbe 2839 e3be 7b39 2ebd 9286 f2be
000003b0: a40b a5be dc0b afbd eb6a d8bc bba1 cabe
000003c0: f99f 4a3e 58f7 a0be 85a1 c9be ff67 e1bb
000003d0: e500 f2be f7a9 b6be fe77 6abe b93f ba3d
000003e0: 1597 1cbe 21c4 f8bd a911 c2be 0e06 85be
000003f0: 79e0 eebe 204a 10be 1afb 03be 1072 afbe
0.202352 -0.08305351 -0.15984617 -0.40198073 0.08542356 0.06950861 -0.3427926 -0.40461612
-0.42663488 -0.46717355 -0.01344558 -0.038648408 -0.35455152 -0.5951267 -0.4010337 -0.08940005
-0.3258216 -0.5026165 -0.4589823 -0.40920758 -0.21134137 -0.2786502 -0.11200459 -0.31710777
-0.16996819 -0.23566175 0.22115573 0.18059929 -0.43256086 -0.048314642 -0.07238956 -0.2605015
-0.44693536 0.12539406 -0.10118651 -0.0560833 -0.107722774 -0.13926661 -0.58804697 -0.25895783
-0.335499 -0.5664467 -0.13093433 -0.08841084 -0.06911619 -0.33499008 -0.5367911 -0.3724311
-0.3080633 -0.32382712 -0.066143356 -0.2668481 -0.33807334 -0.20059243 0.025734134 -0.57284313
0.04124942 -0.37250885 -0.1342757 -0.28555998 -0.3494098 -0.48242682 -0.18085924 -0.10622528
-0.03348877 -0.4866098 -0.54127437 -0.1429595 -0.52879584 -0.6129854 -0.36306694 -0.35742474
-0.64850986 -0.090843685 -0.28591165 -0.29508877 -0.17188968 -0.26817846 -0.54596734 -0.02860514
-0.26334015 -0.14214028 -0.20296538 -0.42869174 0.16346763 -0.36527035 -0.23450412 -0.2594043
-0.32943535 -0.5021166 0.07275977 -0.14878586 -0.52462995 0.02519922 -0.38208866 -0.05967582
0.016203905 -0.3891971 -0.21909323 -0.23069605 -0.41368052 -0.4565281 -0.39398387 -0.34199268
-0.5736668 -0.3986141 -0.10391993 -0.33655366 -0.42075717 -0.10059609 -0.3028601 -0.2490669
-0.3742106 -0.2555008 -0.36449507 -0.5098605 -0.32193413 -0.29795644 -0.018598888 -0.04586457
-0.2554168 -0.3238643 -0.6243352 -0.34269208 -0.18083084 -0.04389323 -0.017248707 -0.1539631
-0.24223505 -0.0059435884 0.24608608 -0.14387469 -0.37034956 -0.27004424 -0.24584429 -0.61781895
-0.36688513 -0.5524334 0.024914743 -0.42977768 -0.11263466 -0.35022393 -0.25687116 -0.5575563
0.10012705 -0.039798044 -0.54151195 0.011566745 -0.43948388 -0.09397374 -0.3293368 -0.16126853
-0.28155524 -0.18649054 0.09581035 0.105092354 0.09102618 -0.38844076 -0.23178479 -0.21116138
-0.08490243 0.4386015 -0.12375947 -0.33019292 -0.037350263 -0.39683893 -0.039060898 -0.39032516
-0.28020653 -0.23825946 -0.2497864 0.2629022 -0.14649862 -0.115888044 0.0597831 -0.11011645
-0.23407383 -0.15924233 -0.23122266 -0.16040608 -0.16038722 -0.25272197 -0.0040645003 -0.3619613
-0.30606845 -0.3740376 -0.2963299 -0.039182045 -0.23771866 -0.22432351 -0.27840412 -0.35627937
-0.19250591 -0.102865756 -0.12396649 0.09856003 -0.41341877 -0.5076088 -0.4842497 -0.21207958
-0.08792964 -0.17637755 -0.33016032 -0.43700674 -0.10331286 -0.5054258 -0.28085405 -0.32993856
-0.18541504 -0.15817915 -0.43978912 -0.45902076 -0.49186686 -0.39558595 -0.20785806 -0.68837273
-0.20118067 -0.20791297 -0.19294778 -0.23964216 -0.098826885 -0.45360276 -0.32198757 -0.25757402
-0.16637725 -0.32641527 -0.08683426 -0.13797086 -0.093849584 -0.34429598 -0.47295523 -0.42160827
-0.39741924 -0.44379544 -0.042535286 -0.47368294 -0.32235444 -0.08547184 -0.02641817 -0.39576516
0.19787587 -0.31438708 -0.39381042 -0.0068788524 -0.47266307 -0.35676548 -0.22897336 0.090941854
-0.15292008 -0.121467836 -0.379041 -0.25981182 -0.46655634 -0.14090776 -0.12888756 -0.3426671

fc2.weight f4 [128, 256]
00000000: 5cb2 83bc 190f a03c 9a6e 093d 0a90 37bd
00000010: 0826 163c 366f 173d b55c 143d 4a77 413c
00000020: a06a 693a 6228 893c c851 be3b 2935 cebd
00000030: 101e 49bc 94fb e7bc 9185 02bc 28ec c0bc
00000040: 85fc 4cbd 8bc8 303d e082 05bd 0e1a 73bd
00000050: fdd9 12bd 67a8 a53b c83a 7dbd 12b4 7fbd
00000060: d5c6 423c 4796 6f3c b95e 403d 51a3 90bd
00000070: 789f aabc 2e15 07bd 3f40 1ebd 4006 b13a
00000080: 87c8 573c 1c06 49bc c744 753d b3bb 6a3b
00000090: 9075 aebd 3da3 61bc 9ec0 033d d179 e63c
000000a0: a8dd c4bc 92c0 89bc 0b04 7abd 384c a4bd
000000b0: 3e35 2cbd e28d 183d 8790 23bd 27ef 1bbc
000000c0: 86da 79bd eae4 da3b f97c 78bd 2b40 70bd
000000d0: 2f87 233d 00e4 02bd b7eb a1bd 9a54 c6bd
000000e0: 7e4f e5bc 5fbc febc 537b 89bd be16 0c3d
000000f0: 7e6e 22bd e0b7 92bc 61bd 143d eaf9 a8bd
00000100: 57bb abbc ecd4 b8ba 5e1f 95bc 57c5 183d
00000110: 60b7 b5bc 1781 8ebd f519 3a3d 42ce 92bd
00000120: f01d 0dbd 5aff 673d bd99 18bd de02 7ebd
00000130: acb1 95bd 8d3f 183b 9671 0bbd 41dd 803c
00000140: e7d8 a73c 7dea adbd 66a5 0abb 7bc3 cbbc
00000150: 4c5a 8dbd 968e 973c 0459 50bd 66d9 cb3c
00000160: 5b92 33bd 9418 31bd 9d15 76bd 4ceb a73c
00000170: b35f 8ebd 46b3 0c3d acb9 c33c 7f86 7abd
00000180: 1a64 67bc 0ac9 49bd a0de cf3b 4148 30bc
00000190: a429 d43c c914 adbd cf86 d3bc 0768 81bd
000001a0: d930 61bc 3080 cf3b 3a70 21bd 4882 acbb
000001b0: 7767 4cbb a8ed 01bd 71c3 973b 041e 293d
000001c0: 1b2b b83c 0714 acbc 9020 76bd 3ae6 58bd
000001d0: 0ce1 40bb 5c70 013b 248a 8fbb 04cf b33c
000001e0: 77d4 1bbd ca23 cebd 997e 63bd 45b6 8abd
000001f0: e268 f73c 2136 33bb 748e eabc 604e bcbc
00000200: 0540 bcbc af40 81bd 6523 55bd 16c2 de3c
00000210: c7ea 11bd 3ddf 11bd e990 d5bc 2496 cdbc
00000220: 433b 4c3b 9556 73bc ef5f 2a3c 7bc3 ed3c
00000230: 289c 7dbd 5425 f3bc b943 aa3c 9d1c d7bc
00000240: 5586 6abd a8c3 933c 2d2a 3a3d dd66 653c
00000250: d065 62bd 0094 503d 2894 8fbd 0c25 7ebd
00000260: 2b1d 803c 85af 06bd 9cf5 80bd a400 f63b
00000270: 2365 123c 5528 bdbd 927c 553c 24c1 a03b
00000280: 764a 3ebd de80 bc3b 9f99 4abb 1b63 0abd
00000290: 84f9 36bd 7ed7 43bd 0083 6bba d303 46bd
000002a0: 4cf2 85bd e2b9 74bd c05f 46bd 4c28 3fbd
000002b0: 6448 8dbd 436a bebd bf4d a2bc 636e 8dbd
000002c0: db49 c6bc 00da 1a3d 5a91 e13c c745 053d
000002d0: 280f ab3c 2c02 dbba 9051 6abd 0d4e 7abc
000002e0: a09f 233c 3534 72bd 798d 773c 0db7 f13b
000002f0: b220 5bbd b327 4037 298b 523c 321d ad3c
00000300: 3747 49bd 207e 803c 7fd6 e1bc 760b 8f3c
00000310: 32bb 1bbd 4c58 7a3c cc50 7fbd 9693 22bd
00000320: d1d5 89bd 258a 3d3c 5369 c738 63fa db3c
00000330: 19d2 30bd 431e f13b 4ee3 88bd e4ad 193c
00000340: 7efa 4a3d 4b72 7cbd eebb 633c 4ed4 22bd
00000350: 3153 573c b93c 65bd 24a5 96bc a54c 81bd
00000360: a473 a5bb 63b0 05bb b5ad 17bd 8abf 62bd
00000370: d6f8 62bc 02b5 60bd 1381 7b3c 9481 5fbd
00000380: 2665 65bd 3b0d c7bc b743 00bd f657 93bd
00000390: 94d4 563c 0eb7 8d3c 805d 2a3d cc98 273d
000003a0: c3f6 4c3c 2a62 66bd f07d 58bd 77aa 883b
000003b0: 9a8d c1bd 80fe 0c3d 3b15 a03c 8907 7bbc
000003c0: 39c8 b3bc c4e9 79bd 523d 68bc 43c1 35bd
000003d0: 1e6a 06bc 33c9 1abd f585 0c3b 6ef9 a0bc
000003e0: b93a 24bd b52c 72bd d8fb 2d3d 0588 88bd
000003f0: 1048 133d 9b85 9b3c 1935 053b c6d9 89bd
-0.01607626 0.01953845 0.033552743 -0.0448151 0.009164341 0.036971293 0.036221225 0.011808226
0.0008904133 0.016742889 0.005808089 -0.10068733 -0.012275234 -0.028318204 -0.007966415 -0.023550108
-0.05004551 0.043160003 -0.032595515 -0.05935102 -0.03585242 0.0050554755 -0.061823636 -0.062427588
0.011888226 0.014623231 0.046965335 -0.070624 -0.020827994 -0.032979183 -0.03863549 0.0013505891
0.013170368 -0.012269523 0.059880044 0.0035817444 -0.08518517 -0.013771829 0.032166116 0.028134258
-0.024031475 -0.016815457 -0.061039012 -0.0802235 -0.042042963 0.037244685 -0.039932754 -0.009517468
-0.060999416 0.0066801207 -0.06066606 -0.058654945 0.039923843 -0.03195572 -0.07906287 -0.09684105
-0.027992006 -0.031095682 -0.06712975 0.034201376 -0.039656155 -0.017909944 0.03631342 -0.08250792
-0.020963354 -0.0014101542 -0.018203434 0.037297573 -0.022182167 -0.06958216 0.04543491 -0.07168247
-0.03445238 0.056640007 -0.03725599 -0.062014453 -0.07309279 0.0023231239 -0.03404387 0.015730502
0.02048917 -0.08491991 -0.0021155714 -0.024873486 -0.069019884 0.018500607 -0.050866142 0.024883937
-0.043840747 -0.04323633 -0.060079206 0.02049794 -0.06951847 0.034350656 0.023892246 -0.06116342
-0.014122987 -0.04926399 0.0063436776 -0.010759414 0.025898762 -0.0845123 -0.025821118 -0.0631867
-0.013744556 0.00633242 -0.03941367 -0.005264554 -0.00311896 -0.031720787 0.0046314527 0.04128839
0.022481492 -0.021005644 -0.060089648 -0.052953936 -0.0029431013 0.001975081 -0.0043804813 0.021949299
-0.03804442 -0.1006542 -0.055540655 -0.067730464 0.03020138 -0.0027345496 -0.02863238 -0.02298659
-0.022979746 -0.063111655 -0.052035708 0.027192157 -0.03562429 -0.035613287 -0.026070075 -0.025096007
0.0031163252 -0.014852186 0.010398849 0.029023876 -0.0619165 -0.029680885 0.020784246 -0.026258761
-0.057257015 0.018037632 0.04545038 0.014001575 -0.055272877 0.050922394 -0.070106804 -0.06204705
0.015638908 -0.032882232 -0.06296846 0.0075074006 0.008935246 -0.09236208 0.013030188 0.0049058367
-0.04645773 0.005752667 -0.003091432 -0.03378592 -0.04467155 -0.04781293 -0.0008984059 -0.04834349
-0.06540355 -0.059747584 -0.048431158 -0.04666929 -0.06898573 -0.092976116 -0.019812463 -0.0690582
-0.024205139 0.037805557 0.02753513 0.032537248 0.02088125 -0.0016709021 -0.05720669 -0.015277398
0.009986788 -0.05913182 0.015109413 0.0073765577 -0.053497978 1.1453335e-05 0.012850561 0.021132085
-0.04914018 0.015685141 -0.0275681 0.01746152 -0.03802032 0.015279841 -0.062332913 -0.03969153
-0.06730235 0.011568581 9.5086776e-05 0.026852792 -0.043169115 0.007358344 -0.0668398 0.009379838
0.049555294 -0.061632436 0.013899786 -0.03975325 0.013142393 -0.055966113 -0.018389292 -0.06313447
-0.005049186 -0.0020399324 -0.037030894 -0.055358447 -0.013853272 -0.054860123 0.015350598 -0.054566935
-0.056004666 -0.024298301 -0.031314578 -0.071945116 0.013112206 0.017299201 0.041593075 0.040917203
0.012510004 -0.05624596 -0.05285448 0.0041707116 -0.094508365 0.034422398 0.019541373 -0.015321621
-0.02194606 -0.061013952 -0.014174776 -0.04437376 -0.008204011 -0.037789535 0.002144215 -0.019650187
-0.040095065 -0.059124667 0.042476505 -0.06666569 0.035957396 0.018984606 0.0020325838 -0.0673099

fc2.bias f4 [128]
00000000: d441 c7bd 83be cd3d 759d 13be 3f6c 7ebd
00000010: c33f f2bd 0605 89be a6ae 7bbe 71e6 95be
00000020: 717b cebe f407 8fbe 6e6c ccbd 31f2 68be
00000030: a25d d6be 7066 19bf 213a 15be f368 11be
00000040: 75f2 27be 4b34 3dbe 5ec6 e4bd 9eba 07be
00000050: 3623 f0bd d7f7 79be c391 b9be 7f0c 9bbe
00000060: 416e 9ebd 155f 35be db86 393d c01e 8c3c
00000070: 6deb abbd 6794 f1bd de47 ddbd 032b aebe
00000080: b5e2 15be aa0b cbbe 4574 9abd 4a78 67be
00000090: fea5 76bd e89f e1bd 4f3a 57be 5eea 53bd
000000a0: 1162 b7be 7367 8fbe 567e ebbe f643 82be
000000b0: fd52 a2be f808 c5bd c73d b0be 0de0 1dbe
000000c0: dbc5 9cbc f9fd 71bd 83f3 5bbe 2b33 81be
000000d0: fad0 f2bc dcee 0dbe 850b f2be c190 40bd
000000e0: 0ab9 6dbd 5ada 68be ca38 c3bd 7081 99be
000000f0: 9e9f 823e 24f3 adbd e064 b3bd 78db fbbd
00000100: 5e32 25be 43bc 77bd 2622 0abe cd98 39be
00000110: e4c4 87be a5f9 82be 663d 8fbd acdc dfbd
00000120: ef9c a1bc f1e2 08be 4a8b 3abe 2e1f 38be
00000130: e35b cebd 90a2 b4bd 97ee eebd 5e1b 253f
00000140: 922b 7ebe 376f cfbd bda9 dbbd 439e 45be
00000150: 7fac 54be 8178 27be fcd1 6fbe 2613 00be
00000160: ccad 84be 2850 c3be 6486 31be f275 0d3e
00000170: 76f3 ccbe 2e4f f03e 86c1 e63a 0a30 0fbe
00000180: c591 5e3b 9bd7 a3bd 8933 2ebd c498 c9bd
00000190: 49ab d9bd 1a44 02be 8a30 5cbe 79c0 26bc
000001a0: 1f3c 2c3d e9bc ddbd 1350 69be df4b bcbe
000001b0: 7ead efbd a273 b4be da67 05be da20 f0bc
000001c0: c6a2 7dbd 15f6 6dbd 08de dabe e539 46be
000001d0: 054a 24bf 74ef 4fbe fbf6 0fbe cb73 41be
000001e0: 19e3 23bd 2e10 4cbe f4e5 31be bc23 c4be
000001f0: eb5d 99bd 0b83 89bc 34fc d43e e7c3 f6bd
-0.097293526 0.10046103 -0.14415534 -0.06211495 -0.11828568 -0.26761645 -0.24578342 -0.29277375
-0.40328553 -0.27935755 -0.09981619 -0.22748639 -0.4186831 -0.5992193 -0.14572956 -0.14200191
-0.16401084 -0.1847698 -0.11170648 -0.13254783 -0.11725466 -0.2441095 -0.3624402 -0.3028297
-0.07735873 -0.17712052 0.045294624 0.017104506 -0.08394513 -0.117958836 -0.10804723 -0.3401719
-0.14637263 -0.39657336 -0.07541708 -0.2260448 -0.060216896 -0.11016828 -0.21018337 -0.05173718
-0.35817006 -0.28008613 -0.45994824 -0.25442475 -0.3170394 -0.09620851 -0.34422132 -0.154175
-0.019137314 -0.059080098 -0.21479611 -0.2523435 -0.029640663 -0.13860649 -0.47274414 -0.047013048
-0.058037795 -0.22739545 -0.09532316 -0.29981565 0.25512403 -0.08493641 -0.08759475 -0.1229772
-0.16132495 -0.060482275 -0.13489589 -0.18124695 -0.26517403 -0.2558109 -0.06994133 -0.10930762
-0.019728152 -0.13367821 -0.18217197 -0.17980644 -0.1007612 -0.08820069 -0.11666601 0.64494884
-0.24821308 -0.101286344 -0.107257344 -0.19298653 -0.20768927 -0.16354562 -0.23419946 -0.12507305
-0.25913846 -0.38147092 -0.17336422 0.13814524 -0.40029496 0.4693541 0.0017605282 -0.13983169
0.0033961397 -0.08000108 -0.042529617 -0.09843591 -0.10628373 -0.12721291 -0.21502891 -0.010177725
0.042049523 -0.108270474 -0.22784452 -0.36776635 -0.11703013 -0.3524447 -0.13027897 -0.02931254
-0.06192281 -0.05809601 -0.4274752 -0.19358023 -0.64175445 -0.20306188 -0.1405906 -0.18891828
-0.0400115 -0.19928047 -0.17372876 -0.38308513 -0.074886166 -0.016786119 0.41598666 -0.12049084

fc3.weight f4 [64, 128]
00000000: b797 483d f838 9ebe 135e 6c3d 1fa0 5abe
00000010: 00f5 73bc bd82 18bd 461c 68be 3b2e fabd
00000020: 80e6 48be c095 dbbe 43f3 363f ffb2 043e
00000030: fc06 6ebe 706d 4dbe e1d9 d13d 47d4 52bd
00000040: c0ea 963e b142 c0bd 45c0 513c 95b2 65bd
00000050: 9520 36be ab79 12be a794 b23e 24a5 28bd
00000060: e825 45bd ef75 593e 6e51 acbe 3fc2 00be
00000070: d879 7d3d 1d16 db3b f06a b63e a4e3 06be
00000080: cbf5 033e 2a42 3b3c 7df1 f53e 1df7 8a3e
00000090: f2c1 e7bc eb54 36bc b28d 29be 2657 6dbd
000000a0: d7a8 e7be 0011 00bd 997a e3be bbd4 6d3d
000000b0: 5bc5 18bd 1aa8 aa3d a4cb 8d3e d04d 9abd
000000c0: cb2c b5be 57f6 3ebe 5266 0a3d a0d3 86be
000000d0: d02e 5e3d 72ca 253d a7d7 9bbe f5e3 8cbd
000000e0: c8cd adbe 82b3 653e 62de 853d cba1 80be
000000f0: faf9 bfbe b663 66be e01d 2e3f c842 2abe
00000100: fd9f 9fbd 07f3 413c a18b 793e 3588 7c3d
00000110: c7f5 62be 78c0 43bf 3bdb 2bbd ea61 93be
00000120: e337 1d3e 1ba5 853e 6b63 80be 9564 8bbe
00000130: 07b4 923d 3e14 92bc 8c00 ddbd e3dd f3bd
00000140: 017e 913e b9cf 8c3d e84b 033f e50f 8ebd
00000150: f1b5 02be 475f 17bb 734a ccbb 30c3 a93e
00000160: 1874 d53e 2dfa 27be 96a3 bcbe 21cf 29be
00000170: 2665 79be e56d 18bf 2869 013e 229b 893b
00000180: 4a55 9cbd a01e 283c e526 133d 982e 29bd
00000190: 1d16 9bbc 3682 a43c 383d eabd b05b 783d
000001a0: 8951 933e 3786 703c 1906 55be 445b cbbd
000001b0: a02d bbbb 78fe 843d c0fb 20bd 7740 8ebd
000001c0: 2075 ecbd 9baa 06bd 5cfd b43c 8f6a 56bd
000001d0: 1a97 2cbd c2eb 5a3d f4da 89be 8731 5cbe
000001e0: 439e 6b3d a0c2 0a3d 7bc2 e6bd 01d4 533d
000001f0: 9fd3 0bbe 8b92 0f3d 6d74 93be ff6b 6ebd
00000200: 3ed5 d93c c5c2 e3bd f7db b0bd c262 65be
00000210: 3a6a 44bd c0b5 503e e157 bf3d ce79 b13d
00000220: 0e2f 3b39 ccdb 6d3d 5dba 83be e8d7 e4bd
00000230: c743 453d 5a52 bb3d c4d9 94be b418 8abe
00000240: 982b 063f a0d5 c9bc ccb0 fabd dba0 21bd
00000250: ff88 72bb af17 4a3e 03bf c0bd 7b39 ba3d
00000260: 6dd0 b23d 6a60 cd3d f616 8f3d 671d e6bd
00000270: b55e 6e3d 3e19 e43d 90e5 163e 8166 21be
00000280: 53eb a8be eac4 32be 56e8 07bf 2990 053e
00000290: 628d 9dbc c667 963d 9474 523c 9377 b4bd
000002a0: d10c 863e b0b9 f4bd 4091 f63d 1eed 673e
000002b0: bb24 f73c 19c2 2a3e 4ac2 80bc f6b4 283c
000002c0: a5d5 36be f599 693d 680a 8b3c 1a0d a0be
000002d0: 3463 7e3c 8bde 9b3d 9ba4 bdbb 5471 9cbc
000002e0: 342b 27be dce3 30be e2f0 d53c 6177 d1bd
000002f0: 35ec d5be 007f 763d 5473 d2be 844c 8cbd
00000300: 929a bbbe 2e94 1ebd 1cba d93d 3346 3cbe
00000310: 4bc2 8e3d ec1c b03d 8043 2a3e 2deb 373c
00000320: 433e 943d a8ca 81be bea0 8ebe a52e db3c
00000330: 6194 01be 1c5d 85bd 54b2 0b3e c663 b73c
00000340: c0bd 43be c601 a1bd 547d a9be ac7e f93d
00000350: 0164 75be bc98 493e adff 32bd ed3f d7be
00000360: 41d8 58be 82e3 dabd dcb9 1d3d 996d 34be
00000370: c2b1 58bd ff4b fcbc 0a4c 03be 02dd bd3e
00000380: db74 283d a076 87bc fc3b 0f3e 742a 2d3d
00000390: 9ed9 95be fdd8 963e 00d5 3b3f 4368 0a3f
000003a0: 9a4e a3bd 46f2 8d3d b0ff 643d 4c16 183e
000003b0: 4e1c 323e 90a5 1e3e c964 f2bd 3ce5 10bd
000003c0: 53e4 6c3c bac3 193d e226 933b 3ec1 753e
000003d0: 9cf3 ddbd 0075 0ebe 6dc6 6abe 7c1f 47be
000003e0: 7278 d6bd c316 00be c073 95be ea1b 20bc
000003f0: e1ad 5bbe 47a8 2ebd 75f5 4dbe 6b1e 7bbd
0.04897281 -0.3090284 0.057706904 -0.21350144 -0.0148899555 -0.037234057 -0.22667035 -0.12215849
-0.19619179 -0.42887688 0.7146494 0.12958907 -0.23244852 -0.20061278 0.10246635 -0.051471975
0.29475975 -0.093877204 0.012802188 -0.056078512 -0.17785867 -0.14304225 0.34879038 -0.041173115
-0.048131853 0.21236394 -0.33655876 -0.12574099 0.061883777 0.0066859857 0.35628462 -0.13172776
0.12886731 0.011429349 0.48035803 0.27141657 -0.028290723 -0.011128644 -0.16557959 -0.05794444
-0.45246002 -0.031266212 -0.44429472 0.058064204 -0.037297588 0.08332844 0.27694428 -0.07534373
-0.35385737 -0.18648659 0.033788987 -0.26333332 0.054243863 0.04047627 -0.30437967 -0.06879417
-0.3394606 0.22431758 0.06536557 -0.25123438 -0.37495404 -0.22498974 0.68014336 -0.16627038
-0.07794187 0.011837727 0.2436967 0.061653335 -0.22164069 -0.7646556 -0.04195712 -0.2878564
0.1535335 0.26102528 -0.2507585 -0.27225175 0.07163244 -0.017831918 -0.1079112 -0.11907556
0.28416446 0.068755575 0.512877 -0.069366254 -0.12764718 -0.0023097561 -0.006234461 0.3315673
0.41690135 -0.16404028 -0.36843556 -0.1658292 -0.24354991 -0.59542686 0.1263777 0.0041994015
-0.07633455 0.010261208 0.035925765 -0.0413042 -0.018931443 0.02008162 -0.11437458 0.060634315
0.28773144 0.014680437 -0.20803107 -0.09929517 -0.005712226 0.064938486 -0.039302588 -0.069458894
-0.11545777 -0.032877546 0.022093467 -0.052347716 -0.04213629 0.053447492 -0.2692486 -0.21503268
0.057523977 0.033877015 -0.11267563 0.051715855 -0.13654946 0.035051864 -0.28799763 -0.05820846
0.02659094 -0.11121134 -0.08635705 -0.22400954 -0.047952868 0.20381832 0.093429334 0.086658105
0.00017851239 0.058070943 -0.2572812 -0.11173993 0.04816034 0.09146567 -0.29072392 -0.26971972
0.5241027 -0.024637997 -0.122407526 -0.039460044 -0.0037007926 0.19735597 -0.094114326 0.09092995
0.0873116 0.10028155 0.06986801 -0.11236077 0.05819579 0.11137627 0.14736009 -0.15761758
-0.32992038 -0.17457929 -0.5308889 0.13043274 -0.019232456 0.07344012 0.012845177 -0.088118695
0.26181653 -0.119494796 0.12039423 0.22649047 0.030168882 0.16675605 -0.015717644 0.010297051
-0.17854936 0.05703159 0.016972736 -0.31259996 0.015526582 0.07610806 -0.0057874448 -0.019097008
-0.16325074 -0.17274421 0.026115838 -0.10227848 -0.41781774 0.06017971 -0.41103613 -0.06850532
-0.36641365 -0.038715534 0.10631201 -0.18386154 0.06970652 0.085992664 0.16627312 0.011225504
0.07238438 -0.25349927 -0.27857012 0.02675564 -0.12654258 -0.065119 0.13642246 0.022386443
-0.19115353 -0.078616664 -0.3310343 0.12182364 -0.2396393 0.1968717 -0.043700863 -0.4204096
-0.21176244 -0.10687925 0.038507327 -0.17619933 -0.052903898 -0.030797957 -0.12821975 0.37082678
0.041127067 -0.016536057 0.13987726 0.042276815 -0.2926759 0.29462424 0.7337189 0.5406534
-0.079739764 0.069309756 0.055907905 0.14852256 0.1739361 0.15492845 -0.118356295 -0.035374865
0.014458734 0.037540175 0.004490719 0.23999497 -0.108374804 -0.1391182 -0.22927256 -0.19445604
-0.10472192 -0.12508683 -0.29189873 -0.00977228 -0.21453048 -0.04264095 -0.20113166 -0.061308306

fc3.bias f4 [64]
00000000: 3477 6abe f3c1 503f e43f 383f 4af8 173e
00000010: cd3a f03e 882f 763f 9052 39bc 3ca7 4fbe
00000020: 5ccc 19be e09a f73e 5429 5d3f b008 1abe
00000030: 8142 88bd 626c 85be 1e1a 06be 91d0 3d3f
00000040: 15b6 35be 3bc8 1abd d4fc 713d 5386 4d3f
00000050: 7cf3 eb3d be4c 613f 05a3 4ebd b95a ddbd
00000060: f246 fb3e c74f e5bd 2ee8 843f 13c0 613f
00000070: 3ad6 ea3e d545 97be 5daa f2bd 649a 103f
00000080: 2ac8 383f 9482 1abd a637 37be 7a76 46be
00000090: f65b 9c3e ee99 903e f317 413e 264d 713e
000000a0: bd7a 3b3f f974 0c3e 5a35 efbe df29 563f
000000b0: cc6f fdbe 0caf adbe c8f5 173e 99cd bfbb
000000c0: 50d9 2e3e 2e15 913e 1909 99bd 7e69 5e3d
000000d0: d150 10be d029 ccbd 0aa0 8b3e 41aa ad3c
000000e0: 4bbd 533f 3732 25be a297 80bf 7e16 57be
000000f0: eee3 ef3e 0ba5 5e3f ad03 2a3f aefa 01bf
-0.22897035 0.81545943 0.7197249 0.14840809 0.4691986 0.96166277 -0.011311188 -0.20278639
-0.15019363 0.48360348 0.86391187 -0.15042377 -0.066533096 -0.26059252 -0.130959 0.7414637
-0.1774524 -0.03778861 0.059079006 0.8028309 0.1152105 0.88007724 -0.050448436 -0.108083196
0.49077564 -0.11196857 1.0383356 0.88183707 0.45866567 -0.29545465 -0.118489005 0.5648558
0.72180426 -0.037722185 -0.17892322 -0.19381133 0.3053891 0.2824244 0.18856792 0.23564586
0.7323416 0.13716497 -0.46720392 0.8365764 -0.49499357 -0.33922613 0.14839852 -0.0058533666
0.17075086 0.2833647 -0.07472438 0.054299824 -0.14093329 -0.099689126 0.27270538 0.021199347
0.82710713 -0.16132437 -1.0046275 -0.21004674 0.46853584 0.86970586 0.6641186 -0.5077313

fc4.weight f4 [4, 64]
00000000: 12e2 343d f297 303e 757f 7d3e 318e 313d
00000010: 2c87 b53e b4cc a03e 5ae6 a03e 55a7 88be
00000020: 7f19 143e 37e3 d7be 506e a03e 1195 113e
00000030: a521 48bd badc 653c 28bb 7c3e a6ed 253e
00000040: 4ed2 c43c 185b adbc df41 0c3f e016 223e
00000050: b950 153e d22c 953e 482b 0e3e 5d68 283e
00000060: 68ce eabc 58c3 0abc 2d59 913e a9f6 6a3e
00000070: 514b 90bf 78a5 55be 592d 46be 28d8 2cbe
00000080: a216 403e 3431 a63d 7597 89bf 3a49 80bd
00000090: 8da6 643e 9206 42bf aa66 e0be 54df 233e
000000a0: cc9e 4f3e b425 f83e a6ed f23e 743f 623e
000000b0: 410e 1bbf d628 c2be ef6c d73c 96c8 a1bf
000000c0: 5190 243d d954 99bf ed5d ba3d a0c3 433e
000000d0: d30e ab3e 4f99 42be a44c 39be 5d34 683e
000000e0: d1a4 0f3e d2c2 d33d 2bc9 c3be b4be 16bf
000000f0: 8ae8 7fbd 7480 9d3e b361 553e 410f cc3d
00000100: afa3 103e 2cbe 933e 0d05 ebbd 810a 9d3e
00000110: 42eb 12bf ac9a 7b3e 9cb0 383f 8382 65bc
00000120: 12f3 453e 6c4e dd3c 8607 ae3e 835a d4be
00000130: d81b 003f 3d6a 0c3e 54ee 4c3e 941c 733d
00000140: cccb 023d 41ae 7b3e 7667 afbe 8882 a83e
00000150: 5de2 433e 468d a43e fa3d 373e d865 273e
00000160: 26a5 17bf 7331 cabc b48c af3e a3fe 4d3e
00000170: b8f0 bcbe bd83 5e3d 1859 803e 4816 2cbf
00000180: e504 5b3d 87eb 243e 5b87 5f3e 7fc0 123d
00000190: f759 363d 0264 63be 7576 6cbe e694 cfbe
000001a0: 39aa 9c3e e859 7f3e fb3b d0be 77ec 823e
000001b0: d40f 2cbe 760c 383d 6b89 0fbf 104f 3a3e
000001c0: c8fc 16be 1b6d a1bd 9ce5 ff3d fa06 003f
000001d0: aec1 b3bd 7766 96bd b6ce 6fbe 986d e13d
000001e0: ba4e 9a3e fdfe e43d 500e 7fbe 724c 1cbd
000001f0: 921f a13d 4c7c 243e b483 9c3e b4d8 9dbe
00000200: f1e3 a03c 4e2e 4e3e 6b41 823e fef4 b8bd
00000210: 36fe 9cbf 0541 973e 4f6b b03e 6087 32bf
00000220: 1131 a23b ed55 f23d a4a9 a33e ea0c e1be
00000230: 66f7 a13e 48b0 cf3d 6252 0e3e a757 413e
00000240: 0498 0cbe 6281 123e 2b1d 6cbf c70d 7b3e
00000250: a796 113e f335 203e 9341 0a3e 7796 24bd
00000260: b367 8ebe 0698 4c3c 7958 bb3e 7257 cc3e
00000270: a15c 263e a731 ddbc 3e37 38bd fddc 0dbf
00000280: 954b 6e3e a20d 89be a3ef cc3e 8323 f13c
00000290: 88de 3cbf 1a9f b23c f0ee 2dbe 9035 28bf
000002a0: 1fe0 8c3e 0a18 ffbf 5f98 2abc 8f9a 293e
000002b0: 5164 86be a9df e93e 0cce eb3c 0075 243d
000002c0: fac5 debf 0737 71bd 8a21 85bd fa59 8dbf
000002d0: 3ef9 e83e b0d5 83be 1de3 95be fdb9 023e
000002e0: d8bb b13e 6ac9 f7bd cb7d d1be 6d2c 273e
000002f0: 4b6e 913d 1817 163e 1489 1bbe ac89 bcbc
00000300: 45f1 50bf c157 ab3e e834 d73d 797e 86bf
00000310: 1689 323f 462c 503e 4b54 d6be c20a 5fbc
00000320: a821 67be 7331 10be d4c4 ac3d 4c5e 943e
00000330: 27fe 833e f43e e2ba 3e33 abbe ce32 9c3e
00000340: 30f2 a7bc 8891 27bd e5c9 933e e80a 063e
00000350: 1433 86be faf2 a13e 7412 a13c 9063 823c
00000360: bfb5 2b3f e4f8 26bd 1e2e 9f3e 3949 2e3e
00000370: 2cf4 7bbe fa12 603e b4e0 843d 2c98 1ebe
00000380: e76c d43e ae5b 4b3d 7b0d ca3e 2fad 72bc
00000390: 5fda 5cbf fbc9 8c3e becb 26bf 1dd8 b8be
000003a0: 463c 52bd 4bc1 d23e c84c 7f3e c7b0 dc3d
000003b0: a04b 23bf 27a6 933e c52c 48be e144 053e
000003c0: 036a c93d 4a0a 013f 7359 1d3e 2356 8d3d
000003d0: be66 e7bb 1e24 e73b bf66 41bf 7211 003e
000003e0: 5096 6d3e 657e 4b3d 6e03 e9be 9b8a 923e
000003f0: 0e7f 863e 9dc9 cc3e d5e3 9b3e 004c e7bd
0.04416091 0.17245463 0.24755652 0.043348495 0.3545469 0.31406176 0.31425744 -0.26690164
0.14462851 -0.4216554 0.31334162 0.1421702 -0.04886021 0.014029676 0.2468077 0.16203937
0.024026062 -0.021161601 0.5478801 0.15829039 0.14581574 0.29135758 0.13883698 0.16446061
-0.028662875 -0.008469425 0.28388348 0.22945656 -1.1272985 -0.20863903 -0.19353236 -0.16879332
0.18758634 0.081148535 -1.0749346 -0.06263967 0.22329159 -0.75791276 -0.43828326 0.16003162
0.2027542 0.48466265 0.47446936 0.22094518 -0.60568625 -0.3792178 0.02629706 -1.2639339
0.040176693 -1.1979018 0.09099946 0.19117594 0.33409747 -0.19003795 -0.18095642 0.22676225
0.14027716 0.103398934 -0.38239416 -0.5888474 -0.062477626 0.30762064 0.2083805 0.09963847
0.1412494 0.28856027 -0.11475573 0.30672076 -0.57390225 0.24570721 0.72144485 -0.014008167
0.19331005 0.027014934 0.33990115 -0.41475305 0.50042486 0.13712402 0.2001279 0.059353426
0.031932637 0.24578191 -0.34258622 0.32912087 0.1912932 0.32139033 0.17894736 0.16347444
-0.5923637 -0.024681782 0.34287035 0.20116667 -0.36902404 0.054324854 0.25067973 -0.672215
0.053471465 0.16105472 0.21828978 0.03582811 0.04451939 -0.22206119 -0.23092063 -0.40543288
0.3059862 0.2493664 -0.4067076 0.25571033 -0.16802913 0.04493376 -0.5606906 0.18194222
-0.14744866 -0.07882138 0.124949664 0.50010645 -0.08777176 -0.07343762 -0.23418698 0.110072315
0.3013819 0.11181448 -0.24907804 -0.03815884 0.0786735 0.1606304 0.30569232 -0.30829394
0.019639941 0.20134851 0.25440535 -0.090311036 -1.2265079 0.29541793 0.3445687 -0.69737816
0.004949697 0.11832795 0.31965363 -0.43955165 0.31634063 0.10141045 0.13898614 0.18881093
-0.13729864 0.14307168 -0.92232007 0.24516974 0.14217626 0.1564558 0.13501577 -0.040182557
-0.2781349 0.012487417 0.36590937 0.39910465 0.16246273 -0.027001215 -0.044974558 -0.55415326
0.2327102 -0.26768214 0.40026578 0.029435879 -0.73777056 0.021804381 -0.16985679 -0.6570673
0.2751474 -1.9929211 -0.010412305 0.16562866 -0.2624841 0.45678452 0.028784774 0.040150642
-1.7404168 -0.05889037 -0.06500538 -1.1043084 0.45502657 -0.25748968 -0.29274836 0.12766261
0.34713626 -0.120989636 -0.40916285 0.16325541 0.07101115 0.14657247 -0.1518901 -0.023014866
-0.8161815 0.33465388 0.10508138 -1.0507346 0.69740427 0.20329389 -0.41861185 -0.013613405
-0.22571433 -0.14081363 0.084359795 0.28978193 0.2577984 -0.0017261193 -0.33437532 0.3050751
-0.020501226 -0.040910274 0.2886497 0.13090098 -0.26210845 0.3163069 0.01966212 0.015916616
0.670742 -0.040764704 0.31089872 0.1702012 -0.24604863 0.21882239 0.06488171 -0.15487736
0.41489336 0.04964798 0.3946341 -0.014811798 -0.8627071 0.2749785 -0.65154636 -0.3610238
-0.051327012 0.41163096 0.24931633 0.10775905 -0.6378727 0.28837702 -0.19548328 0.13014556
0.09834673 0.50406325 0.15366153 0.06901195 -0.0070618084 0.007053866 -0.75547403 0.12506655
0.23201871 0.049681086 -0.4551043 0.28621373 0.2626881 0.3999757 0.3044726 -0.11293793

fc4.bias f4 [4]
00000000: 5314 413f d85c 343f ed0d 203f 876e 2a3f
0.7542164 0.7045417 0.6252125 0.665749
