Navigation/PPO_MC_checkpoint.pth (torch_old, 570642 bytes, 8 tensors)

fc1.weight f4 [256, 37]
000000 5f 4b 31 be 6b fb 4d be 9b 57 84 3d 2d 6b b9 3d
       -0.17313908 -0.2011544 0.06462022 0.09053645
000010 f0 7a 50 3d 32 f2 b8 bd 63 ab c4 bd 41 9c e1 3d
       0.050898492 -0.0903057 -0.09603002 0.11016131
000020 e0 73 bc bd a4 48 37 be 5c 45 42 3c 81 74 00 be
       -0.09201789 -0.17898804 0.011857357 -0.12544443
000030 6c a9 28 3c 8c e4 02 3d d8 68 14 3c 6b 9d 6f bd
       0.0102943 0.03195624 0.0090582 -0.058499735
000040 2b 3f 17 be 70 7f 34 bd 05 f7 16 be 56 1e 2c be
       -0.1477019 -0.044066846 -0.14742668 -0.16808447
000050 43 b7 57 bd 71 25 0a 3e a4 af f4 3d 75 c1 60 be
       -0.052665006 0.13490845 0.11947563 -0.21948798
000060 7b e2 bf 3d af ef 3a 3c b1 84 34 be b8 42 05 3d
       0.093693696 0.011409684 -0.17628743 0.03253433
000070 6d a0 1a be 62 f9 5f be d2 89 43 bd 26 8d 1f be
       -0.1510026 -0.21872476 -0.047738858 -0.15581188
000080 53 74 34 be 82 9a da 3c f5 f0 f3 3d 5b 4a 94 bc
       -0.17622499 0.026685003 0.11911193 -0.018101862
000090 9f f9 87 3c 71 aa 43 be 16 ba 0b 3e 34 a4 74 bd
       0.01659852 -0.19107987 0.13645205 -0.05972691
0000a0 d4 fb fb 3d 2d 08 68 3d 51 51 49 be 81 03 54 be
       0.12303892 0.056648422 -0.19659926 -0.20704462
0000b0 4a 98 b7 bc 57 0d b3 bd 35 d3 bc bd 4c 6a 1f bd
       -0.022411484 -0.08742779 -0.09219972 -0.038919732
0000c0 71 d0 b0 bd 33 78 b5 bd 8c a8 12 3d 20 18 bd bd
       -0.08633507 -0.08860817 0.03580527 -0.09233117
0000d0 f1 b1 6b bd d1 bc 94 bd f8 5c 1e be 87 db ed bb
       -0.057542745 -0.07262576 -0.15465152 -0.0072588357
0000e0 d0 5f 6e bd f8 9e 2b be 58 ea 0c be f8 ca aa 3d
       -0.058196843 -0.1675986 -0.1376127 0.083394945
0000f0 67 d4 d1 3d df 8e b5 3c 59 a0 37 be 15 b7 99 3d
       0.10245591 0.022162853 -0.17932262 0.07505623
000100 f0 80 2c 3d 09 9f 03 3c 19 77 1e 3e 95 fd 02 3e
       0.042115152 0.008033522 0.1547512 0.12792046
000110 d6 39 19 be 3e 0f af 3d eb 9f 49 bc bf 65 8c 3d
       -0.14963469 0.08547829 -0.012306194 0.06855344
000120 06 60 0c be 17 d1 3c be f6 55 2a 3e c2 2d d4 bd
       -0.13708505 -0.18439136 0.16634354 -0.1036029
000130 79 e0 1b 3c dd 55 bf 3d 34 78 d3 bd 75 80 62 be
       0.009513968 0.09342549 -0.10325661 -0.22119315
000140 24 39 25 3e 79 5e cd 3d ec f9 0e 3e 8c 51 c7 3d
       0.16135079 0.10027785 0.13962525 0.09732351
000150 b2 38 9f bd 44 2f ad 3d a6 e4 12 3d d0 62 24 3e
       -0.07774486 0.08456281 0.035862587 0.16053319
000160 70 ab f1 bd 2c 05 d9 bd ae 75 64 bd 0d 2a 39 3d
       -0.11800277 -0.105966896 -0.05577629 0.04520612
000170 99 46 77 3d 1d bd 9d 3b a5 49 e2 3d e2 31 c5 3d
       0.06037006 0.004813804 0.11049203 0.09628655
000180 56 c6 8a 3a 21 fa 33 be de bc f2 bd 84 d2 80 bd
       0.0010587673 -0.17575885 -0.1185243 -0.06290153
000190 3f 18 c4 bd ac 6c ae 3d 33 79 9a bd 1c 40 0d bd
       -0.09574937 0.08516821 -0.07542648 -0.034484968
0001a0 b6 92 dd bd 16 2d 58 be 6b b7 ed 3d c0 4f 88 3d
       -0.108189985 -0.21110949 0.1160725 0.06655836
0001b0 e6 c7 37 be b1 ac e2 bd a2 c3 c8 bd 18 91 26 be
       -0.17947349 -0.110680945 -0.09802939 -0.16266286
0001c0 06 a7 af 3c 20 fc 19 be c8 17 0b 3e 88 ca 77 be
       0.021441948 -0.15037584 0.1358329 -0.24198353
0001d0 08 ed 1e be 06 6b a0 3d c2 38 65 be d2 ca 92 3d
       -0.15520108 0.07832913 -0.22384933 0.07167591
0001e0 0a 48 cb 3d 62 a7 ab 3d 85 46 aa bc 95 be a8 bd
       0.0992585 0.08381535 -0.02078558 -0.08239476
0001f0 e3 f3 73 ba a7 2c 4d 3d ce 46 2a be bd e3 51 bd
       -0.00093060563 0.050091412 -0.16628572 -0.05124258
000200 87 3b 53 3d b0 63 b3 bd e3 bf cf bd 77 4f 90 3c
       0.05157044 -0.08759248 -0.10144021 0.017616017
000210 c9 43 8d bb af 19 05 bc f3 16 2d be ad 92 1c be
       -0.004311059 -0.008123799 -0.16903286 -0.15290327
000220 60 05 84 3d 5b c4 9a bd 2e a1 87 be 5f 98 f5 3d
       0.06446338 -0.07556983 -0.26490158 0.11991953
000230 1b 38 5b be cb 84 3d bc 4d 60 b3 bc 79 6c a6 bd
       -0.21408121 -0.011567305 -0.021896506 -0.08126158
000240 e7 05 a1 bc 79 cc d4 bd ac d1 3e 3c 64 8e b2 bd
       -0.019656135 -0.103905626 0.011646669 -0.08718565
000250 9f c0 97 3d d2 ae 12 be 0e 04 e5 bd b4 90 c3 3d
       0.074097864 -0.14324501 -0.11182414 0.09549084
000260 ad f8 65 bc 8b a8 86 3d 58 d6 0f be ca 0b a5 3d
       -0.01403634 0.06575116 -0.1404661 0.08058889
000270 6c 22 9e bd b1 2f dd 3d 63 80 97 bd d6 e8 3d 3d
       -0.07721409 0.10800112 -0.07397535 0.046364628
000280 77 ad 22 ba 23 2f 97 bd b5 c9 87 3d 20 c4 ba 3d
       -0.0006205658 -0.073820375 0.066302694 0.09119439
000290 25 ce 3e be cf be 0a 3e 02 65 2b 3e ba 31 88 3c
       -0.18633325 0.1354935 0.1673775 0.016625274
0002a0 01 22 87 3e dd 0b 3e be db 2e 45 be c8 90 41 be
       0.2639313 -0.18559213 -0.19256155 -0.18902886
0002b0 de 62 6b be 60 ce 24 3e c3 8d d9 bd 59 4f c3 3d
       -0.22986934 0.16094351 -0.10622742 0.09536619
0002c0 7c 82 e4 3d e4 be 22 3e e3 41 25 bb 29 f3 03 be
       0.111577004 0.15893131 -0.0025216273 -0.12885727
0002d0 10 ce 0b be 8d e3 ca bb 71 a4 20 3d a4 5c 21 3e
       -0.13652825 -0.006191677 0.039219324 0.15757996
0002e0 fd 5b 81 bc e4 5a 4c 3e b0 ba 0a 3e ba e2 77 bd
       -0.015790934 0.19956547 0.13547778 -0.060518958
0002f0 1c 08 c7 3d 34 b0 f0 3d f8 82 72 3e 93 77 68 3d
       0.097183436 0.11752358 0.23682773 0.05675466
000300 ac 69 fa bc f8 4a f8 3d d5 06 3c be a6 33 48 bd
       -0.030567966 0.12123674 -0.18361981 -0.04887738
000310 5f f8 d3 3d 35 03 ac bd b7 fc 24 3e 2d 9c e0 3d
       0.103501074 -0.08399049 0.16112028 0.10967288
000320 71 cf 95 3d dc 8a 60 3a 49 0a 9e 3d 16 60 99 3d
       0.07314957 0.00085656135 0.077168055 0.0748903
000330 a2 39 d2 bd 31 6f 83 3e c0 99 b4 bd f5 14 d2 bd
       -0.10264899 0.2567077 -0.08818388 -0.102579035
000340 bf 8d bf 3c 30 6a cc 3d d3 2a 83 3e b0 fd 34 be
       0.02338302 0.09981191 0.2561861 -0.17674899
000350 91 be 8a bd 63 62 81 be b7 f9 4e 3a db 82 66 3d
       -0.06774629 -0.25270376 0.0007895487 0.056277137
000360 14 e4 62 bd e7 6f 44 bd 23 58 5a 3d 23 f7 81 bd
       -0.055393293 -0.04795828 0.05330671 -0.06345966
000370 b2 f3 8d bd 58 4e f6 3c 8b fa a1 3d ff 05 98 3d
       -0.06931247 0.030066654 0.079091154 0.07423019
000380 b7 d8 04 3e 5f 7d 97 3d f8 84 e6 bd 8f 36 1d 3e
       0.12973295 0.073969595 -0.112558305 0.15352844
000390 79 03 30 bd c9 74 82 bd 2c d7 8a 3d 13 ac 3b be
       -0.04297206 -0.06369931 0.06779322 -0.1832736
0003a0 c4 98 17 3d 39 44 46 bd 61 b9 13 3d c9 92 79 3e
       0.037010923 -0.048404906 0.036065463 0.243724
0003b0 c9 6f d8 bd 65 c2 1c 3e c1 44 9b bd 89 c8 18 bd
       -0.10568196 0.1530853 -0.07581473 -0.03730062
0003c0 37 82 db bc b4 31 a0 3c 41 88 6b be 91 57 11 3e
       -0.02679549 0.01955495 -0.23001195 0.1419356
0003d0 38 d7 db 3d 8f 36 04 3d f7 d2 27 3e 95 4c 21 3e
       0.10734409 0.032278594 0.1638907 0.1575187
0003e0 20 2b 0e be dd 3c 0f be 7e 38 21 be ae 47 31 be
       -0.13883638 -0.13988061 -0.15744206 -0.173125
0003f0 19 16 0f 3e af 27 8a bc 9c c0 04 be c7 9a 21 bd
       0.13973273 -0.016864626 -0.129641 -0.039454248

fc1.bias f4 [256]
000000 cf 78 ed 3c ce 27 de bd a2 79 c0 3d 9b b8 8b 3c
       0.02898827 -0.10847436 0.093981996 0.0170558
000010 f7 7a 08 3e 33 e8 a7 bd e7 02 c1 3c 11 2a 35 bd
       0.13328157 -0.08198585 0.023560954 -0.04422957
000020 c7 f2 66 bd bc 9e 85 bd 60 6f 40 bd f9 ad 0e 3e
       -0.056383874 -0.06524417 -0.046981215 0.13933553
000030 5b 74 e4 bd 64 06 8c 3d 34 d6 34 bd c4 98 64 3d
       -0.111550055 0.068371564 -0.044149593 0.05580975
000040 9a bc 1f 3e 07 4e 95 ba 20 71 f6 bd 47 2b b6 3d
       0.1559929 -0.0011391052 -0.12033296 0.08894973
000050 5f 2e 93 bd 61 f5 23 3c 10 ad 42 bd 9e db 2e bd
       -0.07186579 0.010007233 -0.047528327 -0.042689912
000060 4d 1d 51 be 1f d0 b7 3d 33 a8 56 3d 1a 48 4d bd
       -0.20421334 0.08975243 0.0524065 -0.05011759
000070 6b 18 b5 3d 33 a0 4f 3c 82 68 a3 bd 3f f0 8c 3d
       0.08842548 0.012672472 -0.07978918 0.06881761
000080 93 02 ce bb bc 10 35 3d 61 8b 0d 3e 27 8d 01 be
       -0.006286928 0.044205412 0.138227 -0.12651502
000090 96 63 52 3d dc 7f 2a be 0c f4 ee bd d6 88 2a be
       0.051364504 -0.16650337 -0.11667642 -0.16653761
0000a0 2e 2d e1 bd 02 23 a3 bc df 83 0d 3d 1f ad e0 3c
       -0.109949455 -0.019914154 0.03454959 0.0274263
0000b0 33 ad 95 3d 7a f4 1a 3d 4e 6a 9b bd 3e a2 1e be
       0.07308426 0.037830807 -0.075886354 -0.15491578
0000c0 9e 27 91 bd 71 30 a3 3d 8e 95 56 3d a2 58 94 bd
       -0.070876345 0.07968224 0.05238872 -0.07243468
0000d0 07 a1 05 be 0b 64 29 3e 9b ea 0b 3e 2f 86 e7 bd
       -0.13049708 0.1654207 0.13663714 -0.1130489
0000e0 78 e7 84 bd 2d 07 8d 3b dd ad 3f bd c3 67 e0 bd
       -0.06489462 0.004303834 -0.04679667 -0.10957291
0000f0 3c c8 ef bc 3f ce 2b be 67 0e d7 3d 54 6a 3a 3d
       -0.029270284 -0.16777895 0.10500794 0.04551156
000100 83 69 29 3d 7a bf da bd 45 17 99 3b ee bd 74 bc
       0.04136039 -0.106810525 0.0046719634 -0.014937861
000110 d0 e7 bd bd 02 3c eb 3d ac 19 b9 3b 2c b3 18 3c
       -0.0927273 0.11486055 0.0056488123 0.009320062
000120 03 bc 1e be c9 a8 d7 bc bb ef 0f 3d a1 7a d2 bd
       -0.15501408 -0.0263256 0.035140734 -0.10277296
000130 51 0c 4b 3c 4d a6 f8 bd 0d 01 37 be 2f bc 0e be
       0.012393073 -0.12141094 -0.17871495 -0.13938974
000140 c6 a4 7f 3c ba 6e 0a 3e 80 9f 12 3e e3 56 c6 bd
       0.01560325 0.13518801 0.14318657 -0.09684541
000150 1c 49 ca bd 99 be a5 bd e3 4b 72 bd 26 e9 46 bd
       -0.09877226 -0.08092994 -0.059154402 -0.04856219
000160 89 86 2a be 2c e9 2e 3d b1 3f 18 be 8c 0b 86 bd
       -0.16652884 0.04270284 -0.14868046 -0.06545171
000170 9e 96 c2 3a ba aa 3e 3d 01 50 7c 3d 9b b6 6f 3d
       0.0014845913 0.046549536 0.061599735 0.058523756
000180 fa 3d 41 be ba 38 fa bd cf 1d a5 bd dd 46 83 3d
       -0.18871298 -0.12217851 -0.08062326 0.064100005
000190 90 c7 eb 3d 9b 3a 27 3d 32 e5 31 bd 28 41 b8 3b
       0.11512673 0.040827375 -0.04343147 0.0056230016
0001a0 c4 7b 93 bd d8 2b 82 bd 77 ea c3 3c da b4 3a bd
       -0.07201341 -0.06356019 0.023915512 -0.04558263
0001b0 bb a3 da bd 6f c2 f4 3d 1e cb 84 3d fd 56 32 3d
       -0.1067576 0.11951148 0.06484054 0.04353999
0001c0 f7 1c 2b be 7f 18 bf 3d 3a 8f 87 bd 42 fb 31 be
       -0.16710268 0.09330844 -0.06619115 -0.17381003
0001d0 e1 dc ee 3d 21 c3 18 3d 56 cf d2 3b bf 6a 32 bd
       0.11663223 0.037295464 0.006433408 -0.043558832
0001e0 9d 58 bd bd 06 a5 ec 3d 9e f8 ac 3c 60 f3 a6 3c
       -0.09245417 0.11554913 0.021114644 0.020379722
0001f0 52 71 b9 3d 38 1b 04 be ca 57 4f bd 0d c7 91 bd
       0.09054817 -0.12901008 -0.05062083 -0.07118044
000200 15 ef bd bd ba ac 50 3d 24 f3 f9 bd 48 b0 ba bd
       -0.09274117 0.050945975 -0.122045785 -0.09115654
000210 9e cf fc 3d 99 8c 3b 3c b0 c0 2b bc b1 12 53 3d
       0.12344287 0.011447095 -0.010482952 0.051531497
000220 30 de 14 3e 39 ad 30 be 37 3c 36 3c 68 72 8e bd
       0.14537883 -0.17253579 0.011122755 -0.06955415
000230 a9 f1 21 3d 64 7c 6f 3d 16 48 c0 bd 59 ff ea bd
       0.039537106 0.058468238 -0.09388749 -0.11474485
000240 73 3a 89 3d ba da 2e be 4a 9b b0 bd b1 65 a9 bd
       0.067006014 -0.17075625 -0.08623369 -0.08271349
000250 6b 93 b2 3d 33 61 15 be 87 fb d9 bd 7f 0c 93 bc
       0.08719524 -0.1458786 -0.10643678 -0.017950295
000260 59 66 19 3e 5c 6e 1e bd 74 29 1b be 96 83 08 be
       0.14980449 -0.038679466 -0.15152532 -0.13331446
000270 c1 44 20 3d ac 51 aa 3d 2a df 11 3e 89 a1 f8 3d
       0.03912807 0.08316359 0.14245287 0.121401854
000280 ec ed 00 be 6a c4 3e be be d9 a3 bd cc 69 1f be
       -0.1259076 -0.18629614 -0.080005154 -0.15567702
000290 0e 63 1c be 18 92 e0 bd 7c 43 15 be fc e0 10 be
       -0.15272161 -0.10965365 -0.14576524 -0.14148325
0002a0 2b 99 ba bc 92 f2 86 3d a1 f0 56 bc 72 c1 05 3e
       -0.022778114 0.06589235 -0.013118894 0.13062075
0002b0 a5 7f 0e be f2 3b b8 bd fa 7f 83 bd 4b 03 a6 3d
       -0.1391588 -0.08995809 -0.06420894 0.08106097
0002c0 71 38 9f 3d 94 40 83 3c ce 1d 85 3b d5 6d e4 bd
       0.07774437 0.016022004 0.004062391 -0.11153761
0002d0 20 e6 80 bd f9 0a 7c be 27 6e 09 bd dc 99 d0 3d
       -0.06293893 -0.2461356 -0.033552315 0.10185596
0002e0 0e d6 17 3d 56 29 4d be 15 8a 20 be d4 89 cc bd
       0.037069373 -0.200353 -0.15677674 -0.09987226
0002f0 c7 83 1c 3c 72 c2 da 3d b9 51 91 bd 4c f4 a2 3d
       0.009552903 0.10681619 -0.070956655 0.07956752
000300 ce 03 32 be f8 b8 3c 3d 99 23 04 bc e7 d9 9d bc
       -0.17384264 0.046074837 -0.008065128 -0.019268943
000310 db d4 0d 3e 96 54 33 3c f9 bc f9 3d 8c 94 29 bc
       0.13850729 0.01094546 0.12194247 -0.010350358
000320 5c d3 5c 3d d6 ec c0 3d d7 32 d0 3d 1f cf ea 3a
       0.053912506 0.09420173 0.10165947 0.001791451
000330 f6 3b fc bc f9 ef c1 bd 76 db 5b be 56 67 cf bd
       -0.03079031 -0.09469599 -0.21470436 -0.10127132
000340 9d 09 47 be 73 b4 cc 3d 8a 41 ca bd d4 1a 71 3d
       -0.19437261 0.099953555 -0.09875782 0.058863476
000350 f1 0c 9f 3d 99 a1 6b bd 87 7d 39 be 23 72 c5 3b
       0.0776614 -0.05752716 -0.18114291 0.006025569
000360 a4 d2 f5 bd 8a df 68 3c a8 ce 53 3d 6b 39 14 3d
       -0.12003067 0.014213452 0.051710755 0.03618757
000370 3e b4 c2 3c 84 ad a7 bd 88 58 0a 3e e4 a7 3a 3e
       0.023767587 -0.08187392 0.13510334 0.18228108
000380 87 57 b0 3d 11 a8 b5 bd e6 94 cf bb ba d4 89 bc
       0.086104445 -0.08869947 -0.0063348887 -0.016825069
000390 12 b9 08 be 4c d4 0f 3c 24 62 aa bd df 18 d5 3d
       -0.13351849 0.008778643 -0.083195 0.104051344
0003a0 01 d1 e5 bc e1 78 c7 3b f7 c1 f7 3b 4c 58 ca bc
       -0.028053762 0.006087408 0.007560964 -0.024700306
0003b0 bd df 77 bc cc 4b 8c 3d 65 84 18 be ce 62 09 3e
       -0.015129027 0.068503946 -0.14894255 0.13416597
0003c0 29 89 94 bc 40 a5 cf bd c6 3c ba 3c dd d5 71 3c
       -0.01813181 -0.10138941 0.022734057 0.014760462
0003d0 a9 36 86 3b 83 41 26 3e 32 5e 6a bd 08 62 43 be
       0.0040958715 0.16235928 -0.057218738 -0.19080365
0003e0 cc 31 17 be 7a bc f6 bc a9 85 bf bd a1 b6 d9 3d
       -0.1476509 -0.03011917 -0.093516655 0.10630537
0003f0 f2 f3 a4 3d fb 0a 71 3c 41 80 d4 bd f9 f0 76 3d
       0.080543414 0.014712091 -0.10376025 0.060288403

fc2.weight f4 [256, 256]
000000 3c 82 8b bc ef 19 39 3d 0d 2c 6e bd 7e dc dd 3d
       -0.017029874 0.045190748 -0.05814748 0.10833071
000010 5b 4f 8f 3d 1b ac e7 bd 60 80 7d bd f5 d5 10 3c
       0.06997558 -0.113121234 -0.061890006 0.008840074
000020 81 06 01 bd b0 38 51 bd 57 83 0d 3d bc d2 5b 3d
       -0.031500343 -0.051079452 0.034549084 0.05366777
000030 07 da 1f 3c 6b 48 81 3c 99 ac d2 3d fa cf 93 3c
       0.009756572 0.015781602 0.10286827 0.018043507
000040 d8 d5 bc bc a5 0b 3f bd 08 30 15 3d b0 64 a1 3d
       -0.023051187 -0.046641964 0.03642276 0.07880533
000050 c1 79 aa bd 29 6d 5e 3d c4 f9 04 bd 96 6d 9c 3d
       -0.08324004 0.054303322 -0.032464758 0.07638089
000060 f3 51 83 3c 2e f4 2e 3c 5b 26 66 3d 38 c1 12 3e
       0.016030287 0.010678334 0.056188922 0.1433152
000070 2d 17 62 bd c3 ab ed bc 7c 0f 71 3d 10 d2 42 3d
       -0.055197883 -0.029012566 0.058852658 0.047563612
000080 f2 e5 3f bc f3 90 11 3c a1 fc 68 bd 47 d1 6b 3d
       -0.011712538 0.008884656 -0.05688155 0.05757263
000090 3d 6f 94 3d 9b eb 0b ba fc 3e bc bb b8 23 49 bd
       0.072477795 -0.0005337537 -0.005744813 -0.04910633
0000a0 3f 66 64 bd 8e a6 81 bd d5 ad 12 bd 00 59 88 3d
       -0.055761572 -0.06330596 -0.03581031 0.066576004
0000b0 6c 8f 8b bd ea 9d 74 3d 7d 32 69 bc 95 9e 5c 3d
       -0.06814465 0.05972091 -0.014233229 0.053862173
0000c0 b3 6b 5f 3c e9 90 db 3b 8c f1 9c 3d d5 21 a8 3d
       0.013636517 0.0067006242 0.07663259 0.08209578
0000d0 8a 7e ee bc 30 0c 18 bd 10 0e af 3a 15 ea 68 ba
       -0.029113073 -0.037120998 0.0013355631 -0.00088849786
0000e0 97 26 36 3d e3 ef 1e 3c 3d c7 5d 3a 01 ca 18 bd
       0.044470396 0.009700748 0.000846017 -0.03730202
0000f0 9a fc 12 3d 7b 7a cf 3d 2d d2 92 3c d4 d9 1e bc
       0.03588543 0.10130783 0.017922485 -0.009695489
000100 cf 5d 49 bd c1 f2 2b bd 39 33 08 3d 53 1f 02 bd
       -0.04916173 -0.041979555 0.033251975 -0.031768154
000110 50 a2 22 3c bf bf 4b bc 80 89 ae 3c 25 8a b6 bc
       0.009926394 -0.012435853 0.0213058 -0.02228267
000120 ed 88 d6 bc 3e b1 ae 3d ae 85 22 3d f2 48 aa bc
       -0.026188338 0.085299 0.039678268 -0.020786736
000130 33 e6 80 bd 3b fc 8a bc 72 5b 68 3d b4 44 72 3d
       -0.06293907 -0.016965976 0.056727834 0.05914755
000140 25 f6 f9 3b 02 c6 b2 3c 18 78 2f 3c 2f 36 de 3d
       0.0076282197 0.021822933 0.010709785 0.108501785
000150 12 2b ad 3c 5f 26 00 bd fb a6 84 3a 0e b6 bd 3d
       0.021138702 -0.031286594 0.0010120565 0.0926324
000160 26 45 b5 bd 7f 6d 3d 3c c7 87 c3 3c bd 09 b8 bc
       -0.0885108 0.01156175 0.023868455 -0.022465581
000170 df c1 d8 bb 80 00 2d 3e 5c 07 fc 3c 21 3d 98 3c
       -0.006614908 0.16894722 0.030765228 0.018583836
000180 6f 59 4e bc 66 11 97 bd 7e 9b c2 bc ed 61 88 bc
       -0.012594565 -0.07376365 -0.023755785 -0.016648257
000190 d7 ce 09 bc 3f f9 66 3c 47 bc 11 be 85 bf 93 b9
       -0.008411131 0.014097511 -0.14231978 -0.00028180718
0001a0 f1 74 9c bd 58 9e 8a bd a5 c0 c5 3c bd 6c 38 bd
       -0.07639492 -0.06768483 0.024139712 -0.045025576
0001b0 b5 a5 db 3c f1 d3 ad 3d c3 a5 94 3d cc be 96 3d
       0.026812414 0.0848769 0.07258179 0.0736061
0001c0 ce 88 2d 3c 68 00 67 3d d6 6c 7e bd 7a e1 c6 3c
       0.010591699 0.05639687 -0.062115513 0.024277437
0001d0 ae 88 40 bd 94 06 47 3d 26 25 2f bd a0 04 8d bd
       -0.047005348 0.048590258 -0.042760037 -0.06885648
0001e0 92 26 72 3d 94 35 81 bd f8 c7 22 3d 4e ef a3 bd
       0.059118815 -0.06309047 0.039741486 -0.08004628
0001f0 dc d6 2b bd a0 e1 a4 3d be d2 1a ba dc b4 2f bd
       -0.041952953 0.08050847 -0.0005906037 -0.04289709
000200 c4 80 2a 3c 21 e9 09 3d d0 14 5f bd 8e 60 78 3d
       0.010406677 0.033669595 -0.054463208 0.060638957
000210 1f 6e 31 bd f2 dd a7 3d 4f 34 2d bc 9b 68 20 bd
       -0.04331791 0.081966296 -0.010571553 -0.03916226
000220 b1 3f 5c bd 78 0d 22 bc e3 a4 0a bc 90 08 04 bd
       -0.05377168 -0.0098909065 -0.008462164 -0.03223473
000230 90 bf 8f 3b 8c 98 ce 3c 82 6a e5 bd f0 97 67 3c
       0.0043868497 0.025219224 -0.112019554 0.014135346
000240 79 bf eb 3b 46 f7 32 3d c8 5c 99 3d c5 75 98 3d
       0.007194456 0.04369285 0.074884 0.07444338
000250 2c 15 c6 bc 97 c1 b6 3d 4e 01 d7 bc 3c e6 9f 3d
       -0.024180017 0.08923643 -0.02624574 0.078075856
000260 b5 e5 6a 3c 95 ee 69 3d ca d7 34 bc 00 29 d3 3d
       0.014336993 0.057112295 -0.011037776 0.103105545
000270 15 64 26 3e 24 ee a1 bc 7e ab 02 3a a3 dd b7 3c
       0.16249116 -0.019766875 0.0004984661 0.022444552
000280 f6 d5 67 3d 82 a9 02 bc e3 4d 87 bd ae d6 a6 bd
       0.056600533 -0.007974984 -0.066066526 -0.08146416
000290 97 df 62 bd 75 b9 b6 3d cb e4 cf 3d 82 ac f6 3d
       -0.055389013 0.08922092 0.10151061 0.12044622
0002a0 35 4b 41 bc 3c 34 ce bc 9b 16 96 3b 2b d6 74 bc
       -0.011797716 -0.025171392 0.0045803315 -0.01494364
0002b0 0d 0a 35 3d 12 4b 62 3d aa b6 44 bc 77 88 c1 bb
       0.04419904 0.055247374 -0.012006441 -0.0059061605
0002c0 bb 6e 69 3d c9 cc 18 be b8 f7 e7 3c df e6 d4 3d
       0.056990366 -0.1492187 0.028316364 0.10395598
0002d0 da 36 0f bd a7 70 79 bd b6 d1 1a 3d 1e 6e 73 bd
       -0.03496442 -0.06089845 0.037797652 -0.059431188
0002e0 a0 53 94 bc b5 dd b9 3d 3f cb 28 bd 97 03 00 bd
       -0.018106282 0.090754904 -0.041209456 -0.031253424
0002f0 03 8e 45 3d 99 4b 8a 3d 64 f6 c7 3b e7 08 5e 3d
       0.048231136 0.067527 0.00610237 0.05420771
000300 a0 4f 6a 3d a9 4b d9 3c 40 26 b7 3b a7 1c f6 bc
       0.057204843 0.026525335 0.0055892766 -0.03004296
000310 52 18 a4 3d 49 ec 80 3c 81 0b a6 3d 64 53 a1 bd
       0.08012451 0.01573767 0.08107663 -0.078772336
000320 0b 6c a0 3c 76 8d 48 bd e7 34 a9 bc b5 93 82 bd
       0.019582769 -0.048963033 -0.020655109 -0.06375829
000330 aa 0f ea bc 3c 91 19 3d 21 e9 ef 3d e8 ef 84 bd
       -0.028571922 0.037492022 0.11714388 -0.06491071
000340 3c b3 63 3c a4 5c 72 3d c2 99 21 bd 57 24 c9 3d
       0.013897713 0.05917038 -0.039453276 0.098213844
000350 78 23 d8 bc 15 db 49 3d 38 82 0f be 47 99 87 bc
       -0.0263841 0.0492812 -0.14014518 -0.01655258
000360 68 fd 05 3d 5b 2f 94 bd 58 82 ea 3b d7 c3 39 3d
       0.03271237 -0.07235595 0.0071566515 0.045352783
000370 65 34 55 3c f7 7e af bd 0d 5d bb 3c 7d 16 7f bd
       0.01301298 -0.085691385 0.022871519 -0.062277306
000380 96 4b 57 3d f9 17 02 3d 25 80 c0 bd 69 cf a1 bc
       0.05256232 0.031761143 -0.09399442 -0.019752221
000390 34 c3 c1 3b 44 80 5d 3d e2 10 96 3d cf 99 0b bc
       0.0059131626 0.0540774 0.07327439 -0.008520558
0003a0 a4 7b 98 3d 4b 8f 16 bd 48 97 f2 bc 3a 59 01 bd
       0.074454576 -0.03675775 -0.029613152 -0.031579234
0003b0 5c 8f 7f 3d b5 ae f4 3c 85 1c 3a bd 60 9d 62 bc
       0.062392578 0.029868463 -0.045437355 -0.013831466
0003c0 41 88 c9 bd 2e 4b 36 3d 74 b8 08 3d fb ef 5e bb
       -0.098404415 0.04450529 0.033379033 -0.0034017551
0003d0 c8 0c db 3a 06 e0 0c 3c 54 f8 66 3d de 84 2c bd
       0.0016712183 0.008598333 0.056389168 -0.0421189
0003e0 73 36 04 3d c9 90 cb bc 61 c4 0a bd 2a bb 92 bd
       0.03227849 -0.024849312 -0.033878688 -0.07164605
0003f0 b3 4f 85 3d e9 41 6d 3c 43 cd 48 3d b1 6b 28 bd
       0.06509342 0.014481046 0.049023878 -0.041118328

fc2.bias f4 [256]
000000 52 e0 9e bc ee 65 b1 3c 4a a2 14 bd 98 a8 62 bc
       -0.019394074 0.02165505 -0.036287583 -0.013834141
000010 d5 da 0c 3d 2c 68 50 3c 02 16 6d bd fe 86 4c bd
       0.034388382 0.012720149 -0.057882316 -0.049933426
000020 8d 50 68 3d 90 17 be 3c 72 eb 6a bd 03 8e 63 3d
       0.056717444 0.023204595 -0.057353444 0.055555355
000030 c7 88 00 bd 34 f9 79 3c 47 db 1a bd b1 7a 69 bc
       -0.03138044 0.015257169 -0.037806775 -0.014250443
000040 ea fd 43 bd 32 93 84 bd 2d 23 99 3c eb 97 32 3d
       -0.047849573 -0.06473388 0.018693531 0.04360191
000050 b5 a4 45 3d c3 cb 1c bd 11 87 70 3d 54 81 04 3d
       0.04825278 -0.03828026 0.05872256 0.0323499
000060 0a 71 31 3d 10 22 91 bb c4 67 75 bd a6 5a 24 bd
       0.043320693 -0.0044291094 -0.05991341 -0.04012551
000070 f8 20 ad 3d 16 42 01 3d e5 1c 9a 3d 4f 7a c7 3d
       0.08453554 0.031557165 0.075250424 0.097401254
000080 e8 aa 11 bb ba 0a 5f bd de 88 0e 3d a9 77 8c 3d
       -0.0022227112 -0.05445359 0.034798495 0.06858761
000090 d8 16 6a 3c ff 92 2d 3d 72 42 66 bc 35 6a 2d bd
       0.014287673 0.042376515 -0.014053928 -0.042337615
0000a0 42 e7 95 3c e0 28 35 bc 69 0c 5d bd ea f2 c4 bc
       0.018298749 -0.011057109 -0.053966913 -0.024041612
0000b0 a1 42 23 3c 21 9e f6 bc 85 c9 5b bd 0c 4f 46 3d
       0.009964616 -0.030104699 -0.05365898 0.04841523
0000c0 b5 7f 81 3d 34 a3 e9 3c da 32 5f 3c 78 ba a7 3d
       0.06323186 0.028520204 0.013622964 0.08189863
0000d0 11 3b d2 bc 88 64 36 3d 8d 1a 0b 3c 88 69 40 bd
       -0.02566293 0.044529468 0.008490217 -0.046975642
0000e0 21 2d 1a 3d 09 71 58 3d 49 f0 48 3d 98 d2 1e bd
       0.037640695 0.052842174 0.04905728 -0.038775057
0000f0 df da 3f 3d 0b 50 6b 3a e4 ae eb 3c 0b 8c 8b bd
       0.04683959 0.0008976466 0.028769918 -0.068138205
000100 67 2a 8e bd 31 08 e7 bc ac fe 7c bd 71 d8 35 3d
       -0.06941681 -0.028202148 -0.06176631 0.044395868
000110 8c db 09 3d b4 24 c1 bc 98 3f 5d 3d 64 0c 67 3d
       0.03365664 -0.023577072 0.054015726 0.0564083
000120 cd 02 0d 3d e2 82 ea 3b 9b 8a ae 3d 2d 1a 0d bd
       0.0344265 0.0071567157 0.08522531 -0.03444879
000130 3d d2 96 bd 65 c2 6d 3d 2d ba d3 bc 1b 33 9e bc
       -0.073643185 0.058046717 -0.025845611 -0.019311478
000140 a0 90 73 3d 3c a1 75 bd b0 fb 84 3d be 83 51 bd
       0.059464097 -0.05996822 0.06493318 -0.05115103
000150 a1 57 15 3d 40 66 9b 3d 30 c0 1e bc 81 30 04 bd
       0.036460523 0.07587862 -0.009689376 -0.03227282
000160 7d 80 1f 3d e0 b1 f7 bb af a7 d4 3c 46 65 c1 3c
       0.038940895 -0.007559046 0.025958864 0.023607861
000170 e8 a6 13 bd b5 6f 73 bd 61 62 97 bd c5 e5 33 3d
       -0.036047846 -0.059432704 -0.07391811 0.043920297
000180 36 54 91 3d c8 39 3c bd 0a 04 c1 3c 84 ef a2 3d
       0.0709614 -0.045953542 0.023561496 0.0795584
000190 93 bb 45 bd 5a 68 88 ba 48 91 c9 bc 1d e5 1c 3d
       -0.048274588 -0.0010407076 -0.024605408 0.038304437
0001a0 37 22 8c 3d 12 5f 93 3d 95 56 04 3c 73 2c 8c bc
       0.068424635 0.071958676 0.008077283 -0.017111039
0001b0 17 cf 34 3c 1b 5f c9 3c b3 fd 70 bd dd 1f cb bb
       0.011035702 0.024581483 -0.058835696 -0.0061988668
0001c0 7a b3 42 3c 34 8f 31 bc ba 46 dc bc 5c 93 08 bd
       0.011883611 -0.010837365 -0.026889194 -0.033343658
0001d0 8f 54 6a bc 77 c3 36 bd 20 60 02 3c 47 63 83 3d
       -0.014302387 -0.044620004 0.007957488 0.0641542
0001e0 d0 ac c0 bc 91 53 09 3d 9e bc ba 3c 56 67 44 bc
       -0.023519903 0.03352696 0.022795018 -0.011987528
0001f0 39 28 f2 3c ac 20 ae 3c 05 16 81 3d 2d 17 8e bc
       0.029560195 0.021255814 0.06303028 -0.017345035
000200 46 e1 f0 3c ed 3e 32 3d cf 8c ce 3b 0e 90 9b bb
       0.029404294 0.043517042 0.006303407 -0.0047473973
000210 2f f8 2e bd 24 16 40 bd 63 1b f8 3b d8 f8 60 bd
       -0.042717155 -0.046896115 0.007571624 -0.054924816
000220 57 6d 6f bd d0 c2 4a bd 30 27 b2 bc 06 ad 8c 3d
       -0.058453884 -0.049502194 -0.021747202 0.06868939
000230 f3 fe 03 3d ad 02 8a 3d 00 1b 36 3d f0 9e 96 bc
       0.03222556 0.067387916 0.044459343 -0.018386334
000240 bc 80 16 3c 85 f9 31 3d 45 25 0d 3d f3 68 3e bc
       0.009185966 0.04345085 0.03445937 -0.0116217015
000250 a6 c5 46 bd f4 c7 22 bd 12 20 85 3c 33 95 b0 3d
       -0.048528336 -0.03974147 0.016250644 0.086222075
000260 04 9a c3 3c af e7 89 3b 0b b8 1c bd cd 44 34 bd
       0.023877151 0.004208527 -0.038261455 -0.044010926
000270 e5 8c 26 3d 95 16 01 bd b2 82 81 bb 29 eb 2b bd
       0.04066171 -0.031515677 -0.0039523477 -0.041972313
000280 a2 71 d7 3c 91 03 cd bc fb 5e 16 3d 7d dc 14 3d
       0.026299302 -0.025026115 0.036711674 0.036343087
000290 8b d7 b8 bd 83 4e c6 bc 76 4e 70 3d f2 5e 23 bd
       -0.090254866 -0.02420736 0.058668576 -0.03988547
0002a0 e7 0f 75 bd 40 c6 2d 3d 83 c2 47 bd 38 5f 69 bd
       -0.05982962 0.042425394 -0.048769485 -0.056975573
0002b0 c7 b0 83 3d af 9e db bc e3 e8 c3 3b 84 07 81 3d
       0.06430202 -0.026809065 0.00597869 0.063002616
0002c0 0c 84 bc bd c0 ca 04 3d e0 b5 c3 bc 0b 7e 55 3d
       -0.092048734 0.03241992 -0.023890436 0.052122157
0002d0 c5 00 27 bd 19 1c 5f 3d b6 2d 3b bd ad ad 00 3d
       -0.04077222 0.054470155 -0.04569789 0.03141563
0002e0 9b af eb 3a 85 e4 f7 bb 56 c8 f3 3c cc 93 07 bd
       0.0017981412 -0.0075650834 0.029758614 -0.033099934
0002f0 d5 f9 c7 3d dd 34 86 3d be 01 dd bc 73 bd ae 3c
       0.097644486 0.065530516 -0.02697837 0.02133057
000300 02 ea 09 3d 66 2f bf bb fc 84 24 3c c6 ff 95 bc
       0.033670433 -0.0058345078 0.010041472 -0.018310439
000310 30 6a 2c bd 36 2c 29 bc ed cb 25 3c 63 43 3d bd
       -0.042093456 -0.010325482 0.0101194205 -0.046206843
000320 15 d5 4c 3d f6 de c5 3c ec 44 d0 3c bd 10 31 3c
       0.0500079 0.024154168 0.02542349 0.010807213
000330 5d e6 8c bd 4e 28 f5 bc 45 ff 28 3d b4 24 1e 3b
       -0.06879876 -0.029926445 0.04125907 0.0024130763
000340 62 e7 49 bc 88 47 47 bd 02 8b 8c 3d 01 36 8a 3c
       -0.012323232 -0.048652202 0.06862451 0.016871454
000350 07 34 e0 bc 4c 92 d2 3c 81 62 82 3c ac 8c fa bc
       -0.027368559 0.025704525 0.015916111 -0.030584656
000360 a0 a9 1d 3d 28 35 74 bd 68 07 39 3a c9 2a 58 bc
       0.038491845 -0.059621006 0.00070582936 -0.0131937945
000370 3d f5 13 3d b3 b7 2b 3d c7 1b 6a bd a2 ba 44 3c
       0.03612255 0.041923236 -0.057155397 0.012007387
000380 be 5f a9 3b e3 4f f7 3b 75 e1 58 3b 0a df 37 3d
       0.005168884 0.007547365 0.0033093367 0.04489044
000390 c6 2e a7 3b 5b aa d0 3c 6c bf d4 3b d0 51 56 bd
       0.0051020114 0.025471857 0.006492546 -0.052324116
0003a0 63 6c 38 bc 8a 7b 90 3d 21 49 7c 3c e9 de 86 bb
       -0.01125631 0.07054813 0.015398295 -0.0041159284
0003b0 7c eb 69 3d 69 5a 6f 3d 4c db b5 3b 7d 92 16 ba
       0.05710934 0.05843583 0.005549824 -0.00057438744
0003c0 ed f2 97 bd 37 94 3e bd 4a ac a7 bd 7e 0f 25 3c
       -0.07419381 -0.046528067 -0.081871584 0.010074494
0003d0 43 67 8f bc 49 89 43 bd b1 61 62 bd 16 12 2e 3d
       -0.017505294 -0.047738347 -0.055268947 0.042497717
0003e0 23 5b 1a bd 38 62 62 3d 6f 5b 17 3c 06 23 ee 3c
       -0.03768457 0.05526945 0.009238108 0.029069435
0003f0 3b 12 6c 3c 4e d9 43 3d e7 79 ac 3c a4 7d d5 bb
       0.014408643 0.04781466 0.021054221 -0.0065152217

fc3.weight f4 [256, 256]
000000 5b 0e 41 3d 5d 03 bf 3c a2 0f 87 bd 62 58 a7 bb
       0.04713283 0.023317033 -0.065947786 -0.0051069716
000010 84 11 e8 b7 b1 14 53 3d 60 de a6 bd ab d6 80 bd
       -2.7664712e-05 0.051533405 -0.081478834 -0.06290945
000020 7e 1e ef bc 87 b5 91 3d 40 dd 75 bd ce 77 65 3d
       -0.029189344 0.07114702 -0.060025454 0.056022458
000030 18 31 2d 3d 81 27 04 3c f7 8a 91 3d 36 d4 46 bc
       0.042283148 0.008066059 0.071065836 -0.012135556
000040 56 71 9f 3c 87 79 cc bd 4e 0a bb bd 6c 14 1f bc
       0.019463222 -0.09984117 -0.09132825 -0.009709459
000050 57 16 23 be ac 11 81 3d 87 11 2c bb ec 52 17 bd
       -0.1592649 0.06302199 -0.0026255564 -0.036944315
000060 a1 a1 69 3d 25 7c eb 3b ef e7 fe 3c 9a 9c 4d bd
       0.057038907 0.00718643 0.031116454 -0.050198175
000070 ae ce 5b 3c 52 af 90 bd c1 39 8c bc e0 cb c3 3b
       0.0134159755 -0.0706469 -0.017117383 0.0059752315
000080 c6 1c 07 3e fe 87 79 bb a7 37 ae 3c 2a 62 07 bd
       0.1319457 -0.0038075442 0.021266771 -0.0330526
000090 70 a0 79 3d c5 26 04 3c 85 bd 09 bc d9 02 d5 3c
       0.06094402 0.008065884 -0.008407001 0.026002334
0000a0 6b fe 9e bc 78 06 11 3b 2c b8 ef 3c 32 5c b7 bd
       -0.019408425 0.00221291 0.029262625 -0.08953132
0000b0 70 96 7b bc ac 69 80 3c ef 62 69 bc 03 86 a6 bc
       -0.015355691 0.015675388 -0.014244779 -0.020327574
0000c0 bb 38 e8 bc 4e db 86 bd bb 31 0d bd f4 00 7b 3d
       -0.028347364 -0.06584798 -0.034471255 0.061280206
0000d0 c8 06 18 3e f6 ea 26 3b f8 08 86 3c 3f 90 50 3d
       0.14846337 0.0025469637 0.016361699 0.050918814
0000e0 65 7a 00 bd 71 21 94 3d 19 1e cd bb f6 a1 29 bd
       -0.031366725 0.07232941 -0.0062596914 -0.041414224
0000f0 1e 91 cb bc cc 9d ef bd 0f 41 2d bd f9 0e 03 bd
       -0.02484947 -0.11700019 -0.042298373 -0.0319967
000100 52 15 b7 bd c4 51 33 bd 9c a7 92 3d 99 98 97 3d
       -0.089396134 -0.04377915 0.07160875 0.074021526
000110 04 63 d9 3c 47 d3 d5 bc e8 c6 2d bd ad 76 8c 3d
       0.026536472 -0.026101721 -0.04242602 0.06858573
000120 80 bb 55 bd 31 f8 8d 3c fe 3d 93 bd e5 fa 41 3c
       -0.052180767 0.017330261 -0.071895584 0.011839603
000130 71 50 83 bd 5c 3b a8 bd a2 fa ee bb 45 2b 23 bc
       -0.06411827 -0.08214447 -0.0072930614 -0.009959047
000140 a4 50 77 3d 06 6a db 3b fe 31 31 bc c5 e5 49 3d
       0.06037964 0.0066959886 -0.010815142 0.04929139
000150 26 06 14 bd c7 15 05 3d 90 45 e7 3c 2c b9 3c bd
       -0.036138676 0.03249147 0.028231412 -0.04607503
000160 2d ab a0 3d 74 37 31 3d 8a ac 84 3b 50 d9 93 bd
       0.07845149 0.043265775 0.0040488886 -0.072191834
000170 af e7 30 bd 67 f0 94 bb 8a 62 e1 3c ed 2b 46 3a
       -0.0431897 -0.0045452598 0.027512807 0.0007559646
000180 45 a0 ac 3b 71 ac 49 3c f2 76 3b 3d 74 5a 8e 3b
       0.005268129 0.01230918 0.045767732 0.004344279
000190 5e 56 a3 3d f0 f6 b8 bd f1 98 42 3d 69 fd 40 3d
       0.079754576 -0.090314746 0.047509138 0.04711667
0001a0 00 51 a3 3c 12 88 5c bd 45 fc 04 bd 9a 65 d1 bb
       0.019936085 -0.053840704 -0.032467145 -0.0063902857
0001b0 a6 47 26 3d 58 34 f8 3d 77 3a db 3d a4 2c d0 bd
       0.040595673 0.12119359 0.10704511 -0.101647645
0001c0 b8 0d 46 bd 0c 3f c0 bc 04 09 8a 3d f9 ac 2b 3d
       -0.048352927 -0.023467563 0.06740001 0.041913006
0001d0 d2 27 5f bd 5b 0e 86 3b e6 e0 3d 3c 7f 0e 5f 3d
       -0.054481335 0.004091067 0.0115892645 0.054457184
0001e0 31 81 9b 3d c4 7c 9a bd 50 0f 49 bc a4 16 a2 b9
       0.07593001 -0.075433284 -0.012271717 -0.00030915916
0001f0 63 2d 2c bc e0 e7 a3 bc 7a 78 22 bd e0 76 a3 bd
       -0.010508868 -0.020008028 -0.039665677 -0.07981658
000200 2c 3c b1 bd bc 38 85 3c 0a 6a 9c 3d 54 8d 45 3d
       -0.08654055 0.016262405 0.07637413 0.048230484
000210 11 1b 60 bd 2f 6e da bc 58 9a 36 3d 78 ad 00 bd
       -0.054713313 -0.026663868 0.044580787 -0.031415433
000220 32 72 86 3d 90 0d d7 3b 3f 34 9d bc 04 a8 98 3c
       0.0656475 0.006562896 -0.019189952 0.018634804
000230 a2 d5 b8 bd e0 4e 16 3d d4 27 a9 bd 8e a1 46 3c
       -0.09025122 0.036696315 -0.0825955 0.012123479
000240 a4 8b 36 3d e5 ac 02 be 90 a1 46 bc e3 2d f7 bd
       0.044566765 -0.12761267 -0.01212348 -0.12069299
000250 1f f5 2c 3d 98 23 49 ba bc 43 0e bd 9e 0e 85 3d
       0.042225953 -0.00076728454 -0.034732565 0.06496929
000260 fa 09 93 3c c8 35 c8 3d 45 05 a2 3d d5 fa 80 3d
       0.017949093 0.09775883 0.07911161 0.062978424
000270 c1 a3 6a 3c 00 54 08 3e 89 e2 97 3d ea 35 22 3b
       0.014321269 0.13313293 0.07416255 0.0024751374
000280 87 19 d6 bd 5e e8 8f 3c 54 7d 7e bd c8 b4 1f bd
       -0.10454088 0.017566856 -0.06213124 -0.038990766
000290 31 85 9a bd 7c d3 2f bd 27 ca ad 3c 47 9e 64 3d
       -0.075449355 -0.042926297 0.021214558 0.055815008
0002a0 ab c9 10 3d 53 e9 01 bd 1c d4 a7 3c 25 a3 ca bd
       0.035348576 -0.031716656 0.020486884 -0.098943986
0002b0 9a 57 e8 bc 38 7a 67 bd 66 e8 1a bd bc a9 10 3d
       -0.028362084 -0.05651304 -0.03781929 0.03531812
0002c0 b2 02 ed 3d 2c 32 82 3d 01 d7 da 3d 37 42 c9 3b
       0.1157278 0.06357226 0.1068554 0.0061419266
0002d0 c9 6f d7 3c b8 0f 53 3d 91 36 19 3d 9b d1 ef 3d
       0.02629842 0.051528662 0.037405554 0.11709901
0002e0 97 6c cb 3c d1 13 aa 3d 4c b1 6b bc d7 4a 11 3e
       0.024832053 0.08304561 -0.014385533 0.14188705
0002f0 fa 94 da 3d fc be 67 bd 4e 0f 83 bc ab 88 16 bd
       0.10672946 -0.05657862 -0.015998509 -0.03675143
000300 da d5 85 3d b7 55 b9 3c 30 d1 b0 bd bf 20 85 bc
       0.065349296 0.02262388 -0.08633649 -0.016250966
000310 5d 91 c1 3d 4c 3a b4 bc 16 4c b4 bd c9 c2 12 3d
       0.09451554 -0.022000454 -0.08803575 0.035830293
000320 2f fd d8 bd d7 4b 30 bd 1b d6 e5 3d 8d be 07 bc
       -0.10595166 -0.043041077 0.11222478 -0.008285177
000330 c3 0e 84 bb 59 4b 79 ba 0a 95 8e bb 06 e6 78 3b
       -0.00403008 -0.0009509824 -0.004351263 0.0037978902
000340 c4 3f 79 3d 4a 67 75 bc f3 2e d3 ba 39 4d 99 3d
       0.060851827 -0.014978239 -0.0016112014 0.07485432
000350 91 70 62 bd f3 31 4e bd 1f 59 29 3d e0 30 59 bc
       -0.055283133 -0.050340604 0.041344758 -0.013256282
000360 e7 73 e0 3c cd fc bb bd d0 4b 5d 3b 70 36 04 3c
       0.027399017 -0.09179077 0.0033767112 0.00806962
000370 42 7c 3f bc 9e e0 89 bc d9 2b ca 3d 91 81 05 bd
       -0.01168734 -0.016830739 0.098716445 -0.032594267
000380 83 9e 25 3c 3e bb f2 bc 60 a9 e8 bc a3 65 64 bb
       0.010108593 -0.0296303 -0.028401077 -0.003485062
000390 9a d3 a1 bb 9e 63 bb 3d a3 8d eb 3a e6 cb 95 bd
       -0.004938555 0.0914986 0.0017971288 -0.07314281
0003a0 0d fd 5c bd df 1f 91 3a cf 26 bf 3c b5 0a 01 3e
       -0.053952266 0.001107212 0.023333935 0.1260174
0003b0 03 4c 44 bd 6a e4 1e bc 1d 9b 98 bd e5 3a 8b 3d
       -0.047924053 -0.009698013 -0.074514605 0.067983426
0003c0 6c 82 a1 3c eb 34 96 3d 17 63 51 bd fe 05 20 3c
       0.01971551 0.07334312 -0.05111989 0.009767054
0003d0 66 80 92 3d db 3f 23 3d e1 8c b5 3b 47 1c 62 3d
       0.07153396 0.03985582 0.0055404757 0.05520275
0003e0 09 91 31 3d 05 73 f2 3d e8 5a 27 bd c8 94 30 3d
       0.043351207 0.118383445 -0.04085818 0.04311064
0003f0 d9 a4 7a 3d 4a 53 b5 bc ee b8 c4 bd d3 c7 4b bc
       0.061192367 -0.022134442 -0.09605585 -0.0124377785

fc3.bias f4 [256]
000000 dd fa 0c bc c8 7f de bc 1d 5c 88 3d 8a 0e b5 bb
       -0.008604732 -0.02716054 0.06658194 -0.005525415
000010 cc 2b 27 3d c9 c4 0e 3d f6 79 fc bb b6 87 0a 3d
       0.040813252 0.034855638 -0.0077049686 0.03382083
000020 6a 50 f3 bc cb 80 10 bd 42 2a 6f bd 5c 09 d6 3c
       -0.02970143 -0.035279077 -0.05838991 0.02612751
000030 6c f5 c5 bc e6 3c e2 ba 29 98 8e 3d 34 7b 4c bd
       -0.024164878 -0.0017260581 0.06962616 -0.049922183
000040 08 b4 d1 bc 35 2c ae bd 2e ab d0 bc fe 47 97 3d
       -0.02559854 -0.085045256 -0.02547225 0.07386778
000050 0e eb 92 3d 36 c7 39 3d e5 bb 9d 3d 36 b3 49 3d
       0.071737394 0.045355998 0.07701854 0.049243174
000060 74 50 57 3d 0a 56 42 3d a1 84 42 3d 79 ab 88 bd
       0.05256696 0.047445334 0.047489766 -0.06673331
000070 2f ed 96 ba 3d 51 68 bd 23 97 11 3b 79 df 83 3d
       -0.0011514778 -0.0567181 0.0022215329 0.064391084
000080 59 e1 30 3d e2 bf 39 bd 7a 38 6a bd 06 66 1b bd
       0.04318366 -0.04534901 -0.057182766 -0.037939094
000090 67 fe b3 3c 45 52 7d bd de ce 9f 3d a1 ea 80 3d
       0.021971894 -0.061846036 0.07803129 0.06294752
0000a0 71 ba b8 3d db 71 df bb 4f 99 5b bd c8 d5 93 3d
       0.09019936 -0.0068189926 -0.053613003 0.0721851
0000b0 93 aa f8 bc 56 f6 d3 3c 85 b2 e0 3c 4c 6b 99 bd
       -0.030354774 0.025874298 0.027428875 -0.074911684
0000c0 cc e6 b1 bc c3 4d 62 bd e5 25 c4 bc d3 c2 1b bc
       -0.021716498 -0.05524994 -0.02394385 -0.009506899
0000d0 4a 7c 8e 3c db fd 04 3c bd 0a 70 3d 51 0f 05 3d
       0.01739325 0.0081171645 0.05860399 0.03248531
0000e0 aa b1 14 3d 4b 01 58 3d a8 de 70 bc 1f c3 58 bd
       0.036302246 0.052735608 -0.014701523 -0.052920457
0000f0 e4 a7 2a 3d 86 90 9d bb 58 92 1f 3d 17 41 29 bc
       0.04166402 -0.0048084883 0.038957924 -0.01033046
000100 86 db 78 bc 43 8a c3 bc 20 1e 74 bd 9b c7 a7 bc
       -0.015189057 -0.02386964 -0.059599042 -0.020480921
000110 05 1a c8 3d 7d db 9e bd aa 4c 22 bd 06 28 28 bd
       0.09770588 -0.07756708 -0.039623894 -0.041053794
000120 36 d9 f7 3b b0 b2 00 3d 5a 37 63 bb 66 47 3c bb
       0.0075637354 0.03142041 -0.0034670443 -0.002872908
000130 e8 b4 8c 3c 3d 6c a3 3d d0 c1 b1 3d 58 d0 74 3d
       0.017176107 0.07979629 0.08679545 0.059769005
000140 e2 2a 34 3d f3 fa 0e 3d 09 30 1c bd e9 71 b2 bc
       0.04398621 0.034907293 -0.038131747 -0.021782832
000150 7c 20 b0 3d 68 3d b9 3d ae 77 5b 3b 3c 8f 11 3d
       0.08599946 0.090449154 0.0033488083 0.03553699
000160 53 3a 75 3c c8 f5 88 bc 13 20 77 3d a3 05 8d bc
       0.014967519 -0.01671876 0.060333323 -0.017214602
000170 9b 9a e3 bb 94 8b 72 3d 15 b2 fa bc e2 85 0f 3d
       -0.0069459206 0.059215143 -0.030602494 0.03503979
000180 a8 4a 3c 3d 79 c5 b1 3d 29 e1 a5 bd a8 70 b3 bb
       0.045969635 0.08680243 -0.080995865 -0.005476076
000190 08 44 22 bd a9 1a 0e bc eb 84 44 3d 24 72 5c bc
       -0.03961566 -0.008673348 0.047978323 -0.013454948
0001a0 a7 77 65 bd 7e b6 d2 3c 25 f6 68 3d 96 8c 72 bd
       -0.056022312 0.025721785 0.056875367 -0.059216104
0001b0 ae 82 42 3d 7f 19 bf 3d 2c 8d 5e 3d c5 60 a6 3a
       0.047487907 0.09331035 0.05433385 0.0012693634
0001c0 3e 67 73 3d e6 20 df bb 6a 22 07 3d bd 0a 90 3c
       0.05942463 -0.0068093417 0.032991804 0.017583245
0001d0 ed 0c 6a bd 95 95 44 3d 8e 3a 80 bb e2 c3 c2 3c
       -0.057141233 0.047994215 -0.0039132303 0.023775045
0001e0 c2 c4 2d bb 76 83 09 bc ab 18 4c 3d 8f 79 85 3c
       -0.0026514982 -0.008393159 0.049828213 0.016293315
0001f0 ca 1f 68 3d 67 5b 86 bd 2f e5 92 3d ac d7 4b 3c
       0.05667094 -0.06560402 0.071726196 0.012441557
000200 45 46 48 bc 8d a8 1a 3d ed ac 52 3d 2d 70 28 bc
       -0.012223785 0.0377584 0.051434446 -0.010280651
000210 50 6e 2e bc f1 ee 21 3d bd ce 05 bd 13 c1 8b 3d
       -0.010646418 0.039534513 -0.032667864 0.06823935
000220 f3 6b 38 3d 01 78 32 bd d9 e8 76 3c 65 0a 2a 3d
       0.045024823 -0.043571476 0.015070164 0.04151382
000230 ec 45 48 bb 0a fb d7 3c b0 7b ad bc fb 2d 92 bd
       -0.0030559255 0.026364822 -0.021177143 -0.07137676
000240 db 6a 2c 3d 77 95 92 3d ef 1b af 3d 14 22 86 3d
       0.042094093 0.071574144 0.0855025 0.06549469
000250 25 38 ac 3d 0d 1c 44 bd 9f 27 73 bd 9f 02 c5 bb
       0.08409146 -0.047878314 -0.059363957 -0.0060122753
000260 68 4c 0b 3d fb 59 7f 3d 92 75 57 3d 49 a6 a7 bc
       0.034008414 0.06234167 0.05260236 -0.020465033
000270 5a 68 2a 3d 2f 8b 11 3d 82 e7 9d 3b 02 17 c7 bc
       0.041603424 0.035533126 0.0048188576 -0.024302963
000280 e2 83 29 bc da bc bd 3d af 09 87 3c 0f b5 46 bc
       -0.010346385 0.09264536 0.01648411 -0.012128129
000290 a7 9f b2 3c 83 c6 46 bd 06 86 16 3d 09 0d 5e bd
       0.021804644 -0.04852916 0.03674891 -0.05421165
0002a0 b1 da 95 bd 85 76 a4 bc 4e 7b b7 bb 63 f5 66 3d
       -0.07317103 -0.020076046 -0.005599416 0.056386363
0002b0 4b 7c 32 3a 0f ab 7f 3c de 09 80 bd bd 4a 50 3d
       0.0006808682 0.015604748 -0.06251882 0.050852526
0002c0 fc e6 23 bc 46 2f 14 bd e9 67 8a bc f0 d3 a7 3d
       -0.010003801 -0.036177896 -0.016895251 0.08194721
0002d0 da 6d 8a bd 6b c9 22 3d cb 89 c5 3b 96 25 1a 3d
       -0.06759234 0.03974287 0.006028389 0.0376335
0002e0 02 45 75 3d 4d 68 28 3c a4 ba e7 3c 3d 79 34 3d
       0.059880264 0.0102787735 0.02828724 0.044060934
0002f0 57 55 4f 3d b1 1b 49 3d 86 4f 1b bc 5a a6 5f bc
       0.050618496 0.049098674 -0.009479409 -0.013650501
000300 66 f4 f2 bc de 69 b9 bb a4 95 61 bd 9d 87 3f 3b
       -0.029657554 -0.0056583723 -0.05507435 0.002922512
000310 b4 1e 80 3b 6e d8 4b bc 38 8b 82 3d be ba 89 bd
       0.00390991 -0.012441738 0.0637421 -0.06725071
000320 09 9f 23 bc c3 61 9a bc b4 6a a8 39 d7 a6 0f bd
       -0.009986647 -0.018845445 0.00032122957 -0.03507122
000330 5f f7 f0 bc d0 24 bf 3c 69 31 7d 3c dd 49 96 3d
       -0.02941483 0.023332983 0.015453675 0.07338307
000340 a0 c6 9f 3c f3 df 52 3d 2c 17 bf 3c 39 b1 ec bb
       0.019503891 0.051483106 0.023326479 -0.007223275
000350 2e 02 65 3d 3a 63 ae bc 9b 4d 95 bd 13 51 9f bc
       0.05591028 -0.02128755 -0.07290193 -0.019447839
000360 cf d5 a6 bc 8f e2 35 bd 7d 61 5e bc 74 24 e8 ba
       -0.020365624 -0.044405516 -0.013573048 -0.0017711059
000370 66 0f 8f bd 1e e1 90 3d b0 47 55 3d c5 83 89 bd
       -0.06985359 0.07074188 0.05207032 -0.06714586
000380 18 c9 8c 3d 59 4e db bb eb bd 8c 3d 74 e9 1c 3d
       0.06874293 -0.0066926894 0.068721615 0.038308576
000390 25 75 9c 3d 7f fd 0d bd f0 b7 6b bd 0b 8b 92 bc
       0.07639531 -0.03466558 -0.057548463 -0.017888566
0003a0 3c ff b3 3d 9e 09 47 bd a7 6a f7 bc 7a dd 8d 3d
       0.087889165 -0.048593156 -0.030202223 0.06927009
0003b0 32 75 5b 3c 62 48 61 3c 56 ad 50 3b a7 25 a5 3d
       0.013394641 0.013750168 0.0031841598 0.08063822
0003c0 e9 73 71 bc 4a dc 63 bd 25 80 23 bc 5e 1b 82 bc
       -0.014737108 -0.055630006 -0.0099792825 -0.01588219
0003d0 92 ea 09 bd 11 9b b8 3c 0e dd 81 bd ab c4 24 bd
       -0.03367097 0.022534879 -0.06340991 -0.04022662
0003e0 8d 6f 03 bb 02 43 85 bd 57 d5 14 3d f5 67 a2 3d
       -0.0020055503 -0.06506921 0.03633627 0.079299845
0003f0 00 3a 40 bd a0 66 82 3d 31 4d 8e 3d 97 83 9c bd
       -0.046930313 0.063672304 0.06948317 -0.07642286

fc4.weight f4 [4, 256]
000000 68 2d e9 bd 5b 7c ef 3c 32 1c aa 3c 8d 09 09 3d
       -0.11385614 0.029234102 0.020765398 0.033456374
000010 eb 88 84 3d d9 99 c4 3c 28 ed d3 3d cd 1c 83 3c
       0.064714275 0.023999142 0.10347968 0.016004944
000020 72 a3 aa bd 6b 2e c5 bd e5 32 9c 3d 1d 06 2a 3d
       -0.08331956 -0.09627994 0.07626895 0.041509736
000030 b3 fb 40 bd a5 2b 96 bd 7a 1a d1 3d 2c e5 79 bd
       -0.04711504 -0.07332543 0.10210128 -0.06100957
000040 da 12 98 bd ac c0 01 3d c4 5c 0c 3d 99 a1 89 bb
       -0.07425471 0.031677887 0.034268156 -0.004200172
000050 08 1c 61 3d 98 41 2d 3c 65 82 ad 3d e3 8f de 3d
       0.054958373 0.010574721 0.084721364 0.10867288
000060 5d c1 96 bd 0b de 5c 3d 38 dc a0 3d d2 9d 6a bd
       -0.073611 0.053922694 0.078545034 -0.057279415
000070 52 9e 00 3d 01 bd 17 3d 0d c3 77 3d 1a 9c a9 bd
       0.031400986 0.037045483 0.06048875 -0.08281727
000080 59 5a aa 3d 3e 68 b2 bd ab b4 60 3c 1e 19 1c 3d
       0.08318014 -0.08711289 0.01371495 0.03810989
000090 d6 0f 80 bd 9e f6 16 3d 75 ef 29 bd ce 4c b2 bc
       -0.062530205 0.036856286 -0.04148813 -0.021765139
0000a0 08 68 9d bd 49 a4 61 bd 6a dd 36 3d 2e 6d 75 3d
       -0.07685858 -0.055088315 0.04464475 0.059918575
0000b0 84 35 2e bd 03 c6 22 3d b3 51 93 3b 30 11 fd 3c
       -0.042531505 0.03973962 0.0044958233 0.030891985
0000c0 1b 1a 54 bd 2a 93 c3 3c f6 d5 bc bd 91 a8 1d bd
       -0.05178271 0.023873884 -0.09220497 -0.038490836
0000d0 8e 9c 88 3d 16 22 ba bc 41 77 b8 3d 63 e3 95 3d
       0.066704854 -0.022721332 0.09007121 0.07318761
0000e0 ea 85 3e 3d 5c 4a 99 bb 41 61 be bd b6 3a 34 bc
       0.04651443 -0.004678054 -0.092958935 -0.011000326
0000f0 09 07 e3 3d 02 e4 84 3c 53 58 b3 3c a4 8a b5 3d
       0.11085326 0.016222004 0.021892702 0.08864334
000100 59 26 b2 3d 06 e3 de 3d cb ed 15 3d 65 3d e0 bc
       0.086987205 0.10883145 0.03660373 -0.027373025
000110 53 44 db 3d 62 c5 09 bd a0 7a 24 bc f6 eb 2f bd
       0.10706391 -0.033635505 -0.010039002 -0.04294964
000120 a4 78 e2 3c 0e f7 1b 3d 7e 35 31 bd 50 f4 82 3d
       0.027645417 0.038077407 -0.043263905 0.06394255
000130 ea 2c 38 bc 1b b1 ac 3d 28 ef 65 3d 88 11 d7 3c
       -0.011241177 0.08432218 0.05613628 0.026253477
000140 5f c3 dc 3d f5 05 bf bd 51 10 19 bd a5 c2 c7 3d
       0.107794516 -0.09327308 -0.037369076 0.097539224
000150 62 97 a5 3d 37 af 83 3c b6 a8 0f bd 11 32 52 3c
       0.080855146 0.01607476 -0.035073005 0.01282932
000160 60 80 8a bd 07 50 f4 bd b6 cb 7f bd 7f c7 18 3d
       -0.06762767 -0.119293265 -0.062450133 0.03729963
000170 17 9e 9a 3d 16 9a 09 3d 94 e2 75 bd 67 84 e4 bd
       0.075496845 0.033594213 -0.060030535 -0.11158066
000180 b0 26 db bd 2d 78 2d 3c 3b 11 07 bc 82 3a e5 bb
       -0.107007384 0.010587734 -0.008243854 -0.0069955
000190 35 be e0 3c 3a c0 5c bc 23 32 07 3d 3b bd 75 3d
       0.027434448 -0.013473565 0.0330068 0.059994917
0001a0 f1 d3 10 3d 7d 1b 5e 3d 06 75 1b 3e b4 c0 a3 3d
       0.035358373 0.054225434 0.1518136 0.079957396
0001b0 c4 0a ed bc e4 62 0b be 6e 91 9c 3d 43 48 23 bd
       -0.028935798 -0.13611943 0.07644926 -0.039863836
0001c0 4b 56 fd bc 03 b6 01 bd d8 27 3c bc be 3e 54 bd
       -0.030924937 -0.03166772 -0.011484109 -0.051817648
0001d0 4c 5b 5a 3c 0e 8a d3 bd 63 c8 05 bc 49 d8 29 3d
       0.013327431 -0.10329066 -0.008165452 0.04146603
0001e0 5e 27 af bd 1d c4 87 bb 33 cc 4e bd 8d be 97 3d
       -0.085524306 -0.0041432516 -0.05048771 0.074093916
0001f0 c4 e0 09 3e 9c 0b 27 bd 55 3b ad 3d 4b 72 14 3c
       0.13464648 -0.040782556 0.08458582 0.009060453
000200 15 2d 9b bd b3 24 41 bd 91 3b 17 be 11 ee 80 3d
       -0.07576958 -0.04715414 -0.14768817 0.062954076
000210 16 b9 b1 ba ee d4 4c 3d 7d 0a 99 bd 30 01 03 3e
       -0.0013559188 0.050007753 -0.074727036 0.12793422
000220 5d 61 f9 ba 1b 06 6a bd 55 40 ba 3d f4 d4 cd bd
       -0.0019026209 -0.05713473 0.090943016 -0.10050383
000230 2d 8c 11 be e7 f9 08 3e 8b f5 16 bc 6a f0 c0 bc
       -0.14213629 0.1337658 -0.009213815 -0.023552138
000240 46 32 9f 3d ad 90 77 bc 78 bf 9a 3c ff 85 e2 3b
       0.07773261 -0.015110177 0.018890128 0.0069129462
000250 69 51 3c bc a6 22 46 3c a9 ea 41 3d 0c b4 7b bb
       -0.011494019 0.012093222 0.04734293 -0.0038406877
000260 44 33 f6 3d 54 69 a1 3d cc 6c 0c 3d 21 90 9a bc
       0.12021497 0.07881418 0.034283444 -0.018867554
000270 02 a7 93 3d e0 45 25 3d ff 06 ed bd bb 7a e5 bd
       0.072095886 0.04034984 -0.115736 -0.112050496
000280 1b 26 d0 3a 25 8b d1 3d 29 04 9d 3d e6 de 90 bd
       0.0015880497 0.10231618 0.07666809 -0.070737645
000290 03 32 b3 bc 8c 93 19 bd db 32 5b bd fd 47 8d bd
       -0.021874433 -0.037494227 -0.053515296 -0.06898496
0002a0 3e 52 25 bd 91 d2 ef bc f4 8a 74 bc af cb ad 3d
       -0.040361635 -0.02927521 -0.014925707 0.08486115
0002b0 9f 0b 08 3c 4f 3d 91 3d 2f 86 2a 3d 39 04 a0 3d
       0.008303552 0.07091772 0.041631874 0.078133054
0002c0 8a 48 31 bd 84 b9 3b 3c b9 7e 07 bd a4 34 b8 3d
       -0.04328207 0.011457805 -0.033079837 0.089944154
0002d0 66 16 d4 3c 28 34 d4 3d fa e5 b3 3d 9b 92 b4 3d
       0.025889587 0.103615105 0.08784099 0.08817025
0002e0 4a ff 1c be d1 88 34 bd 42 9f 1c 3d 7a 46 63 3d
       -0.1533176 -0.04407579 0.038237818 0.055487134
0002f0 35 6a 29 3d 90 11 bd 3d 3c 34 18 bd da 3d 6c 3d
       0.041361053 0.092318654 -0.03715919 0.057676174
000300 f9 80 78 bd 84 b9 4d 3d 11 b7 28 bd 7c 25 0b be
       -0.060669873 0.05022575 -0.04119021 -0.13588518
000310 85 d3 a1 3d 6d ce 4c bd b6 06 0e 3d 8f 14 d7 bc
       0.07901672 -0.05000155 0.03467437 -0.02625492
000320 6f b2 cf 3d 09 0a a2 ba f3 ea f4 3c 11 48 5c bd
       0.101414554 -0.001236261 0.029897189 -0.053779665
000330 c5 67 68 3c ec 89 14 be 3d b2 f3 b9 bd cf 81 3d
       0.014184897 -0.14505738 -0.0004648137 0.06338451
000340 12 89 0c 3e de 53 80 3d c2 8c 4e 3d 37 92 d9 bb
       0.13724163 0.062659964 0.050427206 -0.0066397446
000350 ec 14 de 3d 0d bc d8 3c c6 9c 52 3c d5 90 cb 3c
       0.10843834 0.026456857 0.0128547605 0.024849335
000360 21 5e c1 3d a5 ea 22 3d 48 25 b0 bd 28 81 95 3d
       0.09441782 0.039774556 -0.08600861 0.07300025
000370 b8 5b 4b bd 39 a1 ab 3d a0 3e 89 3d 0c 22 61 3d
       -0.049648017 0.0838036 0.06701398 0.05496411
000380 b9 38 2a 3d 8e ee cc bb 25 72 23 3d d0 d2 4e 3d
       0.041558 -0.006254024 0.03990378 0.050494015
000390 bf 70 df bd 7e 08 e9 bc 8f 94 21 bd a4 91 9b bd
       -0.109101765 -0.028446432 -0.039448317 -0.07596138
0003a0 fa 6f d0 3d 0e 50 a3 bd 02 7d 44 bd 25 ab 9f bc
       0.10177608 -0.079742536 -0.04797078 -0.019490788
0003b0 cb 89 95 bd 73 f2 57 3d 8d 81 d6 bc d3 1d a5 3d
       -0.073016725 0.052721452 -0.026184822 0.08062329
0003c0 5c 53 b9 3d 2e 04 56 3d a7 81 f6 bc cb c7 f7 3c
       0.09049103 0.05225008 -0.03009112 0.030246636
0003d0 d9 1c 3b 3d 3c 97 67 bd 6a 05 de bc ac c6 da bb
       0.04568181 -0.056540713 -0.027102191 -0.0066765156
0003e0 03 3b 85 3d 60 b6 15 3b f2 ce 11 be f4 45 af 3d
       0.06505396 0.00228443 -0.142391 0.085582644
0003f0 96 30 47 bc 90 47 98 3d a8 66 02 3d 8c 55 11 bd
       -0.01215758 0.074355245 0.031836182 -0.035481974

fc4.bias f4 [4]
000000 5e b2 37 3c 39 61 3b bd 05 2d 8d 3c 50 33 75 bd
       0.01121196 -0.045747016 0.017233381 -0.05986339
