Navigation/PPO_TD_checkpoint.pth (torch_old, 570642 bytes, 8 tensors)

fc1.weight f4 [256, 37]
000000 ff 7d cd bc 35 77 a3 3d 72 1a db 3d 24 66 5a bd
       -0.025084494 0.07981721 0.106984034 -0.053320065
000010 ce 05 2f be a3 cf b9 3c 8d 7a c0 bd c6 ec 6b be
       -0.17092058 0.022682017 -0.09398375 -0.2303954
000020 6c ac 85 3e 88 f8 2a 3d 2c 4e c5 3c f0 4b 74 bd
       0.2610811 0.041740924 0.024085127 -0.059642732
000030 f4 2a dd 3d cf e3 c5 bc ec bd 0e 3e b2 5b 10 bc
       0.10799208 -0.02415648 0.13939637 -0.008810924
000040 8e 6f 5c 3d 7c 35 17 bb 31 b6 65 be 38 c3 21 3c
       0.053817324 -0.002307265 -0.22432782 0.009873204
000050 38 6f 59 3c ba 4f f5 bd 4a 6d b2 3c 9c ed 2a be
       0.0132711455 -0.11978097 0.021780629 -0.16692203
000060 76 9f 2a 3d f2 50 a5 3c 4f f7 25 3e 90 0e 06 3d
       0.04165598 0.0201802 0.16207622 0.03272873
000070 16 59 50 3e 38 d6 39 bc 9b 48 50 bc 3f 67 45 bd
       0.20346484 -0.011342578 -0.012712623 -0.048194166
000080 f5 2f bb 3d cb 23 0b 3e 89 74 01 3e cd 94 eb bd
       0.091400065 0.13587873 0.12642111 -0.11502991
000090 9a ed cd bd d0 8c 9e 3d 97 29 26 be 0c be 4e be
       -0.100550845 0.077417016 -0.16226803 -0.20189685
0000a0 f4 8e be 3d 4b 6c 11 be 2c 48 c9 3d 08 08 2e 3d
       0.0930461 -0.14201467 0.09828219 0.042488128
0000b0 78 00 d1 bd 96 a2 16 be 51 e1 95 be 03 b0 80 3c
       -0.102051675 -0.14710459 -0.29273465 0.015708929
0000c0 27 a5 6a 3d e2 67 b4 3d 30 b4 92 3d d0 6e 26 3e
       0.057286408 0.088088766 0.07163274 0.16253209
0000d0 3f bb 45 3c ee 04 00 3e a5 95 9c bc 6e 53 45 3d
       0.012068569 0.1250188 -0.019114325 0.048175268
0000e0 be d1 08 3b c3 d0 27 be b2 a3 07 be 33 fa ba 3d
       0.002087697 -0.1638823 -0.13246039 0.09129753
0000f0 88 8a ee bd b9 1f 12 3d 38 11 35 bd 29 91 83 3d
       -0.116475165 0.035674784 -0.044205874 0.064241715
000100 a8 63 70 be 2b 4c 9f 3d af 55 24 be 58 06 39 bc
       -0.23475516 0.077782 -0.1604831 -0.011293016
000110 d4 28 03 3e 15 54 60 be 73 25 b0 bd eb 9b 2b be
       0.12808543 -0.21907075 -0.08600893 -0.16758697
000120 27 6c 21 3e df 2e 3a 3d 65 5c a1 bd bf b6 68 be
       0.15763913 0.045454856 -0.07878951 -0.22725962
000130 4f 77 a8 bd aa 51 17 3e d7 cc 56 bb dd d3 37 bd
       -0.08225881 0.14777246 -0.0032775903 -0.044879783
000140 d4 d7 a3 bd fd 4d 3e be 51 b4 74 3d ed 43 33 be
       -0.0800015 -0.18584438 0.059742276 -0.1750638
000150 91 75 28 3e 5f b5 43 3d ea 06 37 bd 88 c5 f7 bc
       0.16451098 0.04778039 -0.04468433 -0.030245557
000160 22 6e 68 be 7c 25 5c be 51 4c b9 3d 35 1f 4a be
       -0.22698262 -0.21498674 0.09047759 -0.19738467
000170 c5 a8 fd 3d 50 3b 1f 3e 11 9b 0c 3e 71 b8 67 bc
       0.12385706 0.1554997 0.13731028 -0.014143095
000180 16 bf 4e bd 01 e4 cc bd f8 78 42 3d 08 54 10 be
       -0.050475203 -0.10004426 0.047478646 -0.14094555
000190 28 74 be 3d bb 35 6a 3d 39 fc 84 3d 92 f3 46 3d
       0.09299499 0.057180148 0.0649342 0.04857213
0001a0 9e 48 19 3e 2f 9b e8 3b eb 3e 9a bd 3e bf 16 bd
       0.14969108 0.0070985775 -0.07531532 -0.036803477
0001b0 24 41 78 3d 25 f6 93 bd 84 61 1d 3d 79 91 0c 3e
       0.060608998 -0.07224683 0.038423076 0.13727368
0001c0 20 8f 2d be c3 87 e1 bc af 3b c8 bc cb d6 7f be
       -0.16949129 -0.027530557 -0.024442522 -0.24984281
0001d0 db e4 73 3d ae c5 e8 bd 08 d6 9b 3d 66 a6 4b 3d
       0.059544425 -0.113658294 0.076091826 0.049719237
0001e0 bf 01 24 be a1 28 cf bd 1b d1 46 bd 43 57 d3 3d
       -0.16016291 -0.10115171 -0.048539262 0.10319378
0001f0 7f 73 7c bd a1 9c 29 3e 38 30 82 bd ca 08 83 bd
       -0.061633583 0.16563655 -0.06356853 -0.06398161
000200 22 a6 d7 3d 37 64 cf bb 6f 69 11 be 04 09 da bd
       0.10529734 -0.006329085 -0.14200376 -0.10646251
000210 46 21 35 be d9 00 17 bd 8e 0f b1 bd 75 a6 4a 3e
       -0.17688474 -0.036866043 -0.08645545 0.19790061
000220 7d 84 c1 bd 67 d1 34 bd 35 32 68 bd 67 6c b5 3d
       -0.09449098 -0.044145014 -0.056688506 0.08858567
000230 47 e9 5f bd 24 cb 5a be 4a 55 c7 bd 40 0f 23 3e
       -0.05466583 -0.21366554 -0.097330645 0.15923786
000240 5a d5 fd bc bc c1 b5 3d 33 d0 e4 bc e5 24 a3 3d
       -0.030985523 0.088748425 -0.027931308 0.079660214
000250 be 67 6b 3d 93 69 e9 bd 4f 03 bd 3d 5b 98 fa 3d
       0.057471983 -0.1139709 0.09229147 0.12236091
000260 2b 1f 43 3d b6 1a 60 be a0 2a 30 be 16 08 3a 3e
       0.047637146 -0.2188519 -0.1720376 0.18167147
000270 36 5e 05 3e 7c 9f 2f be 34 6d ca 3d 2f cd 8f bb
       0.1302422 -0.17150682 0.0988411 -0.0043884735
000280 0c 6b 96 bd ac 37 ad 3c 21 7f bd bd 9e b5 1d 3e
       -0.07344636 0.02114471 -0.092527635 0.15401313
000290 98 b0 92 3c 54 03 32 be 56 e3 1b 3e 64 f0 c3 3d
       0.017906472 -0.17384082 0.1522344 0.09567335
0002a0 8f 08 dc bd 9c 19 7c 3c a6 c0 8c be 0f d2 6c 3d
       -0.1074382 0.015386965 -0.2749073 0.057817515
0002b0 71 98 48 bd 76 e7 ad bd 19 6f 3f be 93 28 42 3d
       -0.048973504 -0.08491413 -0.18694724 0.047401976
0002c0 d3 e5 a4 bc 59 58 25 be 13 9a 49 bd 8e e5 55 3c
       -0.02012912 -0.16146983 -0.049219202 0.013055218
0002d0 ea f0 a3 bd 75 c2 ac 3c 6c 96 62 3e 2b 92 35 3e
       -0.08004935 0.021088818 0.22127694 0.1773154
0002e0 ab c5 62 3c c9 65 b4 3c 95 25 17 be c6 d0 08 be
       0.013841073 0.022021191 -0.1476043 -0.13360891
0002f0 c4 89 79 be 0d f1 c0 bc 11 16 63 be 94 64 5c bd
       -0.2436896 -0.023552442 -0.22176386 -0.053806856
000300 81 95 5b bd ed 8b 3f be 87 12 5e be df 53 31 3c
       -0.053609375 -0.18705721 -0.21686755 0.010823219
000310 bc ec 26 3d 79 ea 45 3d bd ca ca 3c e3 5e de 3d
       0.04075311 0.048319314 0.024754876 0.10857942
000320 7c e1 41 bc aa b6 56 be 9e 47 53 bc 52 2f 4c be
       -0.011833545 -0.20968118 -0.012895493 -0.19939926
000330 5b f7 0e be 92 8a 54 be 6e d1 36 3c 82 5b 8c 3c
       -0.13961546 -0.20755985 0.01115833 0.017133478
000340 c2 34 37 3e 94 cf 44 bd 70 56 db 3d 72 76 1e be
       0.1789122 -0.048049524 0.10709846 -0.15474871
000350 1a c2 6e bd 90 54 84 3d b9 dc 8d 3c 3c 3b 02 be
       -0.05829058 0.064614415 0.017317163 -0.12717909
000360 01 74 d3 b9 c6 63 8e 3d 63 5b 02 bd 97 62 5f 3d
       -0.00040331486 0.06952624 -0.031825434 0.054537382
000370 24 53 1b be a4 82 68 3d 9b 61 ac 3d 3d 01 65 3d
       -0.15168434 0.056765214 0.08417054 0.055909384
000380 25 f0 04 be 06 29 6e bd 5a 11 43 3d b7 43 ff 3d
       -0.12982233 -0.05814459 0.04762397 0.124640875
000390 5d 57 f9 3b e8 ae cb bc 96 38 d2 bd 55 a0 39 be
       0.0076092915 -0.024863675 -0.10264699 -0.18127568
0003a0 f1 ff 3c be a9 b9 6e 3d d3 bb 04 be 38 ea 21 3e
       -0.18457009 0.058282528 -0.12962274 0.15812004
0003b0 6f 6b b3 3d e2 63 7d 3d c9 ce 50 be 9c b6 9a 3c
       0.08760726 0.061862834 -0.20391382 0.018885903
0003c0 18 cd 0f bc 86 21 24 be 32 b2 d4 3d 68 0d 42 be
       -0.0087769255 -0.16028413 0.103855506 -0.18950427
0003d0 d2 6c d2 3c 60 8a 3d bd c0 52 76 3d 3d da 4c 3d
       0.025686655 -0.046274543 0.06013751 0.050012816
0003e0 88 b1 49 be d2 5a 90 3d ec 39 d7 3d cd ae 07 be
       -0.19696629 0.070485726 0.105090946 -0.13250275
0003f0 fd f8 c8 3d ad 33 ea bb 56 c8 30 3d c4 ae 6f bd
       0.09813116 -0.0071472735 0.043159805 -0.05851628

fc1.bias f4 [256]
000000 3a 5d b3 bd db d4 97 3d ad 11 dd 3b 76 22 5f be
       -0.08758016 0.07413646 0.006746492 -0.2179049
000010 00 3f 10 3d f2 5b 38 bd 2e 16 3c be 0a 5c 95 bd
       0.03521633 -0.04500956 -0.18367836 -0.07292946
000020 45 1f da bd bb e1 22 be 18 7e cc bd b8 18 c0 bd
       -0.106504954 -0.15906422 -0.09984988 -0.09379715
000030 e7 b4 4e be a4 c4 8a bd 96 c2 51 3d 0b fe 8a 3d
       -0.20186196 -0.067757875 0.051210962 0.06786736
000040 e6 c0 25 be bb 27 03 be 5e 08 23 bc 86 ea 3d bc
       -0.16186866 -0.12808125 -0.009950725 -0.011591559
000050 ae 17 19 3d df 78 ef bd 36 63 9b bd 42 5d fa bd
       0.0373761 -0.11692976 -0.07587282 -0.12224819
000060 82 d7 4d be 5b cd f1 3d a7 bc 08 be aa d9 2d bd
       -0.20101741 0.118067466 -0.13353215 -0.04244391
000070 e4 12 25 be 64 1e 3d 3e 30 9e ee 3a 47 d6 1f 3d
       -0.16120487 0.18468624 0.0018205103 0.03902271
000080 30 9e f1 bc b6 da b4 bc dc 33 f0 3d d7 99 1c be
       -0.029494375 -0.022076946 0.117286414 -0.1529306
000090 75 22 0e bd b8 f2 82 3d aa 6e f8 bd c1 17 bb 3d
       -0.03470083 0.06393951 -0.121304825 0.0913539
0000a0 fe 25 ba bd 48 53 fb bd fe 0c ee bd 22 17 d4 b9
       -0.09089278 -0.12271744 -0.11623572 -0.00040453026
0000b0 65 a7 a5 bd c2 07 7b 3c a0 c3 83 bd 97 5d 04 3e
       -0.080885686 0.015321674 -0.06433797 0.12926327
0000c0 38 30 78 bd 99 6b 83 bd 5b 8e 09 be bc 5c 9d 3d
       -0.06059286 -0.06417007 -0.1343321 0.07683703
0000d0 fb 10 61 3d 60 ec d4 bd 1d 11 d8 bc 46 a1 20 3e
       0.054947834 -0.103966475 -0.026375348 0.15686521
0000e0 08 d8 83 bd a0 82 f9 bd 4c 50 bf 3d 69 ce f8 bd
       -0.06437689 -0.12183118 0.09341487 -0.121487446
0000f0 75 7f e5 3d 01 70 9f bd 72 12 f1 bd f2 70 83 3d
       0.11205951 -0.07785035 -0.11771096 0.06418027
000100 17 b1 85 3d 8f 35 ad bd 50 44 63 3d 3e 65 c3 3c
       0.06527918 -0.08457481 0.05548507 0.023851987
000110 92 a8 69 bd 69 43 1e 3d 75 ff c8 ba ac a1 0a 3c
       -0.057045527 0.038638506 -0.0015334921 0.008461397
000120 39 d4 6c bd e1 57 fd bd e8 19 e1 bd ad 97 c7 3d
       -0.05781958 -0.12370277 -0.10991269 0.09745727
000130 de f2 11 bd db cd e1 3d fd 42 22 be 45 0b e2 bd
       -0.035632007 0.11025592 -0.15845867 -0.11037306
000140 f9 d8 22 be 1c e0 dc bd 20 3d 88 bd 9b 8b 0f 3e
       -0.15903081 -0.10784933 -0.06652284 0.14018099
000150 bc c9 b0 3c 68 09 0b 3e af 6d fc 3d d9 07 46 be
       0.02158057 0.13577807 0.12325608 -0.19338931
000160 90 de ac 3d e3 26 e8 bd b4 87 42 bd 3d 64 36 3d
       0.08440888 -0.11335542 -0.047492698 0.04452919
000170 3b 21 fd bd d3 5e ad bc 3e 41 34 be 0d a8 24 3c
       -0.12359854 -0.02116338 -0.17603013 0.010049832
000180 88 3e 15 be 6a e8 e2 bc e5 03 18 be ef 20 47 3c
       -0.14574635 -0.027698714 -0.14845236 0.012153848
000190 68 48 26 3e cf b7 f8 3c 40 2a 13 3e 9c c7 a9 3d
       0.16238558 0.030361084 0.14371586 0.082900256
0001a0 1a 22 fc 3c e0 f1 3d 3b 05 dc a8 bc 1e c6 e8 3d
       0.03077798 0.002898328 -0.020612726 0.11365913
0001b0 48 cd 4e be bf ce 0b 3d 9c 1d f5 3c 4a 5f f1 3d
       -0.20195496 0.034132715 0.029921345 0.11785753
0001c0 ec cf e6 3d 24 77 af 3c c7 0f 2e be f2 20 ea 3b
       0.11270127 0.021419115 -0.16998206 0.0071450407
0001d0 a0 f8 07 be b9 55 c6 bd b8 a3 5b bd f7 bf 46 be
       -0.13278437 -0.09684319 -0.05362293 -0.19409166
0001e0 81 30 d1 3c 3c d2 65 bd c1 f4 b7 3c 3d 13 18 be
       0.025535824 -0.0561087 0.022455575 -0.14851089
0001f0 08 be 9e bd 52 f3 32 bd f2 83 63 3c f1 a7 73 bd
       -0.07751089 -0.04368908 0.013886439 -0.059486333
000200 15 de c7 3d b0 67 70 3d 15 e3 b1 3d f2 51 a6 bd
       0.09759156 0.058692634 0.086858906 -0.081210986
000210 cf 6f e3 bd 60 e4 a7 bc d5 4b 29 be 29 d7 cb 3d
       -0.1110531 -0.02049464 -0.16532834 0.09953148
000220 e4 ae 35 3d 88 bd 8d 3d 68 f1 bb 3c ec fc d1 bd
       0.04435624 0.06920916 0.02294226 -0.10253319
000230 85 e3 20 be 1d 60 dc bd 1d f2 21 bc cb 50 af 3d
       -0.15711792 -0.1076052 -0.009884384 0.08560332
000240 52 23 8f bd 84 fd aa bd e7 2e 38 be 54 a1 2a be
       -0.06989159 -0.083491355 -0.17986642 -0.16663104
000250 25 7c c8 bc 27 7e 2c bc 47 6f c4 3d 5c 08 e6 3d
       -0.02447326 -0.010528124 0.09591537 0.11232063
000260 9a 54 be bc a9 1f da 3d 52 e9 ab 3d b8 cd b2 bc
       -0.0232337 0.1065057 0.08394112 -0.02182661
000270 81 a3 1e be a4 8b a3 bb 41 96 87 3d 29 f4 ed 3d
       -0.1549206 -0.0049910117 0.066204555 0.116188355
000280 0a 2e 31 3d 87 1d f1 3d 8f bf d4 bd 2c e8 16 bd
       0.043256797 0.1177321 -0.103880994 -0.03684251
000290 4f 36 ef 3d 0e 9c ee 3d 09 d6 c6 bd 76 fd 70 bc
       0.116802804 0.11650859 -0.09708793 -0.014708867
0002a0 32 70 16 3e bd 6f bc bd 54 bd fc bc 7e ee df bd
       0.14691237 -0.09201 -0.030851997 -0.10934161
0002b0 c0 07 0d 3d 39 f3 d3 bd ed 70 12 3e 43 b0 c4 3d
       0.03443122 -0.103491254 0.1430089 0.09603932
0002c0 57 bf f7 bd 0e 16 a3 3d 8b bb 44 3d f7 ff 5b 3d
       -0.12097042 0.07963191 0.048030417 0.053710904
0002d0 1b e5 42 be 8d 50 7c 3d b5 07 60 3d d6 d3 36 be
       -0.1903271 0.061600257 0.05469485 -0.17854246
0002e0 6b ba 19 be 80 fe 0d 3e 19 94 ac bd eb b8 a4 bd
       -0.15012519 0.13866615 -0.08426685 -0.08043083
0002f0 1a 22 c0 3d ab 48 10 3e 65 ea 1e bd 2d 69 97 3d
       0.09381504 0.1409022 -0.038797755 0.073931076
000300 85 ed c3 3d 41 f9 65 bd 72 a2 c1 bc af 78 a4 3d
       0.09566788 -0.05614591 -0.02363703 0.08030831
000310 93 9e 33 bd 2d cf 9c bd f2 fd de bd bc 2d 4d be
       -0.0438524 -0.07656703 -0.1088828 -0.20036978
000320 44 3e 27 be 5c b2 61 3d 98 32 06 bd 21 6d 75 3d
       -0.16332346 0.055101737 -0.032763094 0.059918527
000330 17 07 b6 3d 28 b2 05 3d 9a 79 9d 3d 97 50 37 3d
       0.08888071 0.032640606 0.07689209 0.04475459
000340 1d 3a 83 3d 0c 28 7e 3d a1 fc 3f 3b 90 4f f9 3d
       0.064075686 0.06204991 0.0029294866 0.121733785
000350 02 96 92 3d de f4 ba bc 02 f6 f6 3c 3c b8 7d bd
       0.07157518 -0.02282184 0.030146603 -0.061943278
000360 92 48 01 be e4 1c cb 3c bf 9c b4 3d 37 ac cb bc
       -0.1262534 0.02479405 0.088189594 -0.024862392
000370 26 e6 2a 3e 1a d8 f3 bc d9 67 63 be 07 cd 1e be
       0.16689357 -0.029766131 -0.22207583 -0.15507899
000380 d0 75 e6 3d 08 03 44 3d 26 d0 06 be f2 90 f1 3b
       0.1125294 0.047854453 -0.1316534 0.007372015
000390 05 ef 22 3d f1 6b 02 bd 8a 49 6b 3d fa a1 ad 3d
       0.039778728 -0.031841222 0.05744318 0.0847816
0003a0 75 55 01 be a4 04 c2 3d fe eb c6 3c 20 84 59 bd
       -0.12630256 0.094735414 0.024282452 -0.05310452
0003b0 4a ab c4 bc 09 6d 81 3d f6 4e c0 3d 80 11 1f be
       -0.024007458 0.06319625 0.093900606 -0.1553402
0003c0 14 6a 07 3d 2c bc 4e be 68 7b 05 3e 80 bd b1 ba
       0.03306015 -0.2018897 0.13035357 -0.0013560504
0003d0 f6 c9 f0 bd 99 a2 00 bc 84 99 c1 3d e8 a5 64 bd
       -0.11757271 -0.007851266 0.09453109 -0.055822283
0003e0 d6 fc fe 3d 1a 0c 84 bd 8e 0e df bc 17 d2 10 be
       0.124505684 -0.06447621 -0.02722862 -0.14142643
0003f0 a7 30 16 be dc 07 79 bd a1 a1 e2 bd 56 7f e9 3d
       -0.14666997 -0.06079851 -0.110659845 0.114012405

fc2.weight f4 [256, 256]
000000 a8 d2 b8 bd 0e 4e 71 bd d7 e4 be 3c 7d 04 98 3d
       -0.090245545 -0.05891233 0.023302479 0.07422731
000010 46 23 f3 3c d8 5c 8c 3d 65 95 19 bd 75 dd af 3c
       0.029679906 0.06853646 -0.03749599 0.021467904
000020 fe 48 38 3d 6a 18 14 bc c7 58 c9 3b 64 ff b5 bc
       0.044991486 -0.009039024 0.0061446163 -0.022216506
000030 b5 3a 95 3d b7 de b0 bd c0 8f 58 bd 13 6c a2 3c
       0.07286588 -0.086362295 -0.052871466 0.019826924
000040 b5 88 2d 3c fd 9a 0e 3d 5c b9 cd 3d 07 cd fb 3d
       0.0105916755 0.034815777 0.1004512 0.12294965
000050 ae 54 58 bc db 61 01 be 36 32 aa 3d c4 e5 80 bc
       -0.013203783 -0.12634985 0.08310358 -0.01573456
000060 d5 84 de bd ac 0d a8 bd 16 51 0c be fd 9d 70 b8
       -0.108651794 -0.08205733 -0.13702807 -5.7367597e-05
000070 33 9a 9f 3d 74 ab 80 bd f2 78 5f bb 09 8c f8 bb
       0.07793083 -0.06282702 -0.0034099189 -0.007585053
000080 bf f4 cd bd 39 e1 21 3d 6d 4e 8e bb cb a8 53 bc
       -0.10056447 0.03952143 -0.004342845 -0.012918661
000090 4c 32 de 3c 3d 53 36 3c 64 6a 1e bc 42 51 57 bd
       0.027123593 0.011128244 -0.00966892 -0.052567728
0000a0 1c 1a c7 3d e7 92 9f 3d e1 15 fd bd e2 7b 9e bc
       0.09721777 0.07791691 -0.12357689 -0.019346181
0000b0 52 ad a8 3d 24 fc 77 bc 12 91 c7 bd 3e bc 33 3d
       0.08236183 -0.015135799 -0.09744467 0.043880694
0000c0 58 59 f0 bc 29 7e 45 bc 73 75 74 3c de 6a ad bd
       -0.029339477 -0.012054005 0.01492058 -0.08467649
0000d0 25 06 a8 bb 29 4f c7 3c 24 d0 ae 3b ae c1 08 3d
       -0.0051276856 0.024329739 0.005334871 0.033387832
0000e0 f4 2e 75 39 13 b3 e0 3d 6a 3f 73 bd f6 5a f5 bd
       0.00023382512 0.10971656 -0.05938665 -0.1198024
0000f0 d9 01 08 3e 2d 4e 37 bc 29 73 1b bd c3 92 91 bd
       0.13281955 -0.011188072 -0.037951622 -0.07108071
000100 41 a2 80 bc 80 b7 09 bd cd 96 0e be 89 bb 16 bc
       -0.015702369 -0.033622265 -0.13924713 -0.009199985
000110 68 ab 10 bc dd 06 8e bd 09 e9 6e 3d c1 6b 44 3d
       -0.008829929 -0.06934903 0.05832771 0.047954325
000120 97 9b 0e 3d b5 d6 0d bd 16 ef c0 bc c5 2d 49 bc
       0.03481635 -0.03462859 -0.023551505 -0.012278979
000130 f2 8b a2 bd 0c 49 98 3d 1c 36 99 bd ff 1e 5f bc
       -0.07936849 0.074358076 -0.07481024 -0.01361823
000140 09 8e 1e bd 5d 2c cd bd 06 bf 33 3d 0a 5a d1 bd
       -0.038709674 -0.10018227 0.043883346 -0.10222252
000150 62 21 fe bb 29 e1 11 3d 1b 29 c4 bc cf 20 a6 bc
       -0.0077554444 0.03561512 -0.023945382 -0.020279316
000160 2d 00 7f bc 62 50 c4 bd 65 33 e9 bd 20 86 c7 b9
       -0.015564007 -0.09585644 -0.11386756 -0.0003805617
000170 ed 23 ab 3d 1e 8f 6d bc 5c f1 da 3b f7 67 df 3d
       0.08356462 -0.014499454 0.0066816043 0.109085016
000180 8b 1f c4 bb 28 36 17 3d 67 12 f4 ba 8c dd 42 bd
       -0.0059852055 0.03691688 -0.0018621207 -0.047574565
000190 a0 51 c1 bc ee 86 0b be c5 94 fe bd 12 4f b2 bd
       -0.023598492 -0.1362569 -0.12430719 -0.08706488
0001a0 4f df a9 3c a8 25 d7 bc 30 ad ee bd 27 39 5a 3c
       0.020736365 -0.026263073 -0.11654127 0.01331929
0001b0 64 7c c3 bd 8d 4b 56 bd 01 8f 61 bd f3 73 3a 3d
       -0.0954521 -0.052318145 -0.05506802 0.045520734
0001c0 d6 a2 59 bb fb 97 55 3d 21 f4 44 3d ca 1b 75 3c
       -0.003320863 0.052146893 0.048084382 0.014960239
0001d0 68 97 e8 3c 07 eb 9f bc e2 8a 93 bd 74 c4 71 bd
       0.028392509 -0.01952125 -0.07204224 -0.059025243
0001e0 44 58 fe 3c 3e 21 16 3d 52 ae ff 3c fa 2c aa bd
       0.031047948 0.036652796 0.031211052 -0.0830936
0001f0 de 75 36 bd de a2 d2 bd f3 ec 3b bd f3 8a 73 3b
       -0.044546 -0.10284971 -0.04588027 0.0037161678
000200 fb 48 17 bc f7 0c 65 3d 07 d6 00 bd 89 10 17 bb
       -0.0092337085 0.055920567 -0.031454112 -0.0023050627
000210 1d dd 32 bd 58 95 6f bb fc d2 6f bd 00 38 45 bd
       -0.0436679 -0.0036557522 -0.05855082 -0.04814911
000220 27 81 75 bd ea a8 c0 bc be b6 b7 3d 73 e1 64 3d
       -0.059937622 -0.023518045 0.08970402 0.055879068
000230 a5 b7 fb 3d 56 10 77 3d fd 1f ef bc e2 a2 06 3d
       0.12290887 0.060318314 -0.029190058 0.03287018
000240 fd 9e b1 3b 5a 98 d5 bd 8b 4a 5a 3d cc 6c bb bc
       0.005420564 -0.104294494 0.053293746 -0.022879027
000250 3b 85 a2 bd 4a 37 6c bd 71 fd 00 bc 1d a8 8e 3d
       -0.07935568 -0.057669915 -0.007872925 0.06965659
000260 4b 97 e8 3d c0 a6 80 bc c5 c6 cb bc 84 c8 c6 bd
       0.11356982 -0.015704513 -0.024875054 -0.09706214
000270 68 b6 ca 3c da 5a 97 bd 49 e5 5c 3d 0a 3a ae 3d
       0.024745181 -0.073903754 0.0539296 0.08507164
000280 c4 a3 b8 bc 75 1c f4 3c 27 dc 5d 3d 5b e7 9e 3c
       -0.022539027 0.029798726 0.05416503 0.019397428
000290 d0 3e 66 3d d8 9f 40 bc b3 c0 a4 bc 31 bd f9 bc
       0.056212246 -0.01175686 -0.020111417 -0.030485721
0002a0 4f a9 b2 bc 3a b2 13 3d b9 fc 82 bd d2 d5 34 bd
       -0.021809248 0.036058642 -0.06395859 -0.044149227
0002b0 2e ba 1e bd 64 1b 38 bb 99 49 c6 3d b2 56 82 3c
       -0.038751774 -0.0028092498 0.096820064 0.01591048
0002c0 bd 5b 6b bd a6 46 90 3d 1d 5d a4 3b 93 e0 d1 bd
       -0.057460535 0.07044725 0.005015983 -0.10247912
0002d0 f1 2a 4b bd 4e 8a ac 3c 52 ab 66 3d 7d 1d 9f bc
       -0.0496015 0.021062043 0.056315728 -0.01942324
0002e0 0e e6 91 bc 3d 40 36 3d ed fc 21 3e 9d a1 d6 bc
       -0.017809894 0.044494856 0.1581914 -0.02620011
0002f0 49 ce 9a 3b 0e ac c4 3d 4c 7f 14 3d b5 65 83 bd
       0.004724298 0.09603129 0.036254212 -0.064158835
000300 ad 77 9d bc 27 fb 90 bc 20 0b e8 3d 66 7f 9f bb
       -0.019222105 -0.017697884 0.11330247 -0.004867482
000310 d9 33 7f bd 26 80 d0 3d f1 65 65 3d 8d bb 01 bd
       -0.062305305 0.101806924 0.056005422 -0.031673003
000320 37 ad a4 3d 69 ec ac 3b 42 f8 8b bc 10 34 fb 3c
       0.080408506 0.0052772057 -0.017086152 0.030664474
000330 3d 3f 90 3d 80 fb 44 bd ab 55 c8 bd 88 35 1a 3d
       0.07043312 -0.04809141 -0.09781965 0.037648708
000340 84 e4 f5 3c a3 26 8a bd 2d 94 99 bc 85 65 ac bd
       0.030016191 -0.067456506 -0.018747414 -0.08417801
000350 1b e2 43 3d 6c fd 7e bd 21 7e 80 3d 90 0c aa 3d
       0.047823053 -0.0622534 0.06274057 0.08303177
000360 3d c0 d3 3d 75 21 32 3d 7c 2b f2 bc f6 3d 84 bc
       0.10339401 0.04348894 -0.02956175 -0.016142827
000370 a7 89 67 bc e1 6c ce bc 9e 7a bf bd 64 4a 92 3d
       -0.01413194 -0.025198402 -0.09349559 0.07143095
000380 56 f5 cf 3d b7 23 8c bc 70 42 35 bd e2 31 ba 3d
       0.10154216 -0.017106874 -0.044252813 0.09091546
000390 71 f8 b9 3d 59 b1 cc ba 36 bb 1b 3d 22 56 80 bd
       0.090805896 -0.0015616819 0.038020335 -0.062664285
0003a0 55 1e 44 3d 71 b0 71 3d 5c a9 74 3c ba bc b8 bd
       0.04788049 0.05900616 0.014932957 -0.09020372
0003b0 d1 d6 51 3d f4 43 91 3d b1 25 6d bc ba 68 03 3d
       0.051230256 0.07093039 -0.014474318 0.032082297
0003c0 13 ef 16 bd b8 91 f0 bd 5a 25 a2 bc 08 07 64 3d
       -0.036849093 -0.11746544 -0.019793201 0.055670768
0003d0 04 30 00 be ad 87 35 3c bd 3d 14 bc a3 9f 8a bc
       -0.12518317 0.011079711 -0.009047923 -0.016921824
0003e0 99 11 a0 bd a4 2e 86 3d b6 3a e2 bd 2b 93 b4 3d
       -0.078158565 0.06551865 -0.110463545 0.088171326
0003f0 50 e8 0e bd 96 29 05 bd 7e 14 87 bd f5 5e a7 3c
       -0.03488952 -0.032510363 -0.065957054 0.020431021

fc2.bias f4 [256]
000000 3b 92 9b bd ee ea 2f bd c2 e9 0e 3d 36 09 36 bc
       -0.075962506 -0.042948656 0.034890898 -0.0111105945
000010 ca 2c 2b 3d 25 60 80 3a ba 43 10 3d 37 99 90 bc
       0.04179076 0.0009794278 0.03522084 -0.017651184
000020 76 f1 8a bd 00 cd 8d bc 78 92 76 bd 9c fd 18 3d
       -0.06784336 -0.017309666 -0.060198277 0.037351236
000030 b7 15 27 3d f6 41 d8 bb bb 47 0a 3c 3f 9f 94 3d
       0.040792193 -0.00659966 0.008439953 0.07256936
000040 5f 50 46 bd c8 18 4e 3d 9a 52 95 bc 1e f1 85 bc
       -0.04841649 0.050316602 -0.018227864 -0.016350325
000050 a4 32 56 bc 04 b2 99 bc a3 01 6b 3c a6 96 4a 3d
       -0.013073597 -0.018761642 0.014343652 0.049460076
000060 7d 55 08 bd e1 e4 b7 3c 63 5f ac 3c 50 3c 3a 3c
       -0.033284653 0.022448005 0.021041578 0.011366919
000070 90 5d 60 bd 3e ea e7 3b 36 b0 3a bd 1c d0 75 3c
       -0.05477673 0.0070774844 -0.045578204 0.01500323
000080 88 cc 13 bb 50 ee 8b bd 4e 87 1d 3d ad 9c 8f bc
       -0.002255233 -0.06832564 0.038459115 -0.017530764
000090 66 da 78 bc e1 7c 53 bd f4 2b a4 bb 76 7f d1 bc
       -0.015188789 -0.051632766 -0.0050101224 -0.025573473
0000a0 49 8d c9 3c e1 c0 00 bd 45 f3 06 bc 60 b1 82 3d
       0.024603503 -0.031433944 -0.008236711 0.06381488
0000b0 28 b2 17 bd f0 e3 a6 bd 6c 0e 84 bd 09 4f 76 bd
       -0.037035137 -0.081489444 -0.06448063 -0.060133968
0000c0 0f 85 1b 3d 21 bc 22 3c ec dd 1f bc 2d eb d6 bb
       0.03796869 0.009932549 -0.0097575 -0.006558797
0000d0 19 0c 59 3d d6 e9 11 3d 3d 83 62 bc aa 38 73 bd
       0.052990053 0.035623394 -0.013825235 -0.05938021
0000e0 1d d2 d2 3c 59 80 e5 3c c1 57 81 3d 7f f4 a0 bd
       0.025734955 0.028015302 0.06315566 -0.07859134
0000f0 34 6c 50 bd bb 81 de bc c3 6f ec bc 6f cd 75 bd
       -0.05088444 -0.02716147 -0.028861886 -0.06001037
000100 b0 c0 5d bd 0e de 59 3d 62 b2 bf bc 3f 99 5a bc
       -0.05413884 0.053190283 -0.02340049 -0.013342201
000110 8b c3 9b 3c 06 47 33 3d 5b c2 aa 3d ec 51 ad bb
       0.01901414 0.043768905 0.083378516 -0.005289307
000120 35 dd 06 bc f5 bb ff 3c bb e9 80 bd ab c1 01 bc
       -0.008231451 0.031217555 -0.062945805 -0.007919709
000130 93 03 43 bd ba db 85 3d 24 d2 94 3b 3f fe 07 bd
       -0.04761083 0.0653605 0.0045416523 -0.033201452
000140 26 c5 18 bd 94 b5 f7 3c 31 7d 77 bc e5 5c 5e bd
       -0.03729739 0.03023795 -0.015105532 -0.05428781
000150 d3 1b 1f 3d a1 46 86 bd 6f 43 79 bd dd b4 76 bd
       0.038844895 -0.0655644 -0.060855325 -0.06023108
000160 ec c2 8f 3c 5e 0e 63 ba 63 0c 62 3d 97 2c e9 3c
       0.017549 -0.00086615037 0.055187594 0.028463645
000170 ba 30 f3 3a 10 6f dd ba c7 de 15 bc 50 a7 61 3d
       0.001855395 -0.0016894061 -0.009147353 0.055091202
000180 f4 4e 34 3d 19 69 2e bc 80 f5 16 bd 78 f2 0e 3d
       0.044020608 -0.010645174 -0.03685522 0.034899205
000190 7e 40 9b bd 2c 66 0b 3d 0f bf ab 3c 9a 89 21 bd
       -0.0758066 0.034032986 0.020965127 -0.039437868
0001a0 a8 29 80 3b 4b ab 2d bd fc 08 36 3d d7 b0 f9 3c
       0.003911216 -0.042399686 0.044442162 0.030479832
0001b0 b1 7f 66 3d 6b d8 34 bd 00 a1 e9 3c fc ee 9d 3c
       0.05627412 -0.044151705 0.028519154 0.019278996
0001c0 91 8d fd bc 12 b5 12 3c 6b fe 08 3d 36 34 54 bd
       -0.030951293 0.008954303 0.033445757 -0.051807605
0001d0 c4 5c 6e bc 3f 99 61 bd d0 cc f4 bc e9 40 24 bd
       -0.014548484 -0.055077787 -0.029882818 -0.040100966
0001e0 37 ac 05 bd 40 46 ee bb b3 81 73 bd 95 37 92 bb
       -0.03263494 -0.007271558 -0.059449863 -0.0044621923
0001f0 36 95 3f bd 60 6b 60 bd b5 5c e9 3c 6f c8 a6 3d
       -0.046773158 -0.0547899 0.028486589 0.081436984
000200 b0 c4 36 bd a0 4c 55 bb b8 70 63 3d 64 bf d4 3d
       -0.04462117 -0.0032546893 0.05552742 0.10388067
000210 cc b7 21 bd db 79 2b 3d 96 55 34 3d ff 0c 1b 3d
       -0.039481923 0.041864257 0.044026934 0.03785419
000220 e1 14 62 3a ef 6b 90 bd 0e 12 99 3b af b9 35 bc
       0.0008624327 -0.07051837 0.0046713417 -0.011091634
000230 04 c2 8a bd 6b ed 15 3d 0b 62 4f 3d 84 e5 ff 3a
       -0.06775287 0.036603373 0.05063061 0.0019523357
000240 71 30 43 bd 2d 00 c8 bc 20 a8 db bc 1e 33 e5 3b
       -0.04765362 -0.024414146 -0.026813567 0.006994619
000250 12 58 5f bd 35 41 64 bd eb fa 1f bd 6b 42 10 3d
       -0.05452735 -0.05572625 -0.039057653 0.03521959
000260 c2 73 46 3d 4f 61 21 bc 39 97 8e bd cb c3 e1 bb
       0.04845024 -0.00984986 -0.06962437 -0.0068897954
000270 5a e1 f8 3b 3f 7b c5 b9 68 0e f6 3c 4e 2b 2d 3d
       0.0075952234 -0.00037666594 0.030036166 0.042277627
000280 cb 34 6e bd c1 0e b5 bc 16 d8 9b bd bb 5c 3f 3c
       -0.058155816 -0.022101762 -0.076095745 0.0116798235
000290 18 95 89 bb d4 7a 3f 3c 3c a1 15 bd f0 4a 3f 3d
       -0.0041986816 0.011686999 -0.03653072 0.046702325
0002a0 98 ca 89 bc 7d b7 a4 bc f9 1f a7 bc 16 e3 af 3b
       -0.016820237 -0.020107025 -0.020400988 0.005367647
0002b0 c8 21 a1 3c 2b e8 14 3b cc 66 03 bc 10 76 69 3d
       0.019669428 0.002272139 -0.008020114 0.05699736
0002c0 cd 67 f3 3b 81 c1 61 bd 80 78 41 3d 47 85 b9 3d
       0.0074281455 -0.05511618 0.04723406 0.09058624
0002d0 1c cc 3e 3d f7 c6 98 bd ee 21 89 3c 49 74 06 3d
       0.046581373 -0.074598245 0.016739812 0.032825742
0002e0 f8 07 47 3d 5e 53 41 3d f1 a7 78 bb ac 1d 1c bd
       0.048591584 0.047198646 -0.0037941898 -0.038114235
0002f0 7f 0b 7e bb db bc c4 bc f1 a8 d9 3a 26 c2 8b bd
       -0.0038764176 -0.024015835 0.0016606135 -0.0682414
000300 00 ce 28 bc 89 6d 8d bd ca 85 af 3c 19 ad a6 3c
       -0.0103030205 -0.06905658 0.0214261 0.020346211
000310 48 5d e9 ba fc bd bb 3c d1 df d7 3c ff 67 12 3d
       -0.0017804289 0.02291774 0.026351841 0.03574371
000320 9b b6 0a bd 7f d6 71 3d 41 03 bd 3b 9d 21 1b bd
       -0.033865552 0.05904245 0.00576821 -0.037873853
000330 7b 9e a2 bd fd b3 fe bc c5 f4 74 3c 77 29 0f 3d
       -0.07940384 -0.031091684 0.014950936 0.034951653
000340 63 56 98 3d cf 1f c6 bc 3e d3 c2 3b fb ee 97 bc
       0.07438352 -0.02418509 0.005945592 -0.018546572
000350 e0 a5 4d 3d 55 3e 41 bd 65 12 95 bd 0a 68 8d bd
       0.05020702 -0.047178585 -0.07278899 -0.069046095
000360 a1 e2 d5 3c 8e 89 8a bd ee 8d 02 bd cb 6f cd 3c
       0.026109042 -0.06764518 -0.031873636 0.025077721
000370 3b 17 b2 bd c9 03 28 bd 72 33 65 3c c0 c5 d9 3c
       -0.08695837 -0.041019235 0.013989316 0.026583552
000380 ae 42 42 3c d4 23 ad 3c b8 7a 1b 3c b4 dd fa bc
       0.011856718 0.021135248 0.009489708 -0.030623294
000390 d3 b1 3c bd 54 7e 41 3c d5 8d 90 bc cb 5e c3 3c
       -0.046068024 0.011809904 -0.017645756 0.023848912
0003a0 e0 92 af bc 67 6c f9 bc 4c 9e 14 bd 77 c2 84 3c
       -0.02143234 -0.030447198 -0.036283776 0.01620601
0003b0 95 db 13 bd 2b f1 0d 3d 05 14 43 3d 59 27 c3 ba
       -0.03609808 0.034653824 0.047626514 -0.0014889046
0003c0 f4 1c 42 3d 8d f6 cb 3c 70 4c 6b 3d 74 b0 4f 3c
       0.047390893 0.024897838 0.057445943 0.012676347
0003d0 56 84 92 bc f7 b8 9c bd 6b 47 54 bc b7 6c 84 3d
       -0.017885368 -0.07652467 -0.0129564805 0.06466048
0003e0 7c 84 09 3d b3 dc c2 bd c6 ae ee 3d 71 98 1d 3d
       0.033573613 -0.09514751 0.11654429 0.038475458
0003f0 da 85 4c bc c1 e5 c1 3b 7a bf f0 39 9a 26 5f 3d
       -0.012483085 0.0059172814 0.00045919028 0.054480173

fc3.weight f4 [256, 256]
000000 42 21 64 3d 51 d3 bd 3d ed 13 3b bd 12 cb 12 3d
       0.05569578 0.09268821 -0.0456733 0.035838194
000010 6f 05 14 3d 75 03 10 be 19 24 98 3d e4 4c 52 3d
       0.036137994 -0.14063819 0.0742876 0.05134286
000020 65 46 af 3d c7 ca 7f 39 18 8b f1 bc 70 1e 06 3d
       0.085583486 0.00024394236 -0.02948527 0.03274387
000030 59 37 28 ba aa 19 46 bb ae a6 71 3d 69 9a 3f bc
       -0.0006416939 -0.00302277 0.05899685 -0.011694529
000040 26 19 79 bb 95 bc bd 3c 26 42 94 3d 04 53 d3 bc
       -0.0038009374 0.023161212 0.07239179 -0.02579642
000050 07 6c a7 3b 4c 03 ba 3d ac d9 23 3c 1a f8 99 3c
       0.0051093134 0.0908266 0.0100006275 0.018795062
000060 c4 0c d5 bc fe 1f 61 3d bb 7b 02 be bd d9 80 3a
       -0.026007064 0.05496215 -0.12742512 0.0009830516
000070 77 01 8d bc 22 fe 56 bd ef 83 0e 3e 6c ad c1 3c
       -0.017212613 -0.052488454 0.13917516 0.023642264
000080 65 1d 48 3d 6e e4 6b bd 79 48 dc bd 2d a9 b4 3d
       0.048856158 -0.057590894 -0.107560106 0.0882133
000090 6b 6a 8e 3d be ab 69 3d 79 b0 bb 3d d6 56 5f bc
       0.06953891 0.05704855 0.09164519 -0.013631543
0000a0 ac 20 3f 3d a9 a2 42 3e 9d 51 50 bd 3d 1b af 3d
       0.046662018 0.19007362 -0.050859082 0.08550117
0000b0 c2 a5 5b 3d 4c 47 f2 bc 5a 80 01 bb 4d 25 76 3d
       0.053624876 -0.029575013 -0.0019760341 0.060094167
0000c0 f2 68 4f bd 29 3f d8 3a 44 ca 11 bd f7 5c 0d bd
       -0.050637193 0.0016498315 -0.035593286 -0.034512486
0000d0 07 41 64 bc c3 36 1d bb d7 10 14 3c 06 9a 41 3d
       -0.013931519 -0.002398894 0.009037218 0.04726603
0000e0 6b fb ad bd 2e 16 6a 3d 73 8a 73 3d a7 c7 c5 3d
       -0.0849522 0.05715006 0.059458207 0.09657221
0000f0 a6 82 9b bd ed d7 dc bc 1c 11 6b 3d 86 e8 d9 bc
       -0.075932786 -0.02695843 0.057389364 -0.026600134
000100 a3 52 66 bd d5 6e 3d 3d 6b 64 82 3c 17 56 4d bd
       -0.056231152 0.046248276 0.015917024 -0.05013093
000110 bd 09 a0 3c 82 4f 2e bd ea ca 76 3b fb fc 29 bc
       0.019535894 -0.042556293 0.0037657567 -0.010375257
000120 4c 7b cf bd 26 8f 8b 3d 08 e5 74 3d 0f a1 64 bd
       -0.10130939 0.06814413 0.059788734 -0.05581766
000130 df 09 bb 3d ed 75 81 3d 68 d4 4f bb 05 41 93 bc
       0.09132742 0.06321321 -0.0031712297 -0.01797534
000140 8a 61 28 bd 27 6a 42 3d 7b b0 3f bd 5c 64 84 bd
       -0.041108645 0.047464516 -0.046799164 -0.064644545
000150 5d 77 a8 3d 22 bc 4d 3d 3e 6e 47 3d ab ff be bd
       0.08225892 0.050228246 0.04868912 -0.093261085
000160 fc 2c d8 3c 42 d5 aa 3b 44 b1 a3 bc 98 9b 4c 3d
       0.026388638 0.0052134106 -0.019981988 0.049953073
000170 79 1a 97 bb 89 8a ae 3d 89 61 34 3e 31 e6 00 bd
       -0.00461131 0.08522517 0.17615332 -0.031469528
000180 24 d3 bf bc f8 1a 56 3d 3a 94 11 be c4 c8 84 bb
       -0.02341611 0.052271813 -0.142167 -0.0040522534
000190 80 30 0c 3c 14 ae 36 3d 11 9a bf bc 25 20 63 3c
       0.008556485 0.044599608 -0.023388894 0.013862644
0001a0 a4 8b 5f 3c 1c 84 3c b8 68 dd 6b 3c 70 e1 86 bb
       0.013644133 -4.494573e-05 0.014396049 -0.0041162297
0001b0 71 7f 88 3d df 4b 92 3c 4b 3b 3e bd f3 11 ea 3c
       0.066649325 0.017858444 -0.046443265 0.028573012
0001c0 c3 d9 11 3d b8 ea 5e 3d 6a 9a c0 bd 20 07 5d bd
       0.035608064 0.054423064 -0.09404452 -0.053961873
0001d0 ef 87 4d 3d 68 a8 bb 3c ae 4f 9b 3d 8c 83 1e bd
       0.050178465 0.02290745 0.07583557 -0.03869967
0001e0 2e 01 b3 bd e7 28 2c bd f9 d4 4b bd 16 79 17 3d
       -0.087404594 -0.042031195 -0.049763653 0.03698071
0001f0 59 7a 9a 3b bc 87 37 bd 72 60 db 3d 7d 8f 69 bd
       0.004714292 -0.04480718 0.10711755 -0.057021607
000200 cc 53 34 3e 93 f3 a6 bd c2 96 ba bb 0e e7 a0 bd
       0.17610091 -0.08151927 -0.0056942413 -0.0785657
000210 2f 7b c2 3c 33 88 90 3d 6b b3 dc bd c9 e5 b0 3d
       0.02374038 0.07057228 -0.10776409 0.08637578
000220 ee dc a0 bb f7 f2 23 bd ab bb f9 bc 94 db 12 bd
       -0.0049091494 -0.04002663 -0.030484995 -0.035853937
000230 d4 18 49 bd 30 9f 8c 3d 31 e1 46 3d 96 45 47 bc
       -0.049095944 0.068663 0.048554603 -0.012162587
000240 57 ea a6 bd 43 03 15 bd 8f ea 6d bc 04 94 77 3d
       -0.081501655 -0.036380064 -0.014521255 0.060443893
000250 e1 4a a8 3d f4 e5 0d 3d a1 81 a2 3c a5 fd 3f 3b
       0.08217407 0.03464313 0.019837203 0.002929547
000260 a1 39 28 3d a0 91 f5 3d fe 2a 3a bd d3 4e 9e 3d
       0.041070584 0.119906664 -0.045451157 0.07729878
000270 f1 d1 ae bb e1 35 2b bc 71 b1 70 3d 10 99 d2 3d
       -0.0053350856 -0.010449857 0.05876297 0.102831006
000280 3f c6 c1 bc cb 28 13 3d a9 8e 9b bd 4d 60 04 bc
       -0.023654101 0.035927575 -0.0759557 -0.0080796005
000290 21 4b 23 3d 5c 53 c7 3d 96 59 6b bd 7f c0 85 3c
       0.03986657 0.097326964 -0.057458483 0.01632714
0002a0 72 95 97 3d d3 7f 26 3d 73 ae ab bd 4e db 21 3c
       0.07401551 0.040649246 -0.08382883 0.0098789465
0002b0 2f a9 38 3d ff a9 8d 39 04 19 1b 3c ca 2b ce 3c
       0.04508322 0.00027020273 0.009466413 0.025167365
0002c0 eb 2d 12 3d 7c 57 0e 3c b6 94 8e 3d 7b b5 6d 3d
       0.035688322 0.00868785 0.06961958 0.0580344
0002d0 c3 c0 61 bb 72 05 17 bd 53 d0 5d 3c ef 66 73 3d
       -0.003444717 -0.036870427 0.013538438 0.059424337
0002e0 21 9d 89 3c 91 35 b6 bd 9c 43 23 bc d3 69 dc 3d
       0.016798558 -0.08896936 -0.00996485 0.10762372
0002f0 65 b8 0f bc 15 8a ab bc 38 68 8c bc 96 44 65 bd
       -0.00877199 -0.020939866 -0.01713954 -0.05597361
000300 26 51 59 bd 34 5f 78 bc 37 d5 1a bd fc 66 01 bd
       -0.053055905 -0.015159417 -0.037800994 -0.031592354
000310 e8 26 34 3d 50 8f a2 bc 34 85 af 3c 73 e2 3f bd
       0.043982416 -0.019843727 0.02142582 -0.04684682
000320 9d 0f ae bd 24 a4 07 3d 71 11 22 3d 30 83 ac 3b
       -0.08499072 0.03311552 0.039567415 0.005264662
000330 45 3f a4 bd 45 b4 9d bc eb 88 53 bc a5 f4 c8 3d
       -0.0801988 -0.019250998 -0.012911062 0.09812287
000340 37 79 07 3d 63 85 18 bd b6 5f 81 3c e9 e0 f2 3d
       0.033074584 -0.037236582 0.015792709 0.118593045
000350 87 f1 c0 3d 6d 9a cc 3d 44 3c 8e bd 2d 14 a1 bd
       0.09421068 0.09990392 -0.069450885 -0.07865176
000360 8b e2 72 bc 47 23 3b bc 87 69 02 3d 9e ef 10 bd
       -0.01482452 -0.011421985 0.03183892 -0.035384767
000370 ea b9 2c 3c c1 8c 3d 3c ee 67 02 3e 94 b2 a4 bc
       0.010542372 0.011569203 0.12734959 -0.020104684
000380 6a f6 be 3c 2d 71 bc 3d db 92 25 3e ad 43 c8 bd
       0.023310859 0.09201274 0.16169302 -0.09778533
000390 5d b0 d3 bd 44 d6 6c 3d 70 7b 2d 3c 1c 2d a6 bc
       -0.10336373 0.057821527 0.010588512 -0.020285182
0003a0 38 43 45 bd 72 b5 d8 bb 59 61 92 3b 70 16 3b 3c
       -0.048159808 -0.006613427 0.004467171 0.011418924
0003b0 4e 26 82 bd 74 a8 7b bd 60 bc f2 3c d6 fb 24 bd
       -0.06354962 -0.061439946 0.02963084 -0.040279232
0003c0 26 ec 0f 3d 5f a3 1f bd 66 bc 5c bd 58 5c 87 bd
       0.035137318 -0.038974162 -0.05389061 -0.0660941
0003d0 f4 81 c7 3d 10 b6 29 3d da 62 fe 3d 80 95 84 bd
       0.097415835 0.041433394 0.12421198 -0.06473827
0003e0 52 a2 cd bd d4 b4 8d 3c fa 69 bc bc 37 fa 84 3d
       -0.10040726 0.01729814 -0.022999752 0.06493037
0003f0 e4 32 fa 3c 8f 06 1d 3c 9c 36 00 bd 58 8c c3 bb
       0.030541845 0.009584083 -0.03130208 -0.005967658

fc3.bias f4 [256]
000000 21 ff 73 3d ed 14 04 3d b1 50 f6 3c ea 5a 82 3c
       0.05956948 0.03224652 0.030067774 0.015912492
000010 93 77 18 3c ef 89 9e bd 5b 9e 53 3d 7c a2 78 3b
       0.009305852 -0.077411525 0.05166469 0.0037938645
000020 a1 24 9d bc cb 8b 52 3d 41 32 68 3b f8 6a 69 3d
       -0.019182505 0.05140285 0.0035430344 0.05698678
000030 8c ec c5 3c 56 e0 b0 bc c4 41 72 bc ce b5 0f 3d
       0.024160646 -0.021591347 -0.014786188 0.03508549
000040 46 bc 87 bd 57 67 71 3d 1a 58 03 3c 35 78 06 3d
       -0.06627707 0.058936443 0.0080166105 0.032829482
000050 b7 07 31 3d 39 74 2c 3d 99 97 ab 3c 69 91 a0 bb
       0.043220248 0.042103026 0.02094631 -0.0049001467
000060 ad ac e6 3c 56 a7 86 3c 94 fc 2b 3d 19 ff 27 3d
       0.02815851 0.016437214 0.041988924 0.041014764
000070 ec 61 eb bb 75 01 03 bd ca cb 54 bc 77 38 99 3c
       -0.007183304 -0.03198381 -0.01298804 0.018703682
000080 e3 10 30 bc d5 62 88 bd 5d c3 42 bd 04 79 85 bd
       -0.010746214 -0.06659476 -0.047549594 -0.065172225
000090 16 01 bc 3c a7 5a 8a 3d 7d 8a 9d 3c da 52 bd 3c
       0.022949737 0.06755572 0.019231075 0.023110796
0000a0 8d 30 dd bc 56 03 a6 3c a4 e9 35 3d 7a 94 4e bd
       -0.02700069 0.020265263 0.04441227 -0.050434567
0000b0 08 42 2c 3d e2 52 0e bd 85 ac 17 3d e8 6c 8a 3d
       0.04205516 -0.034747012 0.03702976 0.067590535
0000c0 01 d3 f3 bb d4 66 68 3d 2a 3d a3 3c 9f 71 1a bd
       -0.007440925 0.05673869 0.019926626 -0.037706014
0000d0 d4 c7 ad 3c 43 92 75 3d 90 19 32 3d 9d c3 19 bd
       0.02121345 0.05995394 0.04348141 -0.037540067
0000e0 52 d7 85 3d cc 6c 21 3d b9 24 7d 3d 84 63 b7 bb
       0.0653521 0.039410397 0.0618026 -0.00559658
0000f0 74 2f 8e bd 4c 2a 14 3b 58 54 5c bc f7 47 11 3d
       -0.06942645 0.0022608219 -0.0134478435 0.03546902
000100 bd 36 67 3d 4c a9 a8 3d b5 48 66 bd 32 0b 93 bd
       0.056448687 0.08235416 -0.056221683 -0.0717987
000110 63 49 44 bd d4 5c 84 bd 2a 42 ca bb 31 ad f0 3b
       -0.04792155 -0.06463018 -0.006172438 0.007344865
000120 60 18 ad bd 40 72 01 bc c2 01 3d 3d b8 c3 96 3b
       -0.08451915 -0.0079007745 0.046144255 0.004600968
000130 ba 2b cc bb 05 87 e8 bb c5 49 1f bd e7 f3 91 3d
       -0.0062307985 -0.0070961737 -0.03888871 0.07126599
000140 02 b9 4b bd fe f8 b5 3c ad 35 f9 bb 95 df a9 bd
       -0.049736984 0.022213455 -0.0076052756 -0.08294598
000150 93 87 a4 3d ff a2 ac bc 9f 39 85 bd 0f 17 61 bd
       0.08033671 -0.021073816 -0.06505131 -0.05495363
000160 87 78 97 3d 95 8b 43 3d 80 a8 a1 3c 48 2b b4 bc
       0.07396036 0.047740538 0.019733667 -0.021993294
000170 7a e9 43 bd 01 01 47 bd c4 a7 bc bc 82 db 8f 3c
       -0.047830082 -0.04858494 -0.023029216 0.017560724
000180 0d 60 a5 bd 1b b7 81 3c 84 31 c0 3c f1 7c bc 3c
       -0.08074961 0.015834382 0.02346111 0.023008795
000190 1f c1 b2 3d c7 17 7c 3d 78 83 f1 3a 49 3e 03 bd
       0.08728241 0.061546113 0.0018426022 -0.03204182
0001a0 65 92 ae bc 40 f3 56 bd dc 2c c5 3b 1e c3 3f 3c
       -0.02131004 -0.052478075 0.0060173105 0.011704234
0001b0 34 7d 04 3d e5 4b 31 3d a6 64 90 bc ee 99 6d 3c
       0.032345966 0.04328527 -0.017626118 0.014502032
0001c0 66 da 3f bd 05 ab aa 3c 06 38 46 bd 49 a2 ac bd
       -0.04683914 0.020833502 -0.048393272 -0.08429391
0001d0 62 4a 93 3d a5 8c a0 3d dc e2 30 bd 01 8e 5d 3d
       0.07191922 0.07839326 -0.0431851 0.054090504
0001e0 82 3f b1 bd db 52 02 bb 89 53 75 3c e5 2b 5f 3c
       -0.08654691 -0.0019885811 0.01497353 0.013621305
0001f0 d4 09 94 3d 44 b7 f4 3c 13 0e 1b bd ba e1 a2 3c
       0.07228437 0.029872544 -0.03785522 0.019883025
000200 0f 83 23 bd cf 47 78 3d 47 cf 03 3d 6b 1e 5b 3d
       -0.03991991 0.060615357 0.032180097 0.053495806
000210 1d d5 0a bd 37 f7 5a 3d df ca 34 3d b4 28 d4 3c
       -0.033894647 0.05345842 0.044138785 0.025898315
000220 b4 ef 4e 3d 33 21 6d bc b6 b8 45 3d f7 85 1d 3d
       0.050521567 -0.014473247 0.048271857 0.038457837
000230 fa 64 7d bd b1 36 74 3d 51 07 7a 3d ee ed e4 3b
       -0.061863877 0.05962247 0.061042134 0.0069863712
000240 fc 68 d0 3c db b4 d8 b9 c3 77 67 3d f5 b7 6b 3d
       0.025440685 -0.00041333478 0.056510698 0.057548482
000250 14 62 32 bd 9a c8 aa 3d d2 e6 21 bd b0 57 25 3d
       -0.043550566 0.08339043 -0.039526768 0.04036683
000260 12 74 8b bc b2 a0 93 3d a5 71 59 bd 0a 5e 9b 3d
       -0.01702312 0.072083846 -0.053086895 0.07586296
000270 aa 1c 28 3d 0e 2a 87 3d e9 d1 d4 bc 6d 17 3d 3d
       0.04104296 0.06599818 -0.025979 0.04616492
000280 4b a4 74 3d a0 81 33 bc 46 b1 09 bc 90 e4 29 bb
       0.059726994 -0.010956198 -0.008404082 -0.0025923587
000290 07 07 dc bc c9 b1 a9 bc 9f a4 bc bb bb 7f 90 3d
       -0.02685882 -0.020714657 -0.005756929 0.07055613
0002a0 5b bc 29 bd 0c e4 4f 3d eb fd ae bc 1b 5c 95 bd
       -0.041439395 0.05075459 -0.021361312 -0.07292958
0002b0 b9 ff 2c bd bc 3f 00 3b 67 38 32 bd 67 a7 91 bd
       -0.042236064 0.0019569239 -0.04351082 -0.071120076
0002c0 f7 d9 40 3d 7e 15 7c 3d 05 2a 55 3c e6 76 07 3c
       0.047082867 0.061543934 0.0130105065 0.008268094
0002d0 11 44 92 3d c9 1e f7 3c 1a 94 35 3b a1 6b 7c bc
       0.07141889 0.030166047 0.0027706684 -0.01540652
0002e0 c1 26 4f 3d ed cd 32 bd 24 fe 92 bc c6 c5 2c 3d
       0.050574068 -0.043653417 -0.01794345 0.0421808
0002f0 dc fa 9a bc 5c 8c a8 bc b2 e7 8a bc 42 bf 10 bd
       -0.018918447 -0.020574741 -0.016956184 -0.035338648
000300 98 96 86 3d 89 28 f6 bc 35 51 16 3d 38 cc 85 bd
       0.06571692 -0.030048626 0.03669854 -0.06533092
000310 53 ae 2f bb c5 02 31 bd a4 ee 78 bc 46 d9 8c bc
       -0.0026806786 -0.04321553 -0.015193615 -0.017193448
000320 30 d9 52 3d c3 d0 31 3d 58 8c 84 bc 8b 5f 06 bd
       0.051476657 0.04341198 -0.016180202 -0.03280596
000330 f6 9b c2 bc 6f fc 90 3d 9a 5d 0b bd b2 b0 3c 3d
       -0.023756009 0.07079398 -0.034024812 0.046066947
000340 b3 e8 3e 3d 1c b0 f6 b9 3b 18 e4 3c 80 70 57 3d
       0.046608638 -0.00047051988 0.027843585 0.052597523
000350 b2 85 fc 3d 57 b2 1c bc 83 7e ad 3c 91 53 88 3d
       0.12330188 -0.009564004 0.02117849 0.06656564
000360 1c 2f 1a 3d 36 45 a8 bc ca b7 93 3d 87 f8 0f 3d
       0.037642583 -0.020540815 0.07212789 0.035149124
000370 1f cb 8c 3d bd 09 3f bc cb 63 20 bd 61 7d 2d 3d
       0.0687468 -0.011660037 -0.03915767 0.0423559
000380 2b b6 08 bd 30 2e 17 3d d3 6e a1 3d 4c 4d f9 3c
       -0.033376854 0.036909282 0.07882466 0.030432366
000390 95 64 97 bc 95 62 36 3c e6 13 d6 3c e6 e3 e6 bc
       -0.018480578 0.011131902 0.026132535 -0.028184842
0003a0 b7 99 24 3c 50 df 9a 3d b2 a1 05 3d 7d 2c 87 bd
       0.010046414 0.07562125 0.032624908 -0.06600282
0003b0 2c bf 1b 3b a7 c3 01 bc 87 6a 06 bc 09 ca 60 3d
       0.002376507 -0.007920182 -0.008204109 0.054880176
0003c0 6b 44 77 bd 26 90 41 bd c2 6c 67 bd 6e fd 6f 3d
       -0.060367983 -0.04725661 -0.056500204 0.0585913
0003d0 40 32 b4 bc b4 df 32 3d e5 e7 a4 3d fd 53 a9 3d
       -0.021996617 0.04367037 0.08052043 0.082679726
0003e0 fc cd de 39 09 9e e8 bb a1 3e 28 bd 8d 72 94 3c
       0.0004249661 -0.0070989174 -0.041075353 0.018121028
0003f0 4d 8b 34 bc 83 66 9a 3c 4b af 27 bd dc e7 33 3d
       -0.01101954 0.01884771 -0.040938657 0.04392229

fc4.weight f4 [4, 256]
000000 a6 4b f5 bd f7 b6 f2 3d ee 02 ca 3c 7a f0 8d 3d
       -0.119773194 0.11851304 0.0246596 0.06930633
000010 67 5c 1d bb 7d 6a 46 3c ea 47 38 bd 86 40 14 3b
       -0.0024011375 0.01211035 -0.044990458 0.0022621467
000020 ca fb 9a 3d 80 31 4c 3d 90 f0 59 bd 80 13 f0 3d
       0.07567556 0.049851894 -0.053207934 0.11722469
000030 b1 42 08 bc 61 99 cd 3d c5 bd ab bd 07 d2 77 3d
       -0.008316682 0.1003902 -0.08385805 0.060503032
000040 11 93 df 3d 34 a7 5f 3d 2e 37 b5 3d 27 11 70 3d
       0.109167226 0.054602817 0.08848415 0.058610108
000050 a7 e9 8a bd 92 69 1c 3c 4c 35 dd 3c 65 e6 c3 bd
       -0.06782847 0.009546654 0.027002953 -0.09565429
000060 13 80 8c bd 14 e8 8a bd b1 94 19 3c a8 8a a1 bd
       -0.06860366 -0.06782547 0.00937383 -0.07887775
000070 d7 b1 a3 3d df 3d a4 bc 7e 9a a2 bd 34 62 5b bc
       0.07992905 -0.020049034 -0.07939623 -0.013390113
000080 82 02 44 be d0 dd b1 3c e3 17 1a 3d fa fc 63 bd
       -0.19141582 0.021712214 0.037620436 -0.05566118
000090 4d f2 69 3d 59 fc a9 3d d5 84 0f be 66 86 fa bd
       0.05711584 0.083000846 -0.14015515 -0.12232666
0000a0 17 56 2c 3d 41 5a de bc e3 bf 16 3d dd 01 ca 3d
       0.04207429 -0.027142646 0.03680409 0.09863637
0000b0 0e 67 52 bd 6a 6e 69 bd 35 ec 3d bd a7 4f 2f 3d
       -0.05136781 -0.056990065 -0.046367843 0.04280057
0000c0 4f 36 79 3d fe e4 11 bd 97 bb 83 3c 20 88 28 3d
       0.06084281 -0.035618775 0.01608066 0.041145444
0000d0 3f 54 8e 3d 01 5c f2 3c 56 f3 c2 bc b5 ed bf bc
       0.069496624 0.029584887 -0.023797672 -0.023428777
0000e0 52 39 c4 bc a1 a2 20 3c 8c 84 19 3d 3b f3 c3 3c
       -0.023953114 0.009804399 0.037479922 0.023919692
0000f0 46 28 f0 3d 60 0d b6 bc 47 9b 68 3d fa 38 1a 3d
       0.117264315 -0.022223175 0.05678871 0.037651993
000100 83 fd e3 bd 53 c5 89 bb a3 89 52 3c ff 03 0a bc
       -0.11132338 -0.004204431 0.012850198 -0.008423804
000110 70 17 6e bd 3b 6a 8a 3d fb 44 af bc dc 9c 7e bd
       -0.05812782 0.06758543 -0.021395197 -0.06216131
000120 fa 79 92 3c ef cf af 3b 5e 11 f8 3b f9 20 47 bc
       0.017880429 0.005365364 0.0075704297 -0.012153857
000130 ea 61 48 3b 11 2d c1 3d 1c a2 39 bd e3 50 c8 bd
       0.003057594 0.09432424 -0.045320615 -0.09781053
000140 35 eb 0d bd ca 7b e8 bd ca ad 04 bd fc e8 2c 3d
       -0.03464814 -0.11351736 -0.0323923 0.04221438
000150 40 29 5f 3d 4a c8 71 3d f2 fd 5a bc f1 1b 17 bd
       0.0544827 0.0590289 -0.013366209 -0.03689188
000160 aa ad 12 be c5 97 1c 3d 65 a5 ab 3c bd cc 24 bd
       -0.1432406 0.038230676 0.02095289 -0.040234316
000170 f4 51 0c be fd 72 8f 3d 1e fb a0 bc 50 a3 a0 3d
       -0.13703138 0.07004354 -0.019650992 0.078436494
000180 cb 44 0e bd 10 09 18 3d 1c af c8 bc d9 c7 29 3c
       -0.034733575 0.037118018 -0.024497561 0.010362589
000190 57 28 9d 3d d5 cf dd bc 59 d8 48 bd 37 6e a1 bd
       0.0767371 -0.027076641 -0.04903445 -0.0788235
0001a0 78 72 ce 3d af 91 f7 bc aa 64 8a bd f3 77 9b 3d
       0.10080427 -0.030220835 -0.067574814 0.07591238
0001b0 f7 66 89 bc a9 cd 0d 3e ae 54 37 3d 4e e4 5d 3d
       -0.01677273 0.13847984 0.04475849 0.054172806
0001c0 09 80 0f 3d fa 05 f4 3d 10 c2 84 bd 6c 18 2a 39
       0.035034213 0.119152024 -0.06482327 0.00016221561
0001d0 6a 62 f8 3c 4e 39 a3 3d 42 2e d8 3d 6d 22 09 be
       0.030320365 0.079699144 0.10555698 -0.13392039
0001e0 57 b6 3d 3c 95 17 fa 3c 32 74 79 bb c8 8c 2d bd
       0.011579118 0.030528823 -0.0038063643 -0.042370588
0001f0 93 af bd 3d 7d 76 4a bc 0a eb 0f bd 56 07 1c bd
       0.09262004 -0.012357351 -0.03513626 -0.038092934
000200 d7 96 24 3d ee f3 06 3d 5d af d6 bd 9d 16 9f 3d
       0.040182915 0.032947473 -0.10482667 0.07767985
000210 b8 26 7d bd a3 9f 53 3d 11 37 d3 bb 80 e3 3c 3d
       -0.061804503 0.051665913 -0.0064457734 0.0461154
000220 72 3b 4c 3d fe 07 3e bd a1 06 8a 3b a8 16 2e bd
       0.04986138 -0.04639434 0.004212216 -0.042502075
000230 11 3b 99 bc 5f 52 0b be 7e 95 a4 3d df 87 21 bc
       -0.018704923 -0.13605641 0.08036326 -0.009859054
000240 87 74 a0 3d 33 fd d7 3d 6e 41 bf bd 01 61 6b bd
       0.07834726 0.10546341 -0.093386516 -0.057465557
000250 22 e7 2c 3d 2f 27 2c be 72 a0 99 3d 62 96 23 3d
       0.042212613 -0.16811822 0.07501306 0.039938338
000260 5d 82 bd bd cb 4a 82 3d 8e da b5 3d 53 9f 90 bd
       -0.092533804 0.06361922 0.088795766 -0.07061639
000270 f1 c2 3e bc 19 c5 ba bd 61 3b 24 3d 6c 80 b8 3d
       -0.011643157 -0.09119625 0.04009569 0.090088695
000280 a1 dc 24 3d 70 ea 12 3d 8a 87 11 3e 0f e6 b5 3c
       0.04024947 0.03586811 0.1421186 0.022204427
000290 11 93 e9 3b 5a e6 a9 3d 12 69 e1 3d 3e 28 88 bc
       0.0071281274 0.08295889 0.11006369 -0.016620751
0002a0 1d 10 8d 3c 34 30 8e bc a8 c5 92 bd 17 53 9a 3c
       0.017219597 -0.01735697 -0.07166606 0.018838448
0002b0 65 bc 05 3e 56 32 16 bd 5b 16 b8 bc 3f 10 8e 3b
       0.13060148 -0.036669098 -0.022471597 0.004335433
0002c0 01 b6 f3 bd 0f df c8 3d d2 c3 c9 bc 69 05 94 3d
       -0.11899949 0.0980817 -0.024629507 0.072275944
0002d0 a3 fd 50 bd f2 22 24 bd 9b e6 3f 3c f5 74 19 bd
       -0.051023137 -0.04007239 0.0117126955 -0.037465055
0002e0 b6 d2 5a bd da f3 8e bd d3 d6 9a 3b 54 cd a6 b8
       -0.053423606 -0.06980105 0.004725316 -7.953742e-05
0002f0 d6 f8 ae bc 0d 52 d4 bd 87 c7 14 3e 60 1d 54 bc
       -0.021358889 -0.103672124 0.14529239 -0.012946457
000300 ea c9 f5 3d cf 97 4a 3d d9 94 e5 3d 3e 38 7e bd
       0.12001403 0.049461182 0.11210031 -0.062065355
000310 fb 1e 9d bb e4 32 d8 3d b1 7a 00 be a5 af 93 3d
       -0.004794953 0.105565816 -0.12546803 0.07211236
000320 00 1b 01 be c0 34 b6 bd 88 a9 e2 3d ac 44 cc bc
       -0.12607956 -0.0889678 0.11067492 -0.024935089
000330 50 a8 5d bd 04 1a b8 3c 6c e3 8d bc ad 8c f1 bc
       -0.054115593 0.022473343 -0.017320357 -0.029486025
000340 80 b1 92 3d 1f b6 e6 bd 42 08 db bc 6a 08 b7 bc
       0.07162762 -0.112652056 -0.026737336 -0.02234288
000350 c2 cc ab 3d 99 9b 2f bd 79 ab be bd 8f d8 b6 3d
       0.08388664 -0.042873 -0.093100496 0.08928024
000360 02 d3 03 3e f6 73 9e bd fd db fd 3d c4 cd af 3d
       0.12873462 -0.077369615 0.12395475 0.085841686
000370 2f e5 39 3c e9 9e 40 bb 76 00 58 3c 01 79 fd bc
       0.0113461455 -0.0029391593 0.013183704 -0.030941488
000380 b0 30 2b 3d 95 21 e1 3d 04 8c 89 bd a7 8f b8 bc
       0.04179448 0.109927334 -0.06716159 -0.022529436
000390 bd b9 f4 3d 0f 51 e9 bd 7d 16 7c 3d cd fa 34 3b
       0.11949489 -0.11392414 0.061544884 0.002761531
0003a0 36 da 49 bc 80 7b 42 bd 23 c3 9c bd f2 a4 0e 3e
       -0.012320092 -0.04748106 -0.07654407 0.13930109
0003b0 f6 c2 10 bd af dc b3 3d c2 ba 70 3d fe 78 c5 bd
       -0.03534218 0.087823264 0.058771856 -0.09642218
0003c0 d4 de 6e bd da 91 21 3d f7 ca 2e 3d 72 53 7a 3d
       -0.058317974 0.039445736 0.04267403 0.061114736
0003d0 fb 30 88 3d 3b a0 a8 bd 9e a0 b9 bd 3a 80 90 3c
       0.06649967 -0.082336865 -0.090638384 0.017639268
0003e0 8b 52 b9 bd 39 96 94 3d e8 d8 ed 3d 2a 92 2d 3c
       -0.09048947 0.07255215 0.11613637 0.01059393
0003f0 73 db 3d 3d 44 77 88 bd 0c e8 21 3d 18 d6 bf bc
       0.04635186 -0.06663373 0.039527938 -0.023417518

fc4.bias f4 [4]
000000 e6 f4 77 3d 40 12 bc 3a 36 e6 00 bd e4 ed ff 3b
       0.060536288 0.0014348701 -0.031469546 0.007810341
