Navigation/SQN_checkpoint.pth (torch_old, 205826 bytes, 8 tensors)

fc1.weight f4 [256, 37]
0	0x3e2de47f	0.16981696
1	0xbdf1f078	-0.11813444
2	0xbe2935d9	-0.16524448
3	0xbe19b22a	-0.1500937
4	0xbf21259a	-0.62948
5	0xbe0adb75	-0.13560279
6	0x3e228584	0.15871245
7	0x3ddfdd1f	0.109308474
8	0xbe11f468	-0.1425339
9	0xbbccc162	-0.006248639
10	0xbe1ef390	-0.15522599
11	0xbd7ffaec	-0.062495157
12	0xbdd8dc56	-0.10588901
13	0xbcba1aea	-0.022717912
14	0x3e2c59b9	0.16831101
15	0xbd814cdf	-0.0631349
16	0xbcafa748	-0.02144207
17	0xbc3edd4d	-0.011649442
18	0xbd31d318	-0.043414205
19	0x3dac62ca	0.0841728
20	0x3d8773b9	0.06613869
21	0x3d23a90d	0.03995614
22	0x3ccf0610	0.025271446
23	0xbd002fde	-0.03129565
24	0xbda79f80	-0.08184719
25	0x3da0ee2f	0.0785793
26	0xbda41d35	-0.08013383
27	0xbc93debb	-0.018050542
28	0x3d64d5a5	0.05586781
29	0x3d8cad2c	0.068689674
30	0x3de39cfe	0.11113928
31	0x3c9462ba	0.018113483
32	0x3d00324b	0.031297963
33	0x3d010890	0.031502306
34	0xbe67d5c7	-0.22640143
35	0xbc681c1e	-0.01416686
36	0x39972f81	0.00028836358
37	0x3d3c7b94	0.04601629
38	0x3e384425	0.17994745
39	0xbd8ba707	-0.06818967
40	0x3e2bcca4	0.16777283
41	0xbe1eeb71	-0.15519501
42	0x3d011ca0	0.03152144
43	0xbb059fc7	-0.0020389424
44	0x3db262e3	0.087102674
45	0x3d830e5a	0.06399222
46	0xbe0f5509	-0.13997282
47	0x3dfd834c	0.123785585
48	0xbd989a79	-0.07451338
49	0xbc025594	-0.007954974
50	0xbc5ded51	-0.01354535
51	0x3e3973db	0.18110602
52	0xbd28c123	-0.041199815
53	0x3d04d7de	0.03243243
54	0xbe2e5343	-0.1702395
55	0x3cfa73e6	0.030572843
56	0xbe1b2514	-0.15150863
57	0x3e0eab26	0.13932475
58	0x3c9741db	0.01846402
59	0xbcdda554	-0.027056374
60	0xbdc7ee6f	-0.097622745
61	0x3e517f6d	0.20458765
62	0xbd0e0ff7	-0.034683194
63	0xbc5e0d82	-0.013553025
64	0x3d1966a1	0.03745139
65	0x3e894a62	0.26814562
66	0x3e8914fe	0.26773828
67	0xbe0d8d57	-0.13823448
68	0x3d49c5e1	0.049260978
69	0x3cafa2e0	0.02143997
70	0x3c42c727	0.011888302
71	0x3e899e56	0.26878613
72	0x3cd64857	0.026157541
73	0x3d80a392	0.062811986
74	0x3ddbfcb4	0.10741559
75	0x3df70cd5	0.120629944
76	0x3d9554e5	0.07291583
77	0x3e1f6884	0.15567213
78	0xbe56c8b2	-0.20974997
79	0xbda50a2e	-0.08058582
80	0x3d757366	0.059924506
81	0xbcae0df6	-0.021246891
82	0xbd0315dd	-0.032003272
83	0xbf18c21f	-0.59671205
84	0x3da086a6	0.07838182
85	0xbd837271	-0.06418312
86	0x3e1a50bf	0.15069865
87	0xbd139e28	-0.0360395
88	0x3dbe734a	0.092993334
89	0xbdbaebf9	-0.091270395
90	0xbdd25281	-0.102696426
91	0x3e12aeb4	0.14324456
92	0xbd4b8af7	-0.049693074
93	0xbe69ebfe	-0.2284393
94	0xbd3a0854	-0.0454181
95	0x3e38c76a	0.1804482
96	0xbe2c0ab4	-0.16800958
97	0x3d67eeaf	0.05662411
98	0xbde1cd8f	-0.11025535
99	0xbdb69370	-0.0891484
100	0xbdd7cb78	-0.105368555
101	0x3e3df6c6	0.18551168
102	0xbe0a3121	-0.13495304
103	0x3da32dc6	0.07967715
104	0xbde0e387	-0.109808974
105	0xbdf8b2cb	-0.12143477
106	0x3e28e92f	0.16495202
107	0xbe01e018	-0.12683141
108	0xbdb09aed	-0.086233
109	0xbe76757a	-0.24068251
110	0x3dbc3b6c	0.09191021
111	0xbe4d6c33	-0.20060806
112	0x3deeca6d	0.116597034
113	0x3d87d6f3	0.06632795
114	0xbd131649	-0.035909925
115	0xbda3879f	-0.07984852
116	0xbac3f0cf	-0.0014949086
117	0xbda6a6e8	-0.081373036
118	0xbd5b022a	-0.05346886
119	0x3d6e587b	0.05818985
120	0xbe1851fc	-0.14875025
121	0xbe1b571c	-0.15169948
122	0xbc720b50	-0.014773205
123	0x3d4c368b	0.049856704
124	0x3e339182	0.17535976
125	0x3c9cfbe4	0.01916308
126	0xbd86c31c	-0.06580183
127	0xbdec2198	-0.11529845
128	0x3c4b11de	0.012394397
129	0x3e265f8c	0.16247386
130	0xbd3f1306	-0.046649
131	0xbe4c8317	-0.19971882
132	0x3cd07eb8	0.02545105
133	0xbb07d089	-0.0020723662
134	0xbae9df46	-0.001784303
135	0x3e245108	0.16046536
136	0x3e3ef843	0.18649392
137	0xbdd14cd2	-0.102197304
138	0x3de858fc	0.113450974
139	0x3e4fb7d8	0.20284975
140	0x3e333b2d	0.17503043
141	0xbdedd2a4	-0.11612442
142	0x3dae7f96	0.08520429
143	0x3c96ede1	0.018423976
144	0x3dae9fd8	0.085265815
145	0x3ca56d3c	0.020193689
146	0x3ddf1362	0.10892369
147	0x3cf64521	0.03006226
148	0x3e3febc7	0.18742286
149	0x3d7d2e9e	0.061812036
150	0xbd6b4e6a	-0.05744783
151	0xbda522dd	-0.0806329
152	0xbe48b1bf	-0.19599055
153	0xbe15caab	-0.14628093
154	0xbc87996d	-0.016552651
155	0x3e48d7fc	0.19613642
156	0xbdee6440	-0.11640215
157	0x3d093f69	0.03350774
158	0xbc8d532f	-0.01725158
159	0x3e51d5a4	0.20491654
160	0xbd0f8327	-0.035037186
161	0x3c346780	0.011011004
162	0x3e188314	0.14893752
163	0x3d7b4d3d	0.061352957
164	0x3d7d082d	0.061775375
165	0xbe0fc3f5	-0.14039595
166	0xbd12706a	-0.035751738
167	0xbe0be4c8	-0.13661492
168	0x3e3d88d8	0.18509233
169	0x3c24f319	0.010067725
170	0xbda21621	-0.07914377
171	0xbe840e69	-0.25792244
172	0xbe64354e	-0.22285959
173	0x3e5133f7	0.2042998
174	0xbd8668cd	-0.06562958
175	0x3ce49d9e	0.027907189
176	0xba972a66	-0.0011533021
177	0x3e323fea	0.17407194
178	0xbd6708d3	-0.0564049
179	0x3c86327e	0.016381498
180	0x3d2e64cd	0.0425766
181	0xbdab1708	-0.08354002
182	0x3e44ff77	0.19238077
183	0x3ce78bad	0.028264845
184	0x3a93c84f	0.0011274907
185	0x3d5e6f01	0.05430508
186	0x3dc60e62	0.09670712
187	0xbe275851	-0.16342284
188	0x3e190318	0.14942586
189	0xbcca6c98	-0.024709985
190	0x3d3cb10e	0.04606729
191	0x3da18897	0.078873806
192	0xbe208f8f	-0.15679763
193	0xbd423563	-0.047414195
194	0x3d89441c	0.06702444
195	0x3d0af41a	0.0339242
196	0x3d9ca954	0.07649484
197	0xbe664b89	-0.22489752
198	0xbac6d939	-0.0015170939
199	0x3e24ead6	0.16105208
200	0xbd8ec3db	-0.0697095
201	0xbdd3c402	-0.1034012
202	0x3e575526	0.21028575
203	0xbcf3343f	-0.029687999
204	0xbc6d0157	-0.0144656515
205	0x3d58b1b4	0.052903846
206	0xbe425d82	-0.18980983
207	0x3db6b164	0.08920553
208	0x3d4f7512	0.050648756
209	0xbe0c64a6	-0.1371027
210	0x3d6459c5	0.055749673
211	0x3d9595a3	0.073039316
212	0xbe42afb7	-0.19012342
213	0xbe6fd24a	-0.23420063
214	0xbdd27ed2	-0.10278095
215	0xbd6ee025	-0.05831923
216	0xbe744a8c	-0.23856562
217	0x3d908406	0.070564315
218	0x3cf6c57c	0.030123465
219	0x3cf07237	0.029351337
220	0x3d5515b7	0.052022662
221	0xbdaff7e2	-0.08592202
222	0xbdcc7077	-0.099823885
223	0x3e378498	0.17921674
224	0xbda55a1d	-0.08073828
225	0x3c07ddbd	0.008292613
226	0xbe2e8dbf	-0.1704626
227	0x3db7ff9f	0.08984303
228	0x3cbf5295	0.023354808
229	0xbeca1fa3	-0.39477262
230	0x3d166d36	0.036725245
231	0xbeb22cde	-0.34799856
232	0xbd188eda	-0.03724561
233	0x3e200bc9	0.15629496
234	0x3de1c51e	0.11023925
235	0x3e016970	0.12637877
236	0xbd4b52ff	-0.049639698
237	0x3e1da1df	0.1539378
238	0x3d291166	0.041276358
239	0xbb7f4718	-0.0038952287
240	0x3d735cec	0.05941479
241	0xbd1d892a	-0.038460888
242	0xbe0466ed	-0.12929888
243	0x3d2ae864	0.04172553
244	0x3c2204f9	0.009888881
245	0x3da67602	0.08127977
246	0x3e2ed3a3	0.1707292
247	0x3d60fabf	0.05492663
248	0xbcf82042	-0.03028882
249	0xbe2ac231	-0.1667564
250	0xbd2cc004	-0.042175308
251	0x3e742031	0.23840405
252	0x3d694477	0.05695006
253	0xbc9a13ed	-0.01880833
254	0xbcad0904	-0.021122463
255	0xbdb940b5	-0.09045545

fc1.bias f4 [256]
0	0x3e3bd8c3	0.18344407
1	0xbdc7b7fd	-0.0975189
2	0xbe053a13	-0.13010435
3	0xbc322992	-0.010874169
4	0xba98b751	-0.0011651312
5	0x3e196f89	0.14983954
6	0xbe0698a1	-0.13144161
7	0x3d025f25	0.03182902
8	0xbcbaa07d	-0.022781605
9	0xbd8440ff	-0.064577095
10	0xbe0b5998	-0.13608396
11	0xbda18f1e	-0.078886256
12	0x3d69fd70	0.057126462
13	0x3d838535	0.064218916
14	0x3dd3e316	0.103460476
15	0xbc4ac007	-0.012374884
16	0x3dfbd4cb	0.122964464
17	0x3e106993	0.14102773
18	0x3e161c77	0.14659296
19	0x3e0153c7	0.12629615
20	0x3cd16a2c	0.025563322
21	0x3dc39ca9	0.09551365
22	0x3e04f4a3	0.12983947
23	0x3d41376a	0.047171988
24	0xbe091137	-0.13385473
25	0xbdde4612	-0.108532086
26	0xbdd59547	-0.10428863
27	0x3df03098	0.117280185
28	0xbd5d022f	-0.05395716
29	0x3d19b251	0.03752357
30	0x3e0fa736	0.1402863
31	0x3d4e6d1b	0.05039702
32	0x3aa94061	0.0012912863
33	0xbd753fe0	-0.05987537
34	0x3dfe05f3	0.124034785
35	0x3e1c3ba0	0.1525712
36	0x3c3d2cc3	0.011546317
37	0xbd2721bf	-0.040803667
38	0xbd86188c	-0.06547651
39	0x3d7de838	0.06198904
40	0x3dc034b3	0.093850516
41	0x3e1cbab8	0.15305603
42	0x3cf186e6	0.02948327
43	0x3da33017	0.07968157
44	0x3bbb5343	0.0057167127
45	0xbd01fb08	-0.031733543
46	0x3d969d94	0.073542744
47	0x3e08c5f0	0.13356757
48	0x3deec7ea	0.11659224
49	0xbdd51051	-0.10403503
50	0xbe17c6af	-0.14821886
51	0x3d4fcb38	0.050730914
52	0x3d41a212	0.047273703
53	0xbc250199	-0.010071182
54	0x3dfdad77	0.123866014
55	0xbe3854bd	-0.18001075
56	0x3e072e5b	0.13201277
57	0x3df8f079	0.121552415
58	0xbd915ac2	-0.07097389
59	0xbd02bfc3	-0.03192116
60	0xbe0a1e5d	-0.13488145
61	0x3b621bc0	0.0034501404
62	0xbd8bd0e8	-0.06826955
63	0xbd52c3bf	-0.05145621
64	0xbc47f080	-0.012203336
65	0xbddaf873	-0.10691919
66	0x3d49d163	0.049271952
67	0x3de27975	0.11058322
68	0x3c74f4c6	0.014950937
69	0xbcec0b79	-0.028814064
70	0x3dfef006	0.124481246
71	0x3cedcf90	0.029029638
72	0xbe345899	-0.17611922
73	0x3e0de724	0.13857704
74	0x3c8f0ef1	0.01746318
75	0x3d970467	0.073738866
76	0xbd212151	-0.039338414
77	0xbcfe42fa	-0.031037796
78	0x3e417227	0.18891202
79	0xbe1ac25e	-0.15113208
80	0x3c369af9	0.011145347
81	0x3e026b82	0.12736323
82	0xbe088f61	-0.13335945
83	0xbd508f8b	-0.050918143
84	0x3c6d8191	0.014496223
85	0x3e23f5bc	0.16011709
86	0xbb3fbdfe	-0.0029257531
87	0xbce335e2	-0.027735654
88	0x3cc02b56	0.023458164
89	0x3c5dda5c	0.01354083
90	0x3cf44d61	0.029822053
91	0xbd137437	-0.035999503
92	0x3e1c5cb2	0.15269735
93	0xbd21aa79	-0.039469216
94	0xbd5fb24a	-0.05461339
95	0x3d1714af	0.03688496
96	0xbe4e2de2	-0.2013469
97	0x3c8dc769	0.017307
98	0xbde37361	-0.11105991
99	0x3c6e4b6b	0.014544348
100	0xbd45da54	-0.048303917
101	0x3df5c347	0.12000137
102	0x3e02d4ad	0.12776442
103	0x3d58e5f3	0.05295367
104	0xbe18cecd	-0.14922638
105	0x3d2a4f90	0.041579783
106	0x3daa7dca	0.083247736
107	0x3d31636a	0.0433077
108	0x3daf67a5	0.085646905
109	0x3e071a0f	0.13193534
110	0x3d7550df	0.059891578
111	0xbdf012ba	-0.11722322
112	0xbe199602	-0.1499863
113	0x3e01cdff	0.12676238
114	0xbd39e4b5	-0.045384128
115	0x3c8cec69	0.017202573
116	0x3e0e1118	0.13873708
117	0x3e281f98	0.16418302
118	0x3dd09089	0.10183818
119	0x3e347ed2	0.17626503
120	0xbd687835	-0.056755263
121	0x3e1ea410	0.15492272
122	0x3e0dd023	0.13848929
123	0xbe0841b9	-0.13306321
124	0xbb1ac7f3	-0.0023617714
125	0xbd8dafe9	-0.06918318
126	0x3dc274d3	0.09494939
127	0xbbe36d5f	-0.0069405283
128	0x3dd785d1	0.1052357
129	0x3e17078b	0.14748971
130	0x3cfb5e1d	0.030684525
131	0xbde48839	-0.11158795
132	0x3e187334	0.14887697
133	0xbde827f4	-0.113357455
134	0xbdc38ebf	-0.09548711
135	0x3dda7262	0.10666348
136	0xbdd62a62	-0.10457303
137	0xbc5cd80d	-0.013479245
138	0xbdfcaeb1	-0.12338007
139	0xbdb324dc	-0.08747265
140	0xbdfa909f	-0.122346155
141	0xbe44346e	-0.19160625
142	0xbe10acb2	-0.14128378
143	0xbcf6c544	-0.03012336
144	0xbdc567ce	-0.0963894
145	0xbb61fc9a	-0.0034482838
146	0x3db865ee	0.090038165
147	0xbce41420	-0.027841628
148	0xbac53957	-0.0015046996
149	0xbe269eb4	-0.16271478
150	0x3e1c4e66	0.15264282
151	0x3dc93d29	0.098261185
152	0xbd3c23e2	-0.045932658
153	0x3c83a9a5	0.016072104
154	0xbd9b70b2	-0.07589854
155	0x3d7a9a62	0.061182387
156	0xbe0a87bd	-0.13528343
157	0xbdc2f6ba	-0.095197156
158	0x3d411a86	0.047144435
159	0x3e146b99	0.1449417
160	0x3d3ec9f1	0.046579305
161	0xbde814a4	-0.11332062
162	0x3d8347b7	0.06410163
163	0x3df879ba	0.121325925
164	0x3d602d66	0.054730795
165	0xbca2a3e3	-0.019853538
166	0x3dd62ee1	0.1045816
167	0x3da0077c	0.078139275
168	0xbc9f57a6	-0.019450974
169	0xbd207f96	-0.039184175
170	0x3d2f5be3	0.04281224
171	0x3ddd206e	0.10797201
172	0xbddabac5	-0.10680155
173	0x3e331474	0.17488271
174	0xbc14dda5	-0.009086047
175	0xbe2cd27b	-0.16877167
176	0x3dd88530	0.105722785
177	0xbd504c02	-0.050853737
178	0xbd85cd4a	-0.065332964
179	0xbe20bc73	-0.15696888
180	0xbcf4c8d7	-0.029880924
181	0xbc973f8f	-0.018462924
182	0x3da322df	0.079656355
183	0x3dc018cb	0.09379729
184	0x3d544f6f	0.051833566
185	0x3ce4e9c4	0.0279435
186	0xbe04d3a1	-0.12971355
187	0x3dc2bb54	0.09508386
188	0xbd430aa0	-0.047617555
189	0xbd6e3234	-0.058153346
190	0xbdbdd929	-0.09269936
191	0x3aa7d5b2	0.0012804775
192	0xbdef30f6	-0.116792604
193	0xbd8bbff5	-0.06823722
194	0xbcb044ad	-0.021517122
195	0x3dcff415	0.10153977
196	0xbdd1e607	-0.10248952
197	0xbdbb0b45	-0.09133009
198	0x3d21970f	0.0394507
199	0xbddf7a01	-0.10911942
200	0xbdd15764	-0.102217466
201	0x3d2c375d	0.042044986
202	0x3e030596	0.127951
203	0xbd8d57c5	-0.06901506
204	0x3d702241	0.058626417
205	0xbdcc1287	-0.09964471
206	0x3cfbb1fe	0.030724522
207	0xbc80a5e6	-0.015704107
208	0x3c00c44f	0.007859304
209	0x3e2d87db	0.16946356
210	0x3e17087b	0.14749329
211	0xbe17d1c3	-0.14826111
212	0x3d824687	0.06361108
213	0x3d3c6f02	0.046004303
214	0xbbd4d690	-0.0064953044
215	0x3daca17e	0.0842924
216	0xbd3474e4	-0.044056788
217	0xbd8213d6	-0.0635144
218	0xbd552677	-0.052038636
219	0xbdf4a358	-0.11945218
220	0x3d73e18c	0.05954127
221	0xbd2292cb	-0.039690774
222	0x3cc48f71	0.02399418
223	0xbe11abee	-0.14225742
224	0x3c02c489	0.007981428
225	0x3e060d6e	0.1309106
226	0xbcd848e2	-0.02640194
227	0x3e1041a4	0.1408754
228	0x3e0eaffc	0.1393432
229	0xbd5752e5	-0.05256929
230	0xbdba2f71	-0.0909108
231	0xbcabfa0d	-0.020993257
232	0xbddd91d2	-0.10818829
233	0x3e3680f6	0.17822632
234	0xbd8c289c	-0.06843683
235	0x3cfece4c	0.03110423
236	0x3e27cf5e	0.16387698
237	0x3e2c711c	0.16840023
238	0x3e115458	0.14192331
239	0xbcdb5c3c	-0.02677738
240	0x3e14fdd2	0.1454995
241	0x3de86188	0.113467276
242	0x3c7fbb32	0.015608596
243	0xbd172701	-0.03690243
244	0xbe036819	-0.12832679
245	0x3df72dbf	0.12069272
246	0xbdcb8ba2	-0.09938742
247	0xbdff17b1	-0.12455691
248	0xbd8400d0	-0.064454675
249	0xbe34adaa	-0.17644373
250	0x3e124dbb	0.14287464
251	0xbde2d252	-0.11075272
252	0xbe19c8e4	-0.1501804
253	0x3e3d9de5	0.18517263
254	0xbd42e839	-0.047584746
255	0xbde5e3eb	-0.112251125

fc2.weight f4 [128, 256]
0	0x3e02a86a	0.12759557
1	0xbb6500ef	-0.0034943183
2	0xbc76bf27	-0.015060223
3	0x3cdb0389	0.026735084
4	0x3bdc86c6	0.0067299334
5	0xbc759831	-0.014989899
6	0xbd95ab42	-0.073080555
7	0x3d352f13	0.044234347
8	0xbd42d815	-0.047569353
9	0xbc9471c5	-0.018120656
10	0x3d8a6938	0.0675835
11	0x3cfe1a9d	0.03101855
12	0xbd418a41	-0.04725099
13	0xbd669c87	-0.05630162
14	0xbe00f121	-0.12591983
15	0x3ce82933	0.028339958
16	0x3b928adb	0.0044721193
17	0xbd44f664	-0.04808654
18	0xbd8e9188	-0.06961352
19	0x3cf7dbeb	0.030256232
20	0xbbf6f403	-0.0075364127
21	0x3bcb39b8	0.006201949
22	0x3d3e6c4f	0.04649001
23	0x3dba0c23	0.09084346
24	0xbd4c3577	-0.049855676
25	0xbe1ca71f	-0.15298127
26	0x3ddd352c	0.10801157
27	0xbddfa8b1	-0.10920847
28	0xbc80f148	-0.015740052
29	0xbd3e7cf0	-0.04650587
30	0x3d6829a5	0.05668034
31	0xbdac6c8c	-0.08419141
32	0xbda2d8fe	-0.07951544
33	0xbd4015ed	-0.04689591
34	0xbd9d3a36	-0.076771185
35	0x3d0fadc0	0.03507781
36	0xbc43ac1f	-0.011942892
37	0x3abe77d6	0.0014531564
38	0x3dd6aa3c	0.104816884
39	0xbcd6d4ed	-0.026224578
40	0x3e17fda8	0.14842856
41	0xbcf284d9	-0.029604362
42	0x3db32a49	0.087483
43	0xbb1f3979	-0.002429573
44	0xbd022463	-0.031772982
45	0xbd2c6fc7	-0.042098787
46	0xbbdafdcb	-0.0066830865
47	0x3d0e3b4f	0.03472453
48	0xbbd1f631	-0.006407522
49	0xbdac23df	-0.08405279
50	0xbd45fcd6	-0.048336826
51	0x3de0b6d7	0.10972374
52	0x3dce5ab1	0.10075892
53	0x3daa2b35	0.08309022
54	0x3d6337f5	0.055473287
55	0xbd7be51a	-0.061497785
56	0x3daee815	0.0854036
57	0xbd868ab2	-0.06569423
58	0xbd46eec6	-0.048567556
59	0x3d733627	0.059377816
60	0xbbed42ea	-0.007240643
61	0xbd7f02c5	-0.0622585
62	0xbbccc1e5	-0.0062487
63	0x3da8f117	0.08249109
64	0x3bd24eaf	0.006418071
65	0x3b978da1	0.004625038
66	0xbd6ef55e	-0.05833947
67	0xbd3bde3d	-0.04586624
68	0xbe033928	-0.12814772
69	0xbd6405c2	-0.055669554
70	0xbe88c7ac	-0.26714838
71	0xbd9f9ada	-0.077932075
72	0xbdbf52a2	-0.09341933
73	0x3d07bea2	0.033140786
74	0x3bd556a7	0.006510574
75	0x3d3bf496	0.045887552
76	0xbdcefa21	-0.10106302
77	0xbdb1c77c	-0.08680627
78	0xbe0de931	-0.13858487
79	0xbe4b7e9d	-0.19872518
80	0xbb8e5d89	-0.0043446464
81	0x3d49fa7c	0.049311146
82	0x3d3e105c	0.04640232
83	0xbd18280a	-0.03714756
84	0x3d10fbc9	0.03539637
85	0xbbd9beba	-0.006645051
86	0x3e1d8bcd	0.15385361
87	0xbd5b973d	-0.05361103
88	0xbdb3a6ad	-0.08772025
89	0xbd36746c	-0.044544622
90	0xbcd2077c	-0.025638334
91	0xbd217013	-0.039413523
92	0x3c8fc9f7	0.017552359
93	0x3994ee1b	0.00028406162
94	0xbdb67dba	-0.08910699
95	0xbd9c6400	-0.07636261
96	0xbda7cc50	-0.081932664
97	0x3d48a823	0.048988473
98	0x3d353aa2	0.04424537
99	0xbc74a5fa	-0.01493215
100	0xbd15924f	-0.036516484
101	0x3d53f0fa	0.051743485
102	0x3c60208d	0.013679636
103	0xbca4739f	-0.020074664
104	0x3c477457	0.012173734
105	0xbb45436e	-0.0030100006
106	0x3d1f9fa9	0.038970623
107	0xbd9ceb58	-0.07662076
108	0x3d30d380	0.043170452
109	0x3c2d5056	0.010578236
110	0xbcfecd43	-0.031103736
111	0x3a2e897a	0.0006658059
112	0xbdc1b48d	-0.094582655
113	0xbd368e89	-0.044569526
114	0xbc489b9b	-0.0122441305
115	0x3d0657f1	0.03279871
116	0x3dce7fa9	0.10082943
117	0x3cc3b39e	0.02388936
118	0x3b1949ca	0.002338993
119	0x3d77e823	0.060524117
120	0x3d86b273	0.06577005
121	0xbcf7be90	-0.030242234
122	0xbd4d3d56	-0.050107323
123	0x3c60c129	0.013717928
124	0xbd1bf1fd	-0.038072575
125	0xbc22c507	-0.00993467
126	0xbcd2615a	-0.025681186
127	0xbda2d9dd	-0.079517104
128	0xbd92329f	-0.071385615
129	0xbac94036	-0.0015354219
130	0xbbac3b6e	-0.005256108
131	0xbaab731c	-0.001308057
132	0x3d5db9da	0.05413232
133	0xbdc6633b	-0.096868955
134	0x3c59b20b	0.013287078
135	0xbd71673f	-0.058936354
136	0xbd277853	-0.040886234
137	0x3dc26366	0.09491615
138	0xbcfa743b	-0.030573001
139	0xbd161e55	-0.03665002
140	0xbce24c98	-0.027624413
141	0xbc5bf647	-0.013425416
142	0xbc9cd239	-0.01914321
143	0x3cb6cd3a	0.022314657
144	0x3bfe99ba	0.0077697905
145	0x3c9052cd	0.017617607
146	0xbcb79a70	-0.022412509
147	0xbd03d598	-0.03218612
148	0x3d65332d	0.05595701
149	0xbd63e4e5	-0.055638213
150	0x3da40b60	0.08009982
151	0x3bdc9e09	0.0067327064
152	0xbcc6ee05	-0.024283418
153	0x3cfd5e8e	0.030928876
154	0xbc815a3b	-0.015790096
155	0xbc8dd6d2	-0.017314348
156	0xbde609d2	-0.11232342
157	0xbd8f251b	-0.06989499
158	0xbd89bb10	-0.067251325
159	0xbdaa4728	-0.08314353
160	0xbd68a7ce	-0.056800656
161	0xbc95884e	-0.018253472
162	0x3b6eda67	0.0036446096
163	0x3d5918dc	0.053002223
164	0xbd3a51b4	-0.045488074
165	0x3cee37ed	0.029079402
166	0xbdb6286c	-0.088944286
167	0xbdae0d7a	-0.08498664
168	0xbcb7e62e	-0.022448625
169	0xbdf48efa	-0.11941333
170	0x3db32d7a	0.08748908
171	0xbd58b987	-0.052911308
172	0xbce62629	-0.028094368
173	0x3cc600b3	0.024170255
174	0xbbb69789	-0.0055722636
175	0x3d4f5a6e	0.05062335
176	0xbe09ca11	-0.13455988
177	0xbd0309db	-0.03199182
178	0x3d904e72	0.07046212
179	0xbccfe786	-0.025378954
180	0x3c96fc9f	0.018431006
181	0x3df4e873	0.11958399
182	0x3ce34ed5	0.027747551
183	0xbc40e351	-0.011772946
184	0xbd0371d2	-0.03209097
185	0x3dc9bc40	0.09850359
186	0xbd7ee3b1	-0.062228862
187	0x3d9c70ad	0.07638679
188	0x3cea4b3a	0.028600324
189	0x3c509e03	0.012732985
190	0x3d9ffcba	0.07811876
191	0x3d795f54	0.060881928
192	0xbdaaf7db	-0.08348056
193	0xbde9435c	-0.11389801
194	0x3d53e3e0	0.05173099
195	0xbdc0f1bc	-0.09421107
196	0x3d889823	0.06669643
197	0xbd5c595c	-0.053796157
198	0xbddead26	-0.10872869
199	0x3cbb22af	0.022843687
200	0xbddb4e56	-0.10708301
201	0xbdc49def	-0.09600436
202	0x3d635d43	0.055508863
203	0x3d302f93	0.04301412
204	0xbcb47b2f	-0.022031395
205	0x3d4a8057	0.0494388
206	0xbbc8a8a6	-0.00612362
207	0x3c2c3976	0.010511747
208	0xbcc746bc	-0.024325721
209	0x3c458886	0.0120564755
210	0x3e032ddf	0.12810467
211	0x3dd10a18	0.10207003
212	0xbd6e1b48	-0.058131486
213	0xbd356ddd	-0.044294227
214	0xbc708022	-0.014678987
215	0xba5c5407	-0.0008404855
216	0x3d63d363	0.055621516
217	0x3cf8b694	0.030360498
218	0xbc871e14	-0.016493835
219	0x3cabe1f5	0.020981768
220	0xbd62e384	-0.055392757
221	0xbd10c203	-0.035341274
222	0xbc48a060	-0.012245268
223	0xbc3ce483	-0.011529091
224	0xbd9ce7ba	-0.07661386
225	0x3d874e01	0.06606675
226	0xbc402a55	-0.011728843
227	0xbd7f1404	-0.062274948
228	0xbcb8a3e5	-0.022539089
229	0x3bda43f9	0.006660935
230	0x3d0171f1	0.031602804
231	0x3ccb5ff8	0.024826035
232	0x3cab5ebe	0.0209192
233	0x3c28f801	0.010313035
234	0x3d98a897	0.07454031
235	0xbe77a577	-0.24184214
236	0xbd3e70c2	-0.046494253
237	0x3cda10dd	0.02661937
238	0xbd46b022	-0.048507817
239	0x3c1c3876	0.009534946
240	0x3d03f64a	0.0322173
241	0xbd290d8c	-0.041272685
242	0xbcca401a	-0.02468877
243	0xbcbf6814	-0.023365058
244	0xbdb66bbe	-0.08907269
245	0x3db548b2	0.08851756
246	0xbe09e603	-0.13466649
247	0xbc22bd14	-0.009932775
248	0x3d495773	0.049155664
249	0xbdcdce9b	-0.100491725
250	0xbd93fd36	-0.072260305
251	0xbd28df9a	-0.041228868
252	0x3decaa4d	0.1155592
253	0xbc558fcb	-0.013034771
254	0x3d570f8a	0.052505054
255	0xbd46e85c	-0.04856144

fc2.bias f4 [128]
0	0xbbaa27e5	-0.005192744
1	0x3d836afa	0.064168885
2	0x3d4dce39	0.050245497
3	0x3ca8e703	0.020617967
4	0xbd4ba20a	-0.04971508
5	0x3dc21b24	0.09477833
6	0xbcf6617c	-0.030075781
7	0x3ccbdbaa	0.024885017
8	0x3ce67e89	0.028136509
9	0x3d8009da	0.06251879
10	0xbd5e0976	-0.05420824
11	0xbcbcde4d	-0.02305522
12	0x3d494d83	0.049146187
13	0x3d1f5072	0.038895078
14	0x3d286303	0.04111005
15	0xbd19c5ad	-0.037542034
16	0x3da29b9a	0.07939835
17	0xbd812f9b	-0.06307908
18	0x3d2d4bf8	0.042308778
19	0x3d01a339	0.031649802
20	0x3dee1d01	0.11626626
21	0xbc88fe72	-0.016722891
22	0xbcabd522	-0.020975653
23	0xbd4b36c8	-0.04961279
24	0xbd80138e	-0.0625373
25	0xbc749126	-0.014927184
26	0xbd5705bc	-0.052495703
27	0x3d82f4a1	0.063943155
28	0xbb9afe43	-0.0047300174
29	0x3cdac4b7	0.02670513
30	0xbcffd69e	-0.031230267
31	0x3cb02c83	0.0215056
32	0xbc941765	-0.018077562
33	0xba28f802	-0.00064456475
34	0xbd731bd1	-0.0593527
35	0x3d052652	0.03250725
36	0x3a2638f7	0.0006340886
37	0x3d726d9b	0.05918656
38	0xbc63d7a4	-0.013906393
39	0x3d65863e	0.056036226
40	0xbca4e086	-0.020126592
41	0x3d3eaf26	0.046553753
42	0xbd4a3b5a	-0.04937301
43	0x3e097c6d	0.13426371
44	0xbb0ba4a1	-0.0021307843
45	0x3cd246eb	0.025668582
46	0xbd32f4e0	-0.043690562
47	0xbd46db9d	-0.048549283
48	0x3dd1f144	0.10251096
49	0x3d447bad	0.04796951
50	0x3d760be1	0.060069922
51	0x3dfff03e	0.124969944
52	0xbb3068ec	-0.0026918007
53	0xbbdcc513	-0.0067373603
54	0xbba6dd0c	-0.005092269
55	0x3d2998b9	0.041405413
56	0xbd34a8cd	-0.044106293
57	0xbc65e8c1	-0.014032544
58	0x3da7e51c	0.08197996
59	0x3d3b104e	0.045669846
60	0x3c07416d	0.008255345
61	0xbd1ab9c3	-0.037774812
62	0xbcda6d5b	-0.026663473
63	0xbc52e8b0	-0.01287286
64	0x3d6e5b01	0.058192257
65	0xbd4fe35f	-0.050753947
66	0xbdb30a57	-0.087422065
67	0xbca5f4fe	-0.020258423
68	0xbc366f45	-0.011134927
69	0xbd440ef4	-0.047865823
70	0x3c9790e8	0.018501714
71	0xbc2663b0	-0.010155603
72	0xbc8db065	-0.017296026
73	0x3cf0d7ba	0.029399741
74	0x3d7898e2	0.060692675
75	0xbd4f6f9d	-0.050643552
76	0x3d26bd22	0.040707715
77	0x3d18e2d7	0.037325706
78	0xbd593d40	-0.05303693
79	0x3d979ceb	0.074029766
80	0x3d7a0a20	0.061044812
81	0x3e192683	0.14956097
82	0x3d65e46c	0.056126043
83	0x3daf2b63	0.08553197
84	0x3d191cd1	0.037380997
85	0x3d58084c	0.052742288
86	0x3d42ce87	0.04756024
87	0x3d377bfe	0.044795983
88	0xbc2daf6a	-0.010600904
89	0x3da67681	0.081280716
90	0xbb74df37	-0.0037364492
91	0x3c4d7251	0.012539462
92	0x3c770c25	0.015078579
93	0x3cd87c3e	0.02642643
94	0x3cbc10cb	0.022957226
95	0x3d4b9edf	0.04971206
96	0x3ca9c9c2	0.020726088
97	0xbd3153d8	-0.04329285
98	0xbc3628ce	-0.011118127
99	0xbd4d76dd	-0.050162185
100	0x3d81b966	0.0633419
101	0x3caf135c	0.021371536
102	0xbd6a1d14	-0.057156637
103	0x3c40fad8	0.011778556
104	0x3c9b73a8	0.018976048
105	0xbcee50cf	-0.029091267
106	0x3d46f4a6	0.04857316
107	0xbce071ca	-0.027398009
108	0x3d93cb2e	0.07216488
109	0x3c1a5d24	0.0094216205
110	0xbd2f2df5	-0.042768437
111	0x3d5806c0	0.052740812
112	0x3d02fa0a	0.031976737
113	0x3dd398eb	0.10331901
114	0x3cc63df0	0.024199456
115	0x3c52963f	0.012853204
116	0xbcb2331b	-0.021752885
117	0x3c91d1fe	0.017800327
118	0x3c12d3c9	0.008961626
119	0xbcc0d3d7	-0.023538513
120	0x3d3fed55	0.046857197
121	0xbcfd0d9f	-0.030890284
122	0x3c92f3b8	0.01793848
123	0x3d22dd21	0.039761666
124	0x3d70e5f1	0.05881304
125	0xbd045bf6	-0.032314263
126	0x3d89beed	0.06725869
127	0x3de66194	0.1124908

fc3.weight f4 [64, 128]
0	0x3de927d4	0.1138455
1	0x3de7cba8	0.11318141
2	0xbcd0a40c	-0.025468849
3	0xbe3c0ab4	-0.18363458
4	0x3ddddd84	0.108332664
5	0x3d1963b7	0.03744861
6	0xbdad87ee	-0.08473192
7	0xbd40ac2b	-0.047039192
8	0x3d8fbfbc	0.07018992
9	0x3d5f9e3c	0.054594263
10	0xbd02f7e0	-0.031974673
11	0xbd8d95bb	-0.069133244
12	0xbc9cb89a	-0.019130994
13	0xbda2fe43	-0.07958653
14	0x3d193f7d	0.037414063
15	0xbc30a4fd	-0.010781524
16	0x3cee698f	0.029103069
17	0xbe0fe811	-0.1405337
18	0x3bad3a8e	0.0052865213
19	0xbdb54b68	-0.08852273
20	0x3c29a462	0.010354133
21	0x3cd98006	0.026550304
22	0x3d387f58	0.04504332
23	0x3e00a3ef	0.12562536
24	0xbd1455f5	-0.036214788
25	0xbbf642d3	-0.0075152903
26	0xbd27c1b9	-0.040956233
27	0x3dc9ad3b	0.09847494
28	0xbd8c237a	-0.06842704
29	0x3de2e70a	0.110792235
30	0x3c8bdf02	0.017074112
31	0xbdefa182	-0.11700727
32	0xbd01d06c	-0.031692907
33	0xbc952c84	-0.018209703
34	0xbde1ed07	-0.110315375
35	0xbc6f6586	-0.014611607
36	0x3d3bf979	0.045892213
37	0xbd22265e	-0.03958737
38	0xbdb25ea3	-0.08709457
39	0xbd699666	-0.057028197
40	0xbda22048	-0.079163134
41	0x3e474a8d	0.19462033
42	0xbd085a74	-0.033289388
43	0xbdbc6d87	-0.09200578
44	0xbe535dbc	-0.20641226
45	0xbdb9a1b8	-0.090640485
46	0xbd82137f	-0.06351375
47	0xbd852656	-0.065014526
48	0x3d849bda	0.06475039
49	0xba518b91	-0.00079935143
50	0x3da0ed80	0.078577995
51	0x3d6698ff	0.056298252
52	0xbe00dc57	-0.12584053
53	0x3d809150	0.06277716
54	0xbdf0fd1e	-0.11767028
55	0xbd4630f5	-0.048386533
56	0x3d7ac0ad	0.061218906
57	0x3db4d91a	0.08830471
58	0xbd9b750f	-0.075906865
59	0xbd3a67d5	-0.04550918
60	0x3d473ebe	0.04864382
61	0xbcabf2b4	-0.020989753
62	0x3e73860c	0.23781604
63	0xbdaa489e	-0.08314632
64	0xbd4a41ed	-0.049379278
65	0xbd0df74f	-0.03465968
66	0x39dff60b	0.0004271719
67	0xbdd91478	-0.10599607
68	0xbcf37b49	-0.029721873
69	0x3db762c8	0.08954388
70	0xbe06f3fe	-0.13179013
71	0xbdcf5f97	-0.10125654
72	0x3daea2c6	0.0852714
73	0x3dc14a34	0.09437981
74	0xbdf1a8a1	-0.117997415
75	0x3dad20a1	0.08453489
76	0xbcde70f5	-0.027153471
77	0x3cd1080d	0.025516534
78	0x3e1b89a0	0.15189219
79	0xbd911aff	-0.07085227
80	0x3e15cfda	0.1463007
81	0x3bb715e9	0.0055873287
82	0x3d01f812	0.03173072
83	0xbd998263	-0.074955724
84	0x3d429fd9	0.047515724
85	0xbd90e7b4	-0.07075444
86	0xbd44e4a1	-0.0480696
87	0xbd90e755	-0.07075373
88	0x3d87152d	0.06595836
89	0x3d9308be	0.07179402
90	0xbd1fac30	-0.03898257
91	0x3e0d30a8	0.13788092
92	0x3dd1a8af	0.10237252
93	0x3d60a76f	0.054847177
94	0xbd2f83ba	-0.042850234
95	0x3db0e06f	0.08636557
96	0x3e433ec9	0.1906692
97	0xbc93777b	-0.018001309
98	0xbe5ab503	-0.21358113
99	0x3daaab30	0.08333433
100	0x3c18d70a	0.009328613
101	0xbd95cbac	-0.07314238
102	0x3d52f369	0.051501665
103	0x3d370f89	0.04469255
104	0x3e1aad72	0.15105227
105	0x3dfdfc14	0.12401596
106	0xbc5eafcc	-0.013591718
107	0xbe22dace	-0.1590378
108	0xbc84df9c	-0.016219907
109	0xbcef84b6	-0.029238086
110	0xbd9d6099	-0.0768444
111	0xbd92491f	-0.07142853
112	0x3db08336	0.086187765
113	0x3baa8d37	0.0052048224
114	0x3dd49f28	0.10381919
115	0x3e41ca9f	0.1892495
116	0xbdfffc9a	-0.12499352
117	0x3db69014	0.089141995
118	0x3cf7a022	0.030227724
119	0x3d449081	0.047989372
120	0x3d891971	0.06694306
121	0x3d8c08d0	0.06837618
122	0x3dc3e359	0.095648475
123	0xbce7777f	-0.028255222
124	0xbe396d6d	-0.18108149
125	0xbdf3a852	-0.11897339
126	0xbddbe4a3	-0.10736968
127	0x3ce7c117	0.028290315
128	0xbb334ae5	-0.0027357873
129	0xbc29c8b8	-0.0103627965
130	0xbcaffdd9	-0.021483349
131	0x3d6f1e49	0.05837849
132	0x3dbdad5f	0.092615835
133	0x3dec4c47	0.11537986
134	0x3c9f111f	0.019417344
135	0xbca5fc15	-0.020261804
136	0xbd815dcd	-0.06316719
137	0xba2f1c08	-0.0006679897
138	0xbc8fd908	-0.017559543
139	0x3d32d0bd	0.0436561
140	0xbdbf66ff	-0.09345817
141	0xbd9d8d7e	-0.07693003
142	0x3ebbd424	0.36685288
143	0x3e290b3e	0.16508195
144	0x3d433a37	0.04766294
145	0x3cb0e521	0.021593632
146	0x3c19e9ca	0.009394119
147	0xbe2f6872	-0.17129686
148	0x3d942458	0.072334945
149	0x3da1bf6c	0.07897839
150	0x3d9dac4c	0.07698879
151	0xbc928088	-0.017883554
152	0xbcff14ab	-0.031137785
153	0x3d56b06c	0.052414343
154	0x3d0ba480	0.034092426
155	0x3c8c8692	0.017154012
156	0x3d785a93	0.060633253
157	0xbd14649e	-0.03622877
158	0xbbd5b084	-0.0065212864
159	0x3d99f077	0.07516568
160	0xbc900b6a	-0.017583568
161	0x3c9cce0e	0.019141223
162	0x3d8ad707	0.067792945
163	0xbe4fd06c	-0.2029435
164	0x3d8aebd3	0.06783261
165	0xbad5c729	-0.0016309965
166	0x3db1598f	0.0865966
167	0xbe46b85b	-0.19406264
168	0xbe260d68	-0.16216052
169	0x3d429998	0.04750976
170	0xbd8948ae	-0.06703316
171	0x3c0d5913	0.008627194
172	0x3d97223d	0.07379577
173	0xbdca6bdf	-0.09883856
174	0x3b33553e	0.002736404
175	0xbdd9855f	-0.10621142
176	0xbd9f3c82	-0.07775213
177	0x3c32d3d2	0.01091476
178	0x3d448af2	0.04798407
179	0x3b6df4dd	0.003630928
180	0x3c1bcd64	0.009509418
181	0x3d067176	0.03282305
182	0x3de514ee	0.11185633
183	0xbd93cb71	-0.07216538
184	0x3e14fd5a	0.14549771
185	0x3dd9df11	0.1063825
186	0x3d2a18dd	0.041527618
187	0x3e2dc801	0.16970827
188	0x3c8e0df6	0.017340641
189	0xbca45b65	-0.020063112
190	0x3ddc604e	0.10760556
191	0x3d95ae70	0.07308662
192	0x3db30166	0.08740501
193	0x3ea401ee	0.32032722
194	0x3d75e362	0.060031302
195	0xbdd5b626	-0.10435133
196	0xbdf29ea8	-0.118466675
197	0x3cc0388b	0.023464462
198	0x3e5ff226	0.21869716
199	0xbc60070b	-0.013673554
200	0x3daf3f70	0.085570216
201	0xbbcc1ca9	-0.0062290025
202	0xbc8d7cc5	-0.017271409
203	0x3e4d0537	0.2002152
204	0xba28ff0e	-0.00064466975
205	0xbd9456fb	-0.07243153
206	0xbd29117c	-0.04127644
207	0x3e323bb2	0.17405584
208	0xbd1e70c5	-0.038681764
209	0x3d007df0	0.031370103
210	0xbe551162	-0.20807412
211	0xbd7caac1	-0.06168628
212	0x3d27fe2b	0.041013878
213	0x3e0b6f99	0.1361679
214	0xbd0b892f	-0.034066375
215	0xbe0d8445	-0.13819988
216	0xbc9be32e	-0.019029226
217	0xbc9236a6	-0.017848324
218	0x3d83d9b4	0.06438008
219	0x3e2e7c8b	0.17039697
220	0x3d181cc9	0.037136827
221	0x3d982054	0.07428041
222	0xbe172b23	-0.14762549
223	0xbdb8a72b	-0.0901626
224	0xbd947de9	-0.07250578
225	0x3e0e17ba	0.13876238
226	0xbcf810c7	-0.030281438
227	0xbde75ed5	-0.11297385
228	0x3cd8970a	0.026439209
229	0x3e3eb0ff	0.18622206
230	0x3d30b194	0.0431381
231	0xbdaac101	-0.08337594
232	0x3e0cef12	0.13763073
233	0xbdb786d4	-0.08961263
234	0x3d5dbd4c	0.054135606
235	0xbd8611c9	-0.06546361
236	0xbc8c3d1c	-0.017118983
237	0xbd9a44b8	-0.07532638
238	0xbdcbfb50	-0.099600434
239	0x3dee738a	0.11643131
240	0x3dc4a35e	0.09601472
241	0xbd5284ce	-0.051396184
242	0x3d809410	0.06278241
243	0x3dafaee6	0.08578281
244	0xbe094092	-0.13403538
245	0x3db66c07	0.08907323
246	0xbdf77df4	-0.120845705
247	0x3db25a62	0.087086454
248	0x3d535cf1	0.051602308
249	0xbdf4ccbe	-0.11953114
250	0x3d894c49	0.06704003
251	0x3df3b68e	0.11900054
252	0x3d4b2a3d	0.04960083
253	0x3cf4d72c	0.029887758
254	0xbd9e4842	-0.07728626
255	0x3d12ad43	0.035809767

fc3.bias f4 [64]
0	0x3dd1ab90	0.10237801
1	0xbdb9e5ab	-0.09077009
2	0x3d89a1f1	0.06720341
3	0x3d97a1c6	0.07403903
4	0xbd1c1cf3	-0.038113546
5	0x3c6ad704	0.01433349
6	0x3dd77fef	0.10522448
7	0xbce2d778	-0.027690634
8	0xbc34ae4f	-0.0110278865
9	0xbdd176e7	-0.10227757
10	0xbdb1b3c6	-0.08676867
11	0x3c6d09d9	0.01446768
12	0xbd6cfb5e	-0.05785691
13	0x3c9c9d97	0.019118113
14	0x3cff0616	0.031130832
15	0xbd84fcd9	-0.06493539
16	0xbd74140b	-0.059589427
17	0x3d4a1e62	0.04934538
18	0x3d924ba8	0.071433365
19	0x3c61fca8	0.013793148
20	0x3df957a8	0.12174922
21	0x3d8a5248	0.06753975
22	0x3d313934	0.043267444
23	0x3ce66ca4	0.028127976
24	0x3c13fc8b	0.009032379
25	0x3d531681	0.051535133
26	0xbd221ab5	-0.03957625
27	0xbd9d893f	-0.07692193
28	0xbcad99e5	-0.021191547
29	0x3e568923	0.20950751
30	0xbc9d5429	-0.01920517
31	0xbdcd9245	-0.10037664
32	0x3d953d19	0.07287044
33	0x3e1c93ee	0.15290806
34	0x3d34411b	0.044007402
35	0x3dfb2237	0.12262385
36	0x3e1e8391	0.15479876
37	0x3bd0d86f	0.006373457
38	0x3cbd2ebc	0.023093574
39	0x3e3fc743	0.18728356
40	0xbd98eff8	-0.074676454
41	0xbd3e1d7e	-0.046414845
42	0xbcc26875	-0.02373145
43	0x3e1cbcec	0.15306443
44	0x3e0930a4	0.13397461
45	0x3df42f38	0.11923069
46	0x3dda0455	0.106453575
47	0xbbee1c85	-0.0072665834
48	0x3e1892b6	0.14899716
49	0xbd69236b	-0.056918543
50	0xbc159196	-0.009128949
51	0xbb895087	-0.004190508
52	0x3d9f1c5c	0.07769081
53	0x3a94ed56	0.0011362236
54	0x3d787c47	0.060665395
55	0x3e2ff101	0.1718178
56	0xbdabb7e4	-0.08384684
57	0xbd2423a8	-0.040073067
58	0x3e4822bf	0.19544505
59	0xbcd2353e	-0.025660153
60	0x3da8173e	0.08207558
61	0xbd910489	-0.07080943
62	0xbd7866c2	-0.060644872
63	0xbd0acfd8	-0.03388962

fc4.weight f4 [4, 64]
0	0x3e3fa61b	0.18715708
1	0xbe21e3db	-0.15809576
2	0xbd63dd71	-0.055631105
3	0x3e028037	0.12744223
4	0x3e9e4772	0.30913883
5	0x3d998677	0.0749635
6	0x3d09ba83	0.033625137
7	0xbd895455	-0.06705538
8	0x3df83288	0.12119013
9	0xbd9c4326	-0.07629995
10	0xbc8b7754	-0.017024674
11	0x3ea628de	0.32453054
12	0xbd18b452	-0.03728134
13	0xbddb458d	-0.10706625
14	0x3cf4babd	0.0298742
15	0xbe52bf0e	-0.20580694
16	0x3dd48b86	0.103781745
17	0x3e525530	0.20540309
18	0x3e27c30f	0.16383003
19	0x3c95bfa2	0.018279854
20	0x3dde0ba1	0.10842062
21	0x3df55e4a	0.11980875
22	0xbe3c4282	-0.18384746
23	0x3dec5503	0.11539652
24	0x3e4dde72	0.20104387
25	0x3e0f3331	0.13984372
26	0xbc87e86a	-0.016590316
27	0xbe36a63c	-0.17836851
28	0x3cae5b9e	0.02128392
29	0x3e4abc5c	0.19798416
30	0xbed4d68b	-0.41569933
31	0x3dbb1266	0.091343686
32	0xba95184f	-0.0011375042
33	0x3db74252	0.089481965
34	0xbd4d37c2	-0.050102003
35	0x3dcda8c3	0.10041954
36	0x3e066931	0.13126065
37	0x3d56c7b3	0.05243654
38	0x3d2c0255	0.04199441
39	0x3e0b8951	0.13626601
40	0x3e1d398c	0.15353984
41	0xbd83f19c	-0.06442568
42	0xbafc52e5	-0.0019250779
43	0x3e126506	0.1429635
44	0x3e3ed393	0.18635397
45	0x3e17b3fb	0.14814751
46	0x3ee10ff0	0.43957472
47	0x3e9c0e03	0.3047944
48	0x3df10efc	0.11770436
49	0x3e3c40fa	0.18384162
50	0x3ed40a84	0.41414273
51	0xbc2e2969	-0.01062999
52	0x3de00afc	0.10939595
53	0x3ccecfce	0.025245573
54	0x3c011047	0.007877416
55	0x3df21c30	0.118217826
56	0x3c2ecf21	0.010669501
57	0x3d15777a	0.036490895
58	0x3ddbcf41	0.1073289
59	0x3e4f6987	0.20255099
60	0x3dba9250	0.09109938
61	0xbea93468	-0.33047795
62	0xbe3e3f89	-0.18578924
63	0xbe50cc0f	-0.20390342
64	0x3e8dc107	0.2768633
65	0x3e2a5927	0.16635571
66	0x3daa832e	0.08325802
67	0xbe42dd00	-0.19029617
68	0xbd9c6e42	-0.076382175
69	0xbdaa16d4	-0.08305135
70	0xbd05d39c	-0.03267251
71	0xbd801442	-0.06253864
72	0x3e43edaf	0.19133638
73	0xbe0d076e	-0.13772365
74	0x3a0ec1d2	0.00054457516
75	0x3e33fcb3	0.17576866
76	0x3e4a3b67	0.19749223
77	0x3e935fcc	0.28784025
78	0x3e369601	0.1783066
79	0xbd09bf6f	-0.03362983
80	0x3d941637	0.072308
81	0xbd993996	-0.07481687
82	0xbe087c67	-0.13328706
83	0x3e5e4556	0.21706137
84	0xbd48583d	-0.048912276
85	0x3e0dcfb9	0.13848771
86	0xbdd66cf2	-0.104699984
87	0xbcb584b8	-0.022158012
88	0xbd041089	-0.03224233
89	0x3e842ce7	0.25815508
90	0xbe55c50b	-0.20875947
91	0xbdfc8a16	-0.12331025
92	0x3d207826	0.039177082
93	0x3e163485	0.14668472
94	0x3d8d8791	0.06910623
95	0xbe029c58	-0.12754953
96	0x3e110fb9	0.14166154
97	0x3df850e4	0.12124804
98	0x3de79eef	0.11309611
99	0xbc0a026e	-0.008423431
100	0xbd41e7f5	-0.047340352
101	0xbe030b2c	-0.1279723
102	0x3ea7bde1	0.32762054
103	0xbcc5b157	-0.024132414
104	0xbe0834fe	-0.13301465
105	0x3e65f935	0.22458346
106	0xbe264901	-0.16238786
107	0x3e2023e6	0.15638694
108	0x3e5270b4	0.20550805
109	0x3e6851ce	0.22687456
110	0x3e9a6975	0.30158582
111	0x3e9e64e5	0.3093635
112	0x3d6e3470	0.058155477
113	0x3e4d89cf	0.20072101
114	0x3e2d8ce7	0.16948281
115	0x3e3e911b	0.18610041
116	0xbd570fb3	-0.052505206
117	0x3e03de55	0.12877782
118	0x3e4ce0e1	0.2000766
119	0x3e371ce2	0.17882112
120	0x3e1480af	0.14502214
121	0xbe9706aa	-0.29497272
122	0x3da1f6b1	0.07908381
123	0xbd303a65	-0.04302444
124	0x3b864a67	0.004098225
125	0xbe6ecc83	-0.23320203
126	0x3e5b2207	0.21399699
127	0x3d009f19	0.031401727
128	0xbbf1342c	-0.0073609557
129	0xbec4e47f	-0.3845558
130	0x3e33e2fd	0.17567058
131	0xbdf35a22	-0.11882426
132	0x3ead6e03	0.33872995
133	0x3e0ad3b7	0.13557325
134	0x3e235fab	0.15954463
135	0xbea58486	-0.3232767
136	0x3e0c7b19	0.13718833
137	0xbd908267	-0.07056122
138	0x3d4f1e7c	0.05056618
139	0xbd4c3c1a	-0.049862005
140	0x3dff1951	0.124560006
141	0x3ebb1f32	0.36547238
142	0xbd2bcb12	-0.04194171
143	0xbd92b7fd	-0.07163999
144	0xbdb88491	-0.0900966
145	0xbccd3af6	-0.025052529
146	0x3e33946b	0.17537086
147	0x3d4c9215	0.049944002
148	0x3d1cd4d4	0.038288906
149	0xbdbf0971	-0.09327973
150	0xbdfdead4	-0.123983055
151	0xbd9b2497	-0.07575338
152	0x3e24b5db	0.16084997
153	0xbe168642	-0.14699653
154	0xbe05da9f	-0.13071679
155	0xbd81a81e	-0.06330894
156	0x3e629177	0.22125803
157	0x3e3d2a6f	0.18473218
158	0xbe3220bd	-0.17395301
159	0xbe39fd16	-0.18162951
160	0x3cdac25b	0.026704004
161	0x3d9268f7	0.07148927
162	0x3e219c19	0.15782203
163	0x3e44727d	0.19184299
164	0x3acf9741	0.0015837924
165	0x3d8ac50c	0.06775865
166	0xbcdda561	-0.027056398
167	0x3e3ca934	0.18423921
168	0x3e564d44	0.20927912
169	0x3ea93b68	0.33053136
170	0xbe89c4cb	-0.26907954
171	0x3c24c009	0.01005555
172	0x3e6ad75a	0.22933713
173	0xbd2d8ffc	-0.042373642
174	0x3e1b9f20	0.1519742
175	0xbdd7ff4c	-0.10546741
176	0xbb6ed151	-0.003644068
177	0x3e447d2b	0.19188373
178	0x3ede1421	0.43374732
179	0xbd8768fc	-0.06611821
180	0xbcdaee0b	-0.026724836
181	0x3ec2f4a1	0.38077262
182	0xbe3c8af1	-0.18412377
183	0x3e3382f8	0.1753043
184	0xbe783b9d	-0.2424149
185	0xbe2e3a49	-0.17014422
186	0x3e1750ac	0.14776868
187	0x3e80129e	0.25014204
188	0x3e704c05	0.23466499
189	0xbce2786b	-0.02764531
190	0xbec7c511	-0.39017537
191	0x3e07f40e	0.13276693
192	0x3dca7a98	0.09886664
193	0x3e040b33	0.12894897
194	0x3e2cf340	0.16889668
195	0x3e49f6bb	0.19723026
196	0x3e9bb540	0.3041172
197	0x3dda3f3f	0.106565945
198	0xbd78efc3	-0.06077553
199	0x3e0af1a2	0.13568738
200	0x3e5356a6	0.20638523
201	0x3dafac66	0.08577804
202	0x3d120e71	0.035658304
203	0xbe0d7e13	-0.13817625
204	0xbd95dcd9	-0.07317514
205	0x3e492aee	0.19645283
206	0x3ceed8dc	0.029156141
207	0x3da3cdbc	0.07998225
208	0x3dd693fd	0.10477445
209	0xbb427536	-0.0029671914
210	0xbe2677e4	-0.16256672
211	0x3e7d464e	0.2473385
212	0x3d49c266	0.04925766
213	0xbb110be0	-0.0022132322
214	0x3d4d2fae	0.0500943
215	0x3e17cefb	0.1482505
216	0xbe20de73	-0.15709858
217	0x3da19f0b	0.07891663
218	0xbea186f5	-0.31548277
219	0x3d68e081	0.05685473
220	0x3e90fc49	0.28317478
221	0x3e09d9c1	0.13461973
222	0xbe6cafd4	-0.23113948
223	0xbe64d79e	-0.22347876
224	0x3ce63d3a	0.028105367
225	0x3dd051a2	0.1017182
226	0x3d580222	0.05273641
227	0x3d0b24bb	0.033970576
228	0x3e6e0b90	0.23246598
229	0x3e921120	0.2852869
230	0xbe475d4c	-0.19469184
231	0x3dda3390	0.10654366
232	0xbe277294	-0.16352302
233	0x3d982d6c	0.074305385
234	0xbe5f5f73	-0.21813755
235	0x3e37f3f7	0.17964159
236	0x3e381b81	0.17979242
237	0xbc2ba5ba	-0.010476524
238	0xbbd257f0	-0.0064191744
239	0xbe388594	-0.18019706
240	0x3e271689	0.1631719
241	0x3e945efd	0.2897872
242	0x3d273f4f	0.04083186
243	0x3cf73377	0.030175908
244	0x3b435a87	0.0029808597
245	0xbdff8a5f	-0.12477564
246	0x3e4f9640	0.2027216
247	0xbc01eb3e	-0.007929621
248	0x3f086429	0.5327783
249	0xbe6a2a5a	-0.22867718
250	0x3db5d8b6	0.08879225
251	0x3e4cfd5b	0.20018522
252	0x3e2e16cd	0.17000885
253	0xbdac4efc	-0.084135026
254	0xbd11f974	-0.035638288
255	0xbdafc5fb	-0.08582684

fc4.bias f4 [4]
0	0x3cf38112	0.029724631
1	0x3e1044d2	0.14088753
2	0x3db44096	0.08801381
3	0xbaa04813	-0.0012228511
