Collaboration and Competition/Tennis/solution_actor_checkpoint.pth (torch_old, 536719 bytes, 14 tensors)

fc1.weight f4 [400, 24]
0.06277794 0.084457494 0.039766192 -0.01695425 -0.035668973 -0.048257615 0.04380018 0.005453955
0.055014335 0.064438514 0.011190002 -0.051900513 -0.03745043 -0.00864609 -0.0087546 -0.07495463
0.09649822 0.096028395 -0.017194487 0.012692707 -0.09163556 -0.063895695 -0.0051211556 -0.051792208
0.0191082 0.064603 0.007197956 0.06911308 0.06648026 -0.028739672 -0.024607671 0.048784424
0.0076460205 0.017476982 -0.018262338 -0.033362612 0.05165871 0.0782812 0.019914875 -0.022740223
0.03304954 -0.0040517645 -0.023869878 0.014705514 0.11616903 0.0541973 0.026866687 0.0448076
-0.014357585 -0.036275275 -0.017178778 0.023707187 -0.037468497 -0.0038785767 0.0028971732 0.085257575
-0.06905096 -0.02123865 0.053873867 0.025158508 -0.04226434 -0.029532801 0.03653252 0.03264856
-0.034099214 -0.060341753 0.057860132 0.038841855 -0.032626074 -0.029833367 0.007900402 0.044768468
0.058272794 -0.005692463 -0.009496108 0.049883325 -0.08439682 -0.036552485 0.024211805 -0.0077784574
0.0070681833 -0.022043956 0.05480426 -0.0072870795 -0.05121955 -0.023151055 -0.015101552 -0.08074733
0.040896975 -0.014712053 0.017767267 -0.01841093 -0.046379406 -0.00031800254 0.061103053 0.037046038
0.05805935 0.03786397 -0.0008427735 0.053369608 0.08342587 0.02790115 -0.018047469 0.078825876
-0.027232643 -0.053746566 -0.028952168 0.12838955 -0.049986497 -0.0030854612 0.027127974 0.067659356
0.050180256 0.01803738 -0.020518022 0.07698047 -0.06836146 0.013246853 0.0040420024 0.09601716
-0.0016460908 0.06634902 -0.006055878 0.11409131 -0.060707234 0.030483447 0.009651657 0.0708627
-0.046254963 0.10555348 0.0011197812 -0.008608643 -0.038881015 0.044980038 0.042455986 -0.021969497
0.022265693 0.09889314 -0.017712677 -0.027494634 0.06458355 -0.00091468904 0.015192343 -0.05900624
-0.017388156 0.03372535 -0.026305916 -0.01545756 -0.018540645 -0.021545146 -0.0372706 -0.011276119
0.00889577 0.00304395 -0.048534542 -0.0062732277 -0.0035332076 -0.093803406 0.0057044527 -0.023346392
0.12273105 0.05506613 0.008265038 0.017473934 -0.045965265 -0.10319875 -0.004730209 -0.0110431705
-0.008814543 0.18208517 -0.009768309 -0.030466564 0.004474978 0.017160712 -0.0072406 0.0072997627
-0.033921298 0.13144399 -0.039430518 -0.04208831 -0.009610031 -0.042827465 0.01957911 -0.04312598
-0.017975297 0.22255191 -0.0410914 -0.010559749 -0.010927618 -0.1801906 0.01326234 -0.06021848
0.08876803 0.032299053 -0.025054066 -0.059921224 -0.04578112 -0.04930458 -0.05567055 0.023480041
0.030523693 0.07407319 -0.03623498 -0.017216155 -0.069185264 0.0038779646 0.03966376 0.057215616
0.059617534 0.0833488 -0.0033341867 0.012912108 -0.03688055 -0.01153944 0.011705909 0.031328518
-0.0012959772 -0.033261016 -0.01242111 -0.020026162 0.012262539 -0.06367535 -0.02207056 -0.030097177
-0.005346887 -0.026644966 -0.015978789 0.040722195 -0.03584117 -0.058227442 0.014910351 0.10104204
-0.02532635 0.024918558 0.0045402492 0.103493445 0.036472064 -0.0660736 0.014753351 0.10040789
0.020227095 -0.044368837 -0.03755539 -0.014555426 0.029428817 0.053815223 0.02834793 -0.052512296
0.010228483 -0.103228875 -0.036866717 -0.031190498 -0.010816896 0.08162243 -0.013581014 -0.043213923
00000000: b891 803d 0df8 ac3d e0e1 223d a4e3 8abc
00000010: a119 12bd c7a9 45bd d167 333d 17b7 b23b
00000020: b656 613d 57f8 833d 4556 373c a295 54bd
00000030: 9f65 19bd 54a8 0dbc 746f 0fbc d081 99bd
00000040: dca0 c53d 89aa c43d 74db 8cbc 12f5 4f3c
00000050: 6dab bbbd bfdb 82bd 5ecf a7bb 1124 54bd
00000060: cd88 9c3c 944e 843d d5dc eb3b 298b 8d3d
00000070: cd26 883d 766f ebbc 0796 c9bc 2dd2 473d
00000080: 788b fa3b e32b 8f3c e69a 95bc 3ca7 08bd
00000090: 1598 533d e551 a03d 8524 a33c b449 babc
000000a0: f45e 073d aac4 84bb c38a c3bc 65ef 703c
000000b0: 07ea ed3d fdfd 5d3d 8717 dc3c 2d88 373d
000000c0: 143c 6bbc 6295 14bd 82ba 8cbc 9335 c23c
000000d0: 9178 19bd b82f 7ebb 80de 3d3b 869b ae3d
000000e0: 976a 8dbd adfc adbc d8aa 5c3d 3719 ce3c
000000f0: 5f1d 2dbd c6ee f1bc 20a3 153d 7fba 053d
00000100: 9eab 0bbd ea28 77bd bffe 6c3d a318 1f3d
00000110: eba2 05bd 1b65 f4bc b070 013c 245f 373d
00000120: 74af 6e3d d787 babb 9095 1bbc 7552 4c3d
00000130: 3dd8 acbd 0fb8 15bd d657 c63c 6ee2 febb
00000140: 389c e73b 8795 b4bc 6f7a 603d 74c8 eebb
00000150: 97cb 51bd 48a7 bdbc 806c 77bc db5e a5bd
00000160: 9683 273d d30a 71bc a98c 913c 85d2 96bc
00000170: 55f8 3dbd 94b9 a6b9 3247 7a3d 96bd 173d
00000180: a4cf 6d3d 4017 1b3d 92ed 5cba 179a 5a3d
00000190: 2fdb aa3d f490 e43c 49d8 93bc 766f a13d
000001a0: fe16 dfbc 5c25 5cbd 192d edbc 8d78 033e
000001b0: a4be 4cbd 7335 4abb 7c3b de3c fd90 8a3d
000001c0: d089 4d3d 21c3 933c 6915 a8bc f0a7 9d3d
000001d0: 1801 8cbd 5409 593c c672 843b a5a4 c43d
000001e0: a4c1 d7ba ffe1 873d 6370 c6bb b4a8 e93d
000001f0: 26a8 78bd 6cb8 f93c fc21 1e3c 7720 913d
00000200: d875 3dbd 6c2c d83d 9fc5 923a 440b 0dbc
00000210: b341 1fbd fd3c 383d 54e6 2d3d 60f9 b3bc
00000220: 8b66 b63c 7d88 ca3d 2d1a 91bc 6d3c e1bc
00000230: 6144 843d bec7 6fba 4ee9 783c 87b0 71bd
00000240: 9b71 8ebc 9823 0a3d 817f d7bc b541 7dbc
00000250: 8de2 97bc 727f b0bc 0fa9 18bd 79bf 38bc
00000260: 90bf 113c 027d 473b 28cc 46bd a68f cdbb
00000270: 638d 67bb 001c c0bd 6bec ba3b ef40 bfbc
00000280: 6b5a fb3d 068d 613d 156a 073c 7f25 8f3c
00000290: 1346 3cbd de59 d3bd deff 9abb 6aee 34bc
000002a0: df6a 10bc 8974 3a3e 420b 20bc 0495 f9bc
000002b0: d6a2 923b 9f94 8c3c 8e42 edbb d932 ef3b
000002c0: 0ff1 0abd 4199 063e e581 21bd cb64 2cbd
000002d0: 6473 1dbc da6b 2fbd 5f64 a03c dea4 30bd
000002e0: ee40 93bc a6e4 633e 754f 28bd cc02 2dbc
000002f0: c009 33bc e283 38be 494a 593c a7a7 76bd
00000300: 03cc b53d 034c 043d 2f3e cdbc f56f 75bd
00000310: fc84 3bbd 99f3 49bd cd06 64bd 3759 c03c
00000320: d30c fa3c afb3 973d 216b 14bd e508 8dbc
00000330: 01b1 8dbd 7325 7e3b 7876 223d ec5a 6a3d
00000340: 8431 743d c7b2 aa3d 5f82 5abb 4e8d 533c
00000350: 0f10 17bd eb0f 3dbc 24ca 3f3c 5552 003d
00000360: c7dd a9ba b43c 08bd e981 4bbc e80d a4bc
00000370: d1e8 483c 3968 82bd 52cd b4bc 5b8e f6bc
00000380: f034 afbb 8b46 dabc f3e5 82bc 51cc 263d
00000390: 31ce 12bd e67f 6ebd 8b4a 743c 21ef ce3d
000003a0: 3579 cfbc 0122 cc3c 5fc6 943b 5ff4 d33d
000003b0: bb63 153d 9851 87bd 0ab8 713c a7a2 cd3d
000003c0: 4bb3 a53c 19bc 35bd aed3 19bd e279 6ebc
000003d0: b414 f13c 5a6d 5c3d eb39 e83c 2217 57bd
000003e0: 5e95 273c a969 d3bd 8e01 17bd 3783 ffbc
000003f0: 5a39 31bc a929 a73d e782 5ebc 1501 31bd

fc1.bias f4 [400]
0.0020640474 -0.032176506 0.022539316 0.00722365 -0.047508515 0.10619589 -0.07030802 -0.022373512
-0.0043090205 -0.025283435 -0.0824982 -0.1338015 0.013631826 -0.05904109 -0.032998048 0.035211995
-0.09943616 0.010380426 -0.03131771 -0.0068627647 -0.029361853 0.02311771 -0.054409496 -0.062566824
-0.04558038 0.021422952 0.027314102 -0.038386766 -0.074293435 0.013648855 -0.0038899828 -0.036359314
-0.034886945 0.031926878 -0.085835904 0.018399008 -0.0078111235 -0.020285925 -0.0059723346 -0.009931352
-0.08178498 -0.05295306 -0.021778947 -0.04662912 -0.004127204 -0.044511896 -0.028421646 -0.0024380987
-0.028989622 0.0037992552 0.024877567 0.008503879 -0.056020316 -0.008847803 -0.0577611 -0.10334253
0.024745809 0.0014716118 -0.07872715 -0.04094837 -0.020849098 -0.011824042 0.051283002 0.08313486
-0.087895826 0.024354588 0.14338297 0.0044837063 0.10592441 -0.058601126 -0.047700185 -0.05972226
-0.04825336 -0.028804831 -0.07208947 -0.055765606 0.01600704 -0.004955263 -0.13316579 -0.032346886
-0.0784088 -0.07724406 -0.087304935 -0.017305715 0.0665614 -0.06122173 -0.07329558 -0.07740452
-0.08536242 0.05481631 0.011282879 -0.13265601 -0.0244215 -0.02836305 0.029692926 -0.12750532
-0.07748782 0.018350288 -0.012291276 0.04034537 -0.00029553557 0.06270815 -0.07906016 0.028775837
0.13491179 0.01109673 -0.021565268 0.0086817555 -0.042387325 -0.044845827 -0.039491706 -0.037118994
-0.009117694 0.080197684 0.0010564948 -0.065577164 -0.031672724 -0.086437546 0.022966703 -0.056495935
0.0375158 0.0240266 -0.07393314 0.041352265 -0.06302243 -0.048476893 -0.01569644 0.064060494
0.008895457 0.041384947 -0.045911185 0.008466014 -0.06325518 0.015917042 -0.030616213 0.12949581
-0.07391156 -0.035479374 -0.045646954 -0.039821554 -0.0019410015 -0.003590478 -0.030776573 0.0050956933
-0.04093445 0.02107134 -0.026437674 -0.056566723 0.016871205 -0.0008143477 -0.08236888 -0.025632693
-0.11148601 -0.011315358 0.028544009 -0.088811494 0.018538212 -0.043978587 -0.10170456 -0.07456648
-0.024793481 -0.073433444 -0.097121544 -0.033944372 0.013211652 0.005222824 -0.030436743 0.03984701
0.03674925 -0.05081286 -0.03517856 -0.0196913 0.054457333 -0.011160939 0.06550954 -0.022504468
-0.06195303 -0.0010972891 -0.04385934 -0.027727952 -0.033552557 0.05212484 0.0021389662 -0.021617275
-0.06996958 -0.03380508 -0.08222427 -0.080271445 -0.053843286 -0.050685354 -0.059175927 -0.04076599
-0.053467 -0.011239478 0.037833422 0.09668946 -0.0024333587 -0.053774014 0.05815585 0.053519785
0.005559518 -0.06409573 -0.021682478 -0.09417111 -0.033606444 -0.01937856 0.008763069 0.061800327
-0.04082467 0.061517097 0.039791368 -0.0950782 -0.018807381 -0.07228614 -0.0036827784 -0.058073904
-0.057176135 -0.06953608 -0.024320368 -0.025915476 -0.035601456 -0.0005593816 0.03427135 -0.011033959
0.011059616 -0.012548505 -0.0031663193 -0.07360179 0.02201877 0.0043222816 -0.027095841 0.047522288
-0.0094981175 0.020796534 -0.035342835 0.009495788 0.0016588324 0.03768718 0.0006514034 -0.04215259
-0.0047637257 -0.009264654 -0.028004177 0.008822398 -0.009674698 -0.009262953 0.017308887 0.040260434
-0.0072114463 -0.03384813 -0.028672693 0.08695337 -0.07126259 -0.14049223 0.0053817914 -0.04303512
00000000: f844 073b 83cb 03bd 5fa4 b83c 5eb4 ec3b
00000010: 4a98 42bd 3b7d d93d a7fd 8fbd a848 b7bc
00000020: af32 8dbb 351f cfbc d1f4 a8bd 4303 09be
00000030: 0658 5f3c 12d5 71bd f628 07bd 743a 103d
00000040: 2fa5 cbbd aa12 2a3c 0047 00bd 0be1 e0bb
00000050: 4588 f0bc 5a61 bd3c 7edc 5ebd 0923 80bd
00000060: 7eb2 3abd 307f af3c d3c1 df3c 713b 1dbd
00000070: 2827 98bd 729f 5f3c 15ef 7ebb 81ed 14bd
00000080: 9de5 0ebd c2c5 023d bcca afbd 84b9 963c
00000090: 74f4 ffbb ab2e a6bc 93b3 c3bb 1cb7 22bc
000000a0: e27e a7bd 4fe5 58bd c369 b2bc 2dfe 3ebd
000000b0: 7f3d 87bb 1b52 36bd 83d4 e8bc 82c8 1fbb
000000c0: a57b edbc edfc 783b 0acc cb3c db53 0b3c
000000d0: 8f75 65bd 60f6 10bc e796 6cbd 40a5 d3bd
000000e0: b9b7 ca3c 19e3 c03a b33b a1bd 7ab9 27bd
000000f0: bacb aabc a0b9 41bc 200e 523d 9c42 aa3d
00000100: ba02 b4bd 4683 c73c fcd2 123e 0eec 923b
00000110: e6ee d83d bc07 70bd 4561 43bd 549f 74bd
00000120: 51a5 45bd 1cf8 ebbc a5a3 93bd 7a6a 64bd
00000130: 3221 833c c25f a2bb 9d5c 08be 2b7e 04bd
00000140: cb94 a0bd 2232 9ebd eecc b2bd b7c4 8dbc
00000150: 5851 883d a3c3 7abd fe1b 96bd 4386 9ebd
00000160: 7ed2 aebd 1187 603d d3db 383c fad6 07be
00000170: 990f c8bc a159 e8bc 943e f33c c190 02be
00000180: efb1 9ebd 5853 963c 5961 49bc 3041 253d
00000190: 1df2 9ab9 216d 803d 4bea a1bd 4ebb eb3c
000001a0: 5126 0a3e 0fcf 353c a5a9 b0bc ec3d 0e3c
000001b0: 559e 2dbd 42b0 37bd 0ec2 21bd 160a 18bd
000001c0: 6162 15bc af3e a43d 157a 8a3a 524d 86bd
000001d0: 42bb 01bd 2b06 b1bd ab24 bc3c 4868 67bd
000001e0: 2baa 193d 6fd3 c43c 426a 97bd fe60 293d
000001f0: e711 81bd b58f 46bd d295 80bc 2632 833d
00000200: 40be 113c 4383 293d 5e0d 3cbd 09b5 0a3c
00000210: ef8b 81bd 7564 823c dace fabc 8d9a 043e
00000220: f25e 97bd d252 11bd 4df8 3abd ed1b 23bd
00000230: 3469 feba 3a4e 6bbb 271f fcbc c6f9 a63b
00000240: e2aa 27bd ce9d ac3c d293 d8bc 82b2 67bd
00000250: 7b35 8a3c f379 55ba 04b1 a8bd a7fb d1bc
00000260: c752 e4bd 0d64 39bc 20d5 e93c cde2 b5bd
00000270: 73dd 973c e422 34bd 7b4a d0bd 50b6 98bd
00000280: b31b cbbc 4664 96bd a9e7 c6bd 4109 0bbd
00000290: af75 583c 3924 ab3b 7a56 f9bc 9e36 233d
000002a0: 6286 163d 2521 50bd 6517 10bd a64f a1bc
000002b0: a70e 5f3d 5fdc 36bc de29 863d 4a5b b8bc
000002c0: 76c2 7dbd ead2 8fba daa5 33bd bb25 e3bc
000002d0: 686e 09bd db80 553d e62d 0c3b b616 b1bc
000002e0: 364c 8fbd 3277 0abd 3365 a8bd 5b65 a4bd
000002f0: c78a 5cbd 729b 4fbd 7562 72bd 3dfa 26bd
00000300: 3700 5bbd ca25 38bc 38f7 1a3d 2005 c63d
00000310: fc78 1fbb 2442 5cbd d434 6e3d 9037 5b3d
00000320: 9e2c b63b 9f44 83bd 749f b1bc c8dc c0bd
00000330: e9a6 09bd c9bf 9ebc fa92 0f3c 5722 7d3d
00000340: c537 27bd 5af9 7b3d 46fc 223d 5cb8 c2bd
00000350: f011 9abc c10a 94bd c55a 71bb e7de 6dbd
00000360: 8631 6abd ef68 8ebd 823b c7bc b14c d4bc
00000370: d5d2 11bd 77a3 12ba 1d60 0c3d c7c7 34bc
00000380: 6433 353c 3f98 4dbc 0682 4fbb 89bc 96bd
00000390: b560 b43c eda1 8d3b 19f8 ddbc bba6 423d
000003a0: fe9d 1bbc 7e5d aa3c a6c3 10bd 3994 1b3c
000003b0: 2e6d d93a df5d 1a3d f1c2 2a3a 32a8 2cbd
000003c0: 0719 9cbb c6ca 17bc 0469 e5bc d28b 103c
000003d0: a082 1ebc a4c3 17bc 5ecb 8d3c 20e8 243d
000003e0: ff4d ecbb 56a4 0abd ffe2 eabc 9c14 b23d
000003f0: 1ff2 91bd 32dd 0fbe bd59 b03b 9845 30bd

fc2.weight f4 [300, 400]
-0.006619356 0.055308025 0.011328999 -0.0036367613 0.031123038 -0.046086285 -0.03736007 -0.014357913
-0.023896048 0.08546783 -0.033291046 0.06550744 -0.03995775 0.026188524 0.048898615 -0.06278783
0.033381194 -0.023996705 -0.0076356204 0.013468165 0.07858549 -0.021290042 0.046396617 0.0018552545
-0.063226596 -0.01741068 -0.021627726 0.039541494 -0.010026466 0.03539848 0.020782825 0.02962815
0.023833457 -0.038400814 -0.042318024 0.03816645 -0.096403986 -0.055122964 -0.13951644 -0.048082348
-0.04193024 0.07175276 0.07573804 -0.05969181 -0.051878437 0.041098915 0.026821671 0.033839837
0.04625095 0.033912905 0.03830067 -0.011589286 -0.056679457 -0.045803823 0.057936203 0.00378451
0.02532122 0.032001995 0.07008064 0.026734218 -0.039945405 -0.07850556 -0.07340955 0.004202886
0.075676985 -0.054162357 0.051519357 0.0051460476 0.018887183 -0.022134254 -0.07597083 -0.00053389434
-0.06864312 0.0006703342 0.0002468459 0.05082286 -0.0028189293 0.03523515 -0.0030943248 0.023836736
-0.02140058 0.034835853 -0.026051445 0.07732397 -0.030247549 -0.015821846 -0.051558696 0.06182794
-0.0522622 0.03233451 0.047950506 0.006574103 0.007638246 0.008091936 -0.018445639 -0.01611936
0.018220618 -0.008864884 0.013519296 0.05397089 -0.027231926 -0.041222412 -0.09064821 0.004649355
-0.04411959 0.031209167 0.023312492 0.014246176 0.057389297 0.042949207 -0.014645669 -0.01864154
0.07757421 0.07187599 0.13146025 -0.050442368 0.10522629 0.028325582 0.082144916 0.04782041
-0.04789436 0.06209025 0.09540278 0.06287473 -0.010099585 0.019612165 -0.008932278 0.020049023
-0.037628837 0.03740162 0.054905865 -0.09959826 -0.028661178 -0.06368429 0.06011523 -0.056791916
-0.06155188 -0.003636839 0.017638043 -0.017010653 -0.018404793 -0.048645593 -0.085066445 6.4479755e-05
0.06372221 -0.08465444 -0.106599405 0.04514832 0.021459954 -0.013618096 0.023817101 -0.026551187
-0.0655875 0.050205342 0.033563074 0.03899986 0.057339072 0.0019270364 0.041339494 0.06550657
-0.00021293476 -0.02018472 -0.01800585 -0.060985133 -0.04429491 -0.014012542 -0.0054580066 -0.019901836
-0.0060989135 -0.12249058 -0.016249325 -0.10875673 -0.039998673 0.0039714854 -0.03687864 0.035262387
0.027027724 -0.01676318 -0.0019457854 0.068255164 -0.06664735 -0.025350004 0.02805517 -0.010611314
0.047025368 -0.0018515674 0.048176784 0.014940385 0.04822211 0.0019734392 0.024532365 -0.1095397
-0.057444174 0.064925194 0.026857853 -0.008431266 -0.03611256 -0.06398612 0.063106306 -0.066487215
-0.0096216705 -0.033228494 0.054140653 -0.100901745 -0.032649994 -0.0022454106 -0.052100327 0.049376618
-0.044988483 0.045336332 0.07681859 0.1307627 -0.06291101 -0.024940316 -0.053852707 -0.03585786
0.087949574 -0.06872081 -0.071143895 -0.00620416 -0.07158246 0.045696046 -0.052554358 0.013988128
-0.123040855 0.03864381 -0.0020022576 0.04219974 -0.05904155 -0.04697758 -0.061238796 -0.031451505
-0.004210223 -0.07508145 0.013268271 0.02824615 0.008754449 0.010019675 0.067877226 0.05795983
0.004315836 -0.05038547 -0.02409381 -0.045746386 0.0061139376 -0.079066455 -0.007029203 -0.039310485
0.059793722 -0.038289543 0.056252718 0.036376253 0.0132861845 -0.03837676 -0.041617725 -0.015168832
00000000: 2fe7 d8bb ab8a 623d 449d 393c bb56 6ebb
00000010: bef5 fe3c f9c4 3cbd df06 19bd 743d 6bbc
00000020: a5c1 c3bc c209 af3d 315c 08bd c428 863d
00000030: bdaa 23bd 5189 d63c ea49 483d e896 80bd
00000040: b8ba 083d bd94 c4bc 3a34 fabb 94a9 5c3c
00000050: 6ef1 a03d 7468 aebc 610a 3e3d 032c f33a
00000060: f27c 81bd d8a0 8ebc a12c b1bc 43f6 213d
00000070: 0c46 24bc fffd 103d be40 aa3c bcb6 f23c
00000080: 623e c33c 2c4a 1dbd aa55 2dbd 6c54 1c3d
00000090: 746f c5bd 9ec8 61bd 66dd 0ebe fff1 44bd
000000a0: 0bbf 2bbd 1cf3 923d 8c1c 9b3d 667f 74bd
000000b0: 7c7e 54bd 5657 283d 1fb9 db3c a49b 0a3d
000000c0: a371 3d3d 42e8 0a3d 2ae1 1c3d fde0 3dbc
000000d0: b828 68bd ca9c 3bbd 834e 6d3d 8b05 783b
000000e0: 726e cf3c 8614 033d 7086 8f3d b801 db3c
000000f0: cb9d 23bd 86c7 a0bd bf57 96bd 5db8 893b
00000100: 89fc 9a3d 59d9 5dbd f605 533d 2da0 a83b
00000110: 4bb9 9a3c e552 b5bc 9896 9bbd 0bf5 0bba
00000120: c494 8cbd 5eb9 2f3a 196b 8139 a22b 503d
00000130: c9bd 38bb bc52 103d 28ca 4abb 4245 c33c
00000140: 4550 afbc 0ab0 0e3d d769 d5bc 085c 9e3d
00000150: b5c9 f7bc d19c 81bc 362f 53bd 4b3f 7d3d
00000160: e310 56bd 3171 043d c067 443d 936b d73b
00000170: 404a fa3b 0a94 043c 4f1b 97bc c00c 84bc
00000180: 6843 953c 053e 11bc 0a80 5d3c 9410 5d3d
00000190: 7d15 dfbc d5d8 28bd c5a5 b9bd 9e59 983b
000001a0: beb6 34bd 5eaa ff3c d7f9 be3c cb68 693c
000001b0: 0a11 6b3d 82eb 2f3d 63f4 6fbc 25b6 98bc
000001c0: 3adf 9e3d b833 933d 849d 063e a89c 4ebd
000001d0: e280 d73d 0d0b e83c 983b a83d 56df 433d
000001e0: e02c 44bd 5952 7e3d 8862 c33d 77c4 803d
000001f0: bb78 25bc b1a9 a03c b058 12bc d93d a43c
00000200: b220 1abd 7132 193d f9e4 603d 2cfa cbbd
00000210: d9ca eabc e96c 82bd 633b 763d a49e 68bd
00000220: d31d 7cbd 0958 6ebb a87d 903c ed59 8bbc
00000230: a6c5 96bc 9a40 47bd 5137 aebd 4e39 8738
00000240: ca80 823d 4f5f adbd ca50 dabd 72ed 383d
00000250: c9cc af3c 6f1e 5fbc 151c c33c e081 d9bc
00000260: bd52 86bd 1ea4 4d3d 6f79 093d 51be 1f3d
00000270: 60dc 6a3d 9d94 fc3a 9a53 293d 4f28 863d
00000280: 3d47 5fb9 6d5a a5bc 0181 93bc 8ccb 79bd
00000290: 946e 35bd dc94 65bc 14d9 b2bb 2d09 a3bc
000002a0: 65d9 c7bb 57dc fabd 4e1d 85bc d9bb debd
000002b0: a6d5 23bd 3c23 823b 0f0e 17bd 4b6f 103d
000002c0: 3f69 dd3c f052 89bc b909 ffba 5dc9 8b3d
000002d0: 687e 88bd d0aa cfbc f5d3 e53c 14db 2dbc
000002e0: ac9d 403d 4bb0 f2ba 0555 453d 84c8 743c
000002f0: 8c84 453d d154 013b 19f8 c83c 5a56 e0bd
00000300: 954a 6bbd 80f7 843d 0005 dc3c 4b23 0abc
00000310: c4ea 13bd 280b 83bd e13d 813d 732a 88bd
00000320: 36a4 1dbc 9a1a 08bd 97c2 5d3d 93a5 cebd
00000330: 00bc 05bd bd27 13bb 2767 55bd 233f 4a3d
00000340: d845 38bd 97b2 393d 1153 9d3d a8e6 053e
00000350: 7dd7 80bd a24f ccbc a894 5cbd b1df 12bd
00000360: e81e b43d 7fbd 8cbd e4b3 91bd 444c cbbb
00000370: d399 92bd c72b 3b3d 3d43 57bd 762e 653c
00000380: d8fc fbbd f948 1e3d 4f38 03bb a2d9 2c3d
00000390: 8dd5 71bd 906b 40bd 88d5 7abd 4bd3 00bd
000003a0: e9f5 89bb 4ec4 99bd 2a63 593c 7864 e73c
000003b0: d26e 0f3c 9029 243c 3703 8b3d 4967 6d3d
000003c0: db6b 8d3b ff60 4ebd 6260 c5bc 9060 3bbd
000003d0: 6d57 c83b 98ed a1bd 3b55 e6bb 0804 21bd
000003e0: 43ea 743d 7fd5 1cbd 4069 663d 44ff 143d
000003f0: 4cae 593c f330 1dbd 5977 2abd b186 78bc

fc2.bias f4 [300]
0.016221218 0.02144947 -0.076299764 0.056968506 0.008798115 -0.09709486 0.008908023 -0.013388172
-0.032215655 -0.032247666 -0.055394925 -0.07573822 0.0060231457 0.0076895375 -0.0152073065 -0.0003463841
-0.07677285 0.007846301 0.045760926 -0.027092678 -0.04481533 -0.09871896 0.025609018 0.0016800835
-0.016251942 -0.039748598 0.015120391 0.030155623 -0.03251245 -0.04888649 -0.064194135 -0.08620671
-0.029632019 0.06849438 -0.07305657 -0.04730676 -0.029592628 -0.060807407 -0.013145034 -0.008060108
-0.09147597 0.028659469 0.02873422 -0.03205667 -0.011982406 0.011116653 -0.0931576 -0.009948325
0.04221222 -0.02383644 -0.03914999 -0.11921289 -0.08808831 -0.04970492 -0.08151851 -0.010309891
-0.061832987 -0.083776034 -0.10897089 -0.046604626 0.057969537 0.056222178 0.032989666 0.03266264
-0.07960979 -0.08416931 -0.0934466 0.04183992 -0.027865468 0.0019620014 -0.028342308 0.017580427
-0.05759998 -0.085707754 -0.045377634 -0.08911637 -0.0672347 0.024844132 -0.069578715 -0.043932468
-0.050190296 0.02853015 -0.07296511 0.0034848854 0.02657507 -0.014051319 -0.02317209 -0.005193992
-0.06678418 -0.030301735 -0.0090573495 -0.088352464 0.09619467 -0.051073957 0.058511317 0.015448107
-0.048067983 -0.078419715 0.10801604 -0.059397846 0.0013024515 -0.09613565 -0.08377694 -0.062425252
-0.121413775 -0.029054375 -0.08952023 -0.04864169 0.0038416244 -0.08314001 0.026549546 -0.057862956
0.037195783 0.060738444 -0.08328547 0.021672422 -0.052384045 0.10396125 -0.052184142 0.025535591
-0.020302696 -0.06322288 -0.10768288 -0.03792926 -0.095932566 -0.04457398 0.011512914 -0.0023211935
-0.004646877 -0.123282865 -0.03238431 -0.028077297 -0.008634089 -0.037837807 0.011640832 0.112063915
0.033327438 -0.033789795 -0.017560069 -0.07562458 -0.026407007 -0.07777995 0.00038909726 -0.022611672
-0.09130151 -0.0067318394 -0.0016296669 0.017853256 0.08224659 -0.030890582 -0.0729005 0.03267605
0.013583594 0.024137205 0.03049014 -0.0796754 0.01412099 -0.047641598 -0.020323519 -0.06656053
0.041460734 -0.13964428 -0.027586771 -0.019662695 -0.04641442 -0.030439215 -0.051599886 0.0046084668
-0.09781604 -0.014017141 -0.030376252 -0.081063576 -0.05657158 -0.0843613 -0.05700577 -0.08007449
-0.088029005 -0.08229661 -0.019431112 -0.079745255 0.015732154 -0.030525982 -0.03792783 -0.005518348
-0.027560502 0.007297694 -0.045148805 -0.05974186 -0.07704867 -0.0030281453 0.059054464 -0.04043257
-0.03948771 0.02165599 -0.045636926 -0.04092557 -0.082170196 0.041451134 0.08251257 -0.14098373
-0.09413728 -0.09587463 -0.04890616 -0.056085836 -0.010095312 -0.10281969 -0.10693401 -0.118603945
-0.0042069815 0.044504028 0.06970057 -0.03488844 -0.07387353 -0.011651709 -0.0081632 0.043401178
-0.08707732 -0.046130907 -0.03331197 -0.056540348 0.0032234283 0.022784546 -0.0034130313 0.0023435068
0.0018164394 0.005521949 -0.07252379 -0.043492556 -0.07769302 -0.025187697 -0.07918987 -0.048970096
0.020629212 -0.000895597 -0.036076196 -0.0016119628 -0.008652723 -0.07214148 -0.026171228 0.03547954
-0.044251636 -0.060317848 -0.05898208 -0.05615523 -0.0022215096 -0.09577609 0.027214922 -0.04402706
-0.06516462 -0.06408129 -0.024135869 -0.02663374 0.03525322 -0.03801759 -0.035938464 -0.021036765
00000000: 5ce2 843c cdb6 af3c 0d43 9cbd cf57 693d
00000010: f825 103c acd9 c6bd f5f2 113c 105a 5bbc
00000020: 90f4 03bd 2116 04bd cae5 62bd a41c 9bbd
00000030: cf5d c53b 84f8 fb3b 1128 79bc e39a b5b9
00000040: 153b 9dbd c68d 003c cf6f 3b3d 77f1 ddbc
00000050: 4890 37bd 2b2d cabd 01ca d13c 3f36 dc3a
00000060: cb22 85bc 6dcf 22bd 84bb 773c ed08 f73c
00000070: c62b 05bd 333d 48bd 3778 83bd 258d b0bd
00000080: d9be f2bc c846 8c3d af9e 95bd bcc4 41bd
00000090: 3d6c f2bc 3011 79bd 455e 57bc 8b0e 04bc
000000a0: c157 bbbd 43c7 ea3c 0764 eb3c db4d 03bd
000000b0: da51 44bc 9f22 363c 69c9 bebd 4dfe 22bc
000000c0: b9e6 2c3d a344 c3bc bd5b 20bd e325 f4bd
000000d0: a567 b4bd 6397 4bbd 2df3 a6bd d1ea 28bc
000000e0: 9644 7dbd c592 abbd 212c dfbd 7ee4 3ebd
000000f0: 7771 6d3d 3a49 663d 2c20 073d 43c9 053d
00000100: 750a a3bd f660 acbd ee60 bfbd 5660 2b3d
00000110: 1f46 e4bc ec94 003b 212e e8bc d404 903c
00000120: f5ed 6bbd 8c87 afbd e6dd 39bd a582 b6bd
00000130: 59b2 89bd ec85 cb3c 497f 8ebd 88f2 33bd
00000140: 5794 4dbd 10b8 e93c bb6e 95bd ad62 643b
00000150: f6b3 d93c 8137 66bc 65d3 bdbc 5d32 aabb
00000160: 25c6 88bd 583b f8bc 4765 14bc 23f2 b4bd
00000170: b601 c53d ed32 51bd 90a9 6f3d 0f1a 7d3c
00000180: efe2 44bd 849a a0bd 8337 dd3d 284b 73bd
00000190: 05b7 aa3a c5e2 c4bd 3f93 abbd 9fb1 7fbd
000001a0: c9a7 f8bd 7103 eebc 6256 b7bd 823c 47bd
000001b0: c3c3 7b3b 4f45 aabd 6f7e d93c b501 6dbd
000001c0: 9b5a 183d e0c8 783d 9391 aabd 5d8a b13c
000001d0: a790 56bd a3e9 d43d 0abf 55bd 0430 d13c
000001e0: d751 a6bc ff7a 81bd d788 dcbd b65b 1bbd
000001f0: 4b78 c4bd 3593 36bd a9a0 3c3c 2a1f 18bb
00000200: d444 98bb ba7b fcbd 69a5 04bd 5c02 e6bc
00000210: fe75 0dbc d1fb 1abd 30b9 3e3c c481 e53d
00000220: 5a82 083d 2b67 0abd 22da 8fbc 0fe1 9abd
00000230: 8253 d8bc 184b 9fbd c0ff cb39 1d3c b9bc
00000240: 49fc babd c396 dcbb 8c9a d5ba fe40 923c
00000250: e670 a83d 3f0e fdbc db4c 95bd 52d7 053d
00000260: b98d 5e3c 63bb c53c 75c6 f93c db2c a3bd
00000270: ba5b 673c d623 43bd 827d a6bc e350 88bd
00000280: bbd2 293d e9fe 0ebe a7fd e1bc a913 a1bc
00000290: 0c1d 3ebd a95b f9bc 675a 53bd 9f02 973b
000002a0: c753 c8bd 27a8 65bc 9ed7 f8bc a904 a6bd
000002b0: 9ab7 67bd 9ec5 acbd e27e 69bd 18fe a3bd
000002c0: 8d48 b4bd 208b a8bd ff2d 9fbc 7b51 a3bd
000002d0: b8e0 803c a011 fabc 365a 1bbd 42d3 b4bb
000002e0: 90c6 e1bc 7f21 ef3b f4ed 38bd e1b3 74bd
000002f0: b1cb 9dbd d973 46bb 18e3 713d 9f9c 25bd
00000300: ddbd 21bd e767 b13c c9ed 3abd 92a1 27bd
00000310: d948 a8bd aac8 293d 5afc a83d 0a5e 10be
00000320: 0ccb c0bd eb59 c4bd d351 48bd 43ba 65bd
00000330: cf66 25bc 2193 d2bd 3800 dbbd a0e6 f2bd
00000340: b8da 89bb db49 363d 2cbf 8e3d 2ee7 0ebd
00000350: 014b 97bd cfe6 3ebc f1be 05bc 6fc5 313d
00000360: 9855 b2bd c3f3 3cbd 2272 08bd da96 67bd
00000370: 2740 533b a8a6 ba3c 2aad 5fbb 8595 193b
00000380: 9815 ee3a 77f1 b43b 5a87 94bd 4025 32bd
00000390: 851d 9fbd 6e56 cebc 4c2e a2bd de94 48bd
000003a0: 98fe a83c 7fc6 6aba a2c4 13bd 7f48 d3ba
000003b0: 27c4 0dbc eabe 93bd 0b65 d6bc fe52 113d
000003c0: 3441 35bd d90f 77bd 3297 71bd 0703 66bd
000003d0: bf96 11bb 4126 c4bd d4f1 de3c b855 34bd
000003e0: 0775 85bd 0d3d 83bd 96b8 c5bc 002f dabc
000003f0: ae65 103d 55b8 1bbd 3634 13bd 4b55 acbc

fc3.weight f4 [2, 300]
0.23756634 -0.03460059 0.22559714 -0.054780994 0.10101634 -0.17280658 -0.10670574 0.15345989
-0.1197633 -0.008251771 0.1770732 0.21084778 -0.08198569 0.17645186 -0.10182739 0.22743627
-0.07905639 0.17721087 0.026139049 -0.1905806 0.0326049 -0.025523042 0.088490844 0.03334496
-0.10920029 0.25889742 0.18692268 -0.032580517 -0.019846655 0.25840303 0.14289612 0.23187895
0.090612404 -0.079016864 0.30598074 0.13780786 0.029786345 -0.11507839 0.04157518 0.030953903
-0.17600477 -0.08139606 -0.033174425 0.1323166 -0.19234878 0.08579308 0.1551885 -0.10272019
-0.08288277 0.061839797 -0.18776275 0.095533095 0.17860778 0.24821165 -0.06466417 0.019710366
-0.27174878 0.19252463 -0.023882044 0.031570707 -0.03866057 -0.01339228 -0.07450157 0.03640731
0.2820957 0.068848886 -0.13369192 0.040046025 -0.21230228 0.18740581 0.21183039 -0.07551281
0.3238182 0.18897328 -0.059127107 -0.01940822 0.060610082 0.014510789 0.14808647 0.2304256
0.091605 0.25066888 -0.22860034 -0.1628443 0.03910183 0.17143905 -0.12053268 0.1989212
-0.23734312 0.13370708 0.020942591 0.23732097 0.15749457 -0.0009084509 -0.056561355 0.16873336
0.0061218124 -0.1924706 -0.017652571 0.0066001606 -0.09122307 -0.13822384 0.13615242 -0.13276066
-0.26743528 0.016775504 -0.021967852 0.29726732 0.24558403 -0.011122456 -0.042241078 0.22070947
-0.02924581 0.09769989 0.045242187 0.23420516 0.08241601 -0.022848435 0.0677352 0.21786903
-0.0012679845 0.24690074 -0.20397393 -0.0562264 -0.0022106469 0.21465024 0.23676641 0.010314144
0.03833911 -0.07712249 0.17593406 0.013290223 0.22756267 0.028003372 -0.051357016 -0.003646737
0.25907707 -0.029541288 0.23777327 0.2546486 0.30384114 0.15140176 0.0055362987 0.22965875
0.24588336 0.1315089 -0.09422231 0.20715617 0.055751227 0.28074622 -0.13828692 -0.06578982
0.14226831 -0.08553255 0.061572194 -0.004547728 -0.064451285 -0.1578183 0.08232948 0.29187903
0.13789144 -0.22401933 -0.13079798 -0.090905696 0.059634406 -0.0282572 -0.07746328 0.123306386
-0.05397794 -0.10762674 0.085429884 -0.08791753 -0.10462722 -0.22681731 0.0071044113 0.043193374
0.19694914 0.24191207 0.28403202 0.30547667 0.050254945 -0.034603372 0.15719832 -0.04270654
0.0073215947 0.15771626 -0.14014909 -0.094064936 0.19818015 0.08062887 0.121779196 0.258703
0.19744222 0.17266881 0.09828091 0.18356754 0.2360033 0.10045901 0.005184146 -0.21837316
-0.21232612 -0.022776723 0.24302992 0.12828812 0.2052057 0.04357607 0.035381943 0.08988492
0.19131798 0.068269685 0.033308342 -0.05350472 0.15024178 0.031662095 0.25074068 0.034508802
-0.024212891 -0.1949994 0.268693 0.156622 0.19856335 0.2811975 0.26535785 0.24005531
-0.067467175 0.15619077 0.017862057 0.03456501 -0.09173039 0.014191349 0.037052013 0.039355643
0.0639636 -0.058098223 -0.11679419 -0.04039061 -0.028743017 -0.03155371 0.23657882 0.22014236
0.24072386 -0.17453933 0.0016073751 0.13535333 0.057613496 -0.22301398 0.08763649 0.28949338
-0.049331423 -0.15587254 0.094674334 0.28068268 0.23106597 -0.01936662 -0.054653198 0.22138754
00000000: 9744 733e 59b9 0dbd f002 673e 0962 60bd
00000010: a8e1 ce3d 35f4 30be 8a88 dabd 9724 1d3e
00000020: 7646 f5bd 7032 07bc ad52 353e 7be8 573e
00000030: 1de8 a7bd ccaf 343e e18a d0bd 0ee5 683e
00000040: 51e8 a1bd c476 353e 8f21 d63c 9027 43be
00000050: b78c 053d b315 d1bc b03a b53d ba94 083d
00000060: 67a4 dfbd 348e 843e a968 3f3e 2673 05bd
00000070: 7495 a2bc 674d 843e 5c53 123e ad71 6d3e
00000080: ff92 b93d 98d3 a1bd 82a9 9c3e 811d 0d3e
00000090: 7e02 f43c 38ae ebbd bc4a 2a3d 0a93 fd3c
000000a0: 983a 34be fab2 a6bd e8e1 07bd 017e 073e
000000b0: 14f7 44be 48b4 af3d bce9 1e3e f75e d2bd
000000c0: 71be a9bd ba4b 7d3d e144 40be dba6 c33d
000000d0: f5e4 363e 322b 7e3e a66e 84bd a277 a13c
000000e0: a822 8bbe 2d25 453e 47a4 c3bc 4950 013d
000000f0: 8c5a 1ebd 4b6b 5bbc 4794 98bd d51f 153d
00000100: d96e 903e a500 8d3d 89e6 08be 4d07 243d
00000110: c565 59be 4fe7 3f3e 11ea 583e 76a6 9abd
00000120: 80cb a53e 3682 413e 442f 72bd fdfd 9ebc
00000130: 4742 783d a9be 6d3c fba3 173e b0f4 6b3e
00000140: 679b bb3d ac57 803e 3516 6abe a8c0 26be
00000150: 3e29 203d b88d 2f3e d6d9 f6bd 00b2 4b3e
00000160: 130a 73be 82ea 083e cc8f ab3c 4504 733e
00000170: 4246 213e 1c25 6eba e1ac 67bd 70c8 2c3e
00000180: 7c99 c83b 0317 45be 209c 90bc 2946 d83b
00000190: 29d3 babd 8d8a 0dbe 8a6b 0b3e 69f2 07be
000001a0: 47ed 88be c86c 893c edf5 b3bc 6c33 983e
000001b0: 617a 7b3e f63a 36bc fb04 2dbd aa01 623e
000001c0: e994 efbc e116 c83d df4f 393d 7ad3 6f3e
000001d0: bac9 a83d a42c bbbc c1b8 8a3d 0f19 5f3e
000001e0: 8032 a6ba 8cd3 7c3e 8bde 50be a74d 66bd
000001f0: 80e0 10bb 46cd 5b3e e572 723e a8fc 283c
00000200: 7809 1d3d 65f2 9dbd 0f28 343e 3cbf 593c
00000210: 3006 693e 5467 e53c bc5b 52bd 18fe 6ebb
00000220: c0a5 843e 9200 f2bc d67a 733e 4d61 823e
00000230: 1191 9b3e 1009 1b3e d769 b53b aa2b 6b3e
00000240: d9c8 7b3e 45aa 063e a0f7 c0bd bf20 543e
00000250: 665b 643d f8bd 8f3e 169b 0dbe d0bc 86bd
00000260: c9ae 113e b12b afbd 2033 7c3d 1c05 95bb
00000270: 09ff 83bd 1f9b 21be 5c9c a83d 2b71 953e
00000280: 6a33 0d3e 5365 65be e8ef 05be c42c babd
00000290: 3543 743d a57b e7bc 11a5 9ebd 0f88 fc3d
000002a0: f917 5dbd 696b dcbd ddf5 ae3d 1b0e b4bd
000002b0: cc46 d6bd cc42 68be 1fcc e83b 89eb 303d
000002c0: 09ad 493e ccb7 773e a56c 913e 7067 9c3e
000002d0: 21d8 4d3d 44bc 0dbd 99f8 203e 0eed 2ebd
000002e0: fde9 ef3b 5f80 213e 3e83 0fbe 1ea5 c0bd
000002f0: bdef 4a3e c020 a53d 5f67 f93d b874 843e
00000300: 4b2e 4a3e 18d0 303e 8047 c93d 21f9 3b3e
00000310: d9aa 713e 74bd cd3d c5df a93b 379d 5fbe
00000320: 056c 59be 4096 babc d6dc 783e f65d 033e
00000330: 7121 523e d27c 323d a8ec 103d 9615 b83d
00000340: dce8 433e fad0 8b3d 546e 083d c427 5bbd
00000350: fbd8 193e 1db0 013d 1561 803e 1a59 0d3d
00000360: 1d5a c6bc ecad 47be 2192 893e 8461 203e
00000370: 3154 4b3e 1ef9 8f3e fcdc 873e 0fd1 753e
00000380: 3b2c 8abd 79f0 1f3e 7353 923c 0a94 0d3d
00000390: 25dd bbbd d582 683c dac3 173d 6233 213d
000003a0: 59ff 823d 67f8 6dbd cb31 efbd a070 25bd
000003b0: 7a76 ebbc 773e 01bd b841 723e 006d 613e
000003c0: 5180 763e 70ba 32be 8fae d23a 109a 0a3e
000003d0: 21fc 6b3d c75d 64be c37a b33d 7a38 943e
000003e0: bf0f 4abd 0d9d 1fbe 9ee4 c13d a4b5 8f3e
000003f0: 8f9c 6c3e bfa6 9ebc 08dc 5fbd 6ab3 623e

fc3.bias f4 [2]
0.060982198 -0.15007897
00000000: 78c8 793d 4dae 19be

bn1.weight f4 [400]
0.83518815 0.43507993 -0.016689997 0.53559196 0.53277606 0.87459683 0.13559999 0.57931906
0.12651752 0.3030212 0.8290545 0.5813772 0.6243776 0.30412376 0.797792 0.35795388
0.47060195 0.9823418 0.35616305 0.5677262 0.04857177 0.1679967 0.10884899 0.09798487
0.24308185 0.14316203 0.195704 0.07115312 0.511051 0.98122054 0.86019105 0.48881826
0.50963175 0.8288396 0.39892423 0.39158443 0.6932571 0.4650404 0.13281587 0.1080053
0.5336073 0.18752924 0.098347805 0.42239103 0.34024176 0.25170994 0.82869947 0.9614381
0.7528838 0.24213775 0.6124624 0.37215662 0.100038916 0.5552321 0.8099259 0.7368566
0.19035429 0.60114676 0.79640836 0.75051266 0.5397182 0.5946907 0.047272943 0.3500218
0.30554235 0.19117843 0.69305265 0.3151266 0.1117765 0.8729504 0.29156366 0.8208773
0.9047459 0.38434786 0.6554673 0.7091607 0.72737926 0.58494097 0.5023346 0.8730163
0.1727365 0.7373414 0.5330973 0.176724 0.07370122 0.44851652 0.58917856 0.5488048
0.69860256 0.29592153 0.44015282 1.0238762 0.4312495 0.68045646 0.35210356 0.2151033
0.43301722 0.45995545 0.44841185 0.06447919 0.7836464 0.05865372 0.8192884 0.5103199
0.71627074 0.79368806 0.5646935 0.3647104 0.22796732 0.053693153 0.8474945 0.43432316
-0.06251778 0.1157404 0.433896 0.22955468 0.13922986 0.21024902 0.050493103 0.35819763
0.7928631 0.33886513 0.43903974 0.6180673 0.30639154 0.71899813 0.7739425 0.09798145
0.4805584 0.31649306 0.49792793 0.33130932 0.46383828 0.38772473 0.27012324 0.858713
0.9388386 0.9450522 0.09626134 0.8148729 0.63074565 0.26194727 0.6964555 0.4698487
0.44177672 0.69528913 0.7435952 0.66572547 0.88072664 0.9402902 0.20964456 0.44033903
0.44564402 0.17076024 0.79861045 0.51040506 0.8033518 0.11904009 0.38606396 0.7882407
0.3144432 0.18074542 0.750009 0.6988508 0.2345797 0.23249578 0.9197846 0.39903986
0.7022037 0.7249963 0.88398755 0.7907435 0.03796348 0.63883114 0.55407727 0.40509766
0.8165289 0.86999553 0.92453724 0.6715536 0.51614565 0.6079916 0.92896384 0.7156275
0.15981594 0.09169383 0.47686547 0.643903 0.47353095 0.07036458 0.2799143 0.8258286
0.19626616 0.32952005 0.49168372 0.5817929 0.13643116 0.35462394 0.2851924 0.8493755
0.71366554 0.87364393 0.21987411 0.31297538 0.8093844 0.42106822 0.85606146 0.41646403
0.07460201 0.82006496 0.6866773 0.9588372 0.31252256 0.038953982 0.4241021 0.89544994
0.03035634 0.5731582 0.46986157 0.24211441 0.5035085 0.15382034 0.32788816 0.7837914
0.10867354 0.6553786 0.91170895 0.93963987 0.85064876 0.7923544 0.3423344 0.53127915
0.106643036 0.73848075 0.64065295 0.6264683 0.34410694 0.9687185 0.6606784 0.076574326
0.22226003 0.3791346 -0.005912576 0.5112266 0.024174487 0.19263835 0.8861428 0.04061665
0.9324408 0.20781763 0.6433131 0.46173915 0.54834324 0.7161457 0.9578066 0.20078914
00000000: e4ce 553f ccc2 de3e 76b9 88bc 8e1c 093f
00000010: 0364 083f 94e5 5f3f b9da 0a3e 414e 143f
00000020: cf8d 013e 9825 9b3e ea3c 543f 23d5 143f
00000030: 36d7 1f3f 1cb6 9b3e 193c 4c3f bb45 b73e
00000040: bdf2 f03e c17a 7b3f 015b b63e 8156 113f
00000050: 31f3 463d 5407 2c3e 38ec de3d 4bac c83d
00000060: 73ea 783e 1199 123e a166 483e bab8 913d
00000070: 3dd4 023f 4531 7b3f 7b35 5c3f 6346 fa3e
00000080: 3a77 023f d52e 543f cc3f cc3e c17d c83e
00000090: 4c79 313f c619 ee3e e200 083e e231 dd3d
000000a0: 7d9a 083f aa07 403e 936a c93d a343 d83e
000000b0: 2b34 ae3e 20e0 803e a625 543f cf20 763f
000000c0: febc 403f f5f2 773e 56ca 1c3f 508b be3e
000000d0: 34e1 cc3d b123 0e3f 4e57 4f3f a2a2 3c3f
000000e0: 3cec 423e c1e4 193f 6be1 4b3f 9921 403f
000000f0: f92a 0a3f a63d 183f 46a1 413d 0f36 b33e
00000100: 0c70 9c3e 47c4 433e e66b 313f 4658 a13e
00000110: 14eb e43d ad79 5f3f d547 953e 0425 523f
00000120: 6d9d 673f 3ec9 c43e b4cc 273f 8e8b 353f
00000130: 8735 3a3f b1be 153f 0099 003f ff7d 5f3f
00000140: d6e1 303e 68c2 3c3f 1179 083f 23f7 343e
00000150: aaf0 963d f5a3 e53e 68d4 163f 797e 0c3f
00000160: 9ed7 323f 0783 973e b65b e13e 600e 833f
00000170: bccc dc3e 6532 2e3f eb46 b43e 0a44 5c3e
00000180: 6fb4 dd3e 487f eb3e 3d96 e53e aa0d 843d
00000190: 0d9d 483f e23e 703d e2bc 513f 53a4 023f
000001a0: 855d 373f 242f 4b3f c18f 103f 52bb ba3e
000001b0: 4470 693e 5aed 5b3d 66f5 583f 9b5f de3e
000001c0: 5209 80bd 4e09 ed3d 9e27 de3e 6210 6b3e
000001d0: 4692 0e3e 854b 573e dbd1 4e3d ae65 b73e
000001e0: 13f9 4a3f bb7f ad3e d1c9 e03e a939 1e3f
000001f0: 5adf 9c3e 4310 383f 1821 463f 80aa c83d
00000200: c00b f63e 610b a23e 69f0 fe3e 60a1 a93e
00000210: 367c ed3e db83 c63e 984d 8a3e 9dd4 5b3f
00000220: ba57 703f f1ee 713f aa24 c53d 839b 503f
00000230: 8c78 213f f41d 863e e84a 323f 0290 f03e
00000240: 8f30 e23e 78fe 313f 415c 3e3f fc6c 2a3f
00000250: 4d77 613f dcb6 703f 10ad 563e 1e74 e13e
00000260: 742b e43e c6db 2e3e bc71 4c3f e8a9 023f
00000270: 77a8 4d3f 4acb f33d 2daa c53e 24ca 493f
00000280: b3fe a03e 5415 393e 9700 403f e3e7 323f
00000290: a935 703e 6013 6e3e 0177 6b3f f44e cc3e
000002a0: 9fc3 333f 5c99 393f 024d 623f 2b6e 4a3f
000002b0: 987f 1b3d 708a 233f 02d8 0d3f f668 cf3e
000002c0: 0a08 513f 07b8 5e3f 79ae 6c3f f0ea 2b3f
000002d0: 1f22 043f 56a5 1b3f 93d0 6d3f 5d33 373f
000002e0: caa6 233e fac9 bb3d b627 f43e d4d6 243f
000002f0: a672 f23e 4e1b 903d ed50 8f3e 8169 533f
00000300: fff9 483e dab6 a83e f8bd fb3e 61f0 143f
00000310: 9cb4 0b3e 4591 b53e bd04 923e ac70 593f
00000320: c9b2 363f 21a7 5f3f ae26 613e 4f3e a03e
00000330: d133 4f3f 4196 d73e d826 5b3f c63a d53e
00000340: f0c8 983d c7ef 513f 15ca 2f3f 5b76 753f
00000350: f502 a03e 368e 1f3d e923 d93e 353c 653f
00000360: dcad f83c 7fba 123f b291 f03e d7ec 773e
00000370: efe5 003f 1483 1d3e f5e0 a73e 8ea6 483f
00000380: 3c90 de3d e4c6 273f c265 693f 3d8c 703f
00000390: 1ec4 593f bdd7 4a3f 7446 af3e e901 083f
000003a0: aa67 da3d 130d 3d3f d501 243f 3a60 203f
000003b0: c92e b03e f0fd 773f 3822 293f 00d3 9c3d
000003c0: 2298 633e ee1d c23e 48be c1bb bfdf 023f
000003d0: 9309 c63c fd42 453e 41da 623f a55d 263d
000003e0: 71b4 6e3f 25ce 543e 2bb0 243f 1369 ec3e
000003f0: 3960 0c3f 5355 373f d032 753f ab9b 4d3e

bn1.bias f4 [400]
0.0950088 -0.06319753 0.06477486 -0.007817215 -0.022752332 0.04729293 0.040007368 0.0005044924
0.14239915 -0.14760499 0.055014264 -0.063774765 -0.034614507 -0.0024537013 -0.034891084 0.15127346
0.22573134 0.057638273 -0.07380393 -0.18093048 -0.16612172 0.027783617 0.087563984 -0.2301038
-0.05909094 0.12156471 -0.052724846 -0.04433183 -0.008721213 0.05122072 -0.08252408 -0.07935752
0.14762627 0.050241902 -0.026881486 -0.14039055 -0.044513963 0.13959539 0.08394939 0.17582898
0.07865083 -0.07975087 -0.09366342 0.13665356 0.094238475 -0.10220069 -0.011635887 -0.034943342
-0.017230796 -0.009603913 -0.06397972 0.19991344 0.21193121 0.17417632 -0.10315288 -0.11896246
-0.13799617 0.008986733 -0.03877218 -0.12277288 0.23819064 0.039772984 0.10243448 0.0031615496
-0.09894049 0.08112674 -0.18670739 -0.122564554 -0.2285584 0.01018324 0.11929174 -0.21789593
0.03987536 -0.16310315 -0.11611754 0.13792044 -0.031999514 0.12396221 -0.17145601 0.021008825
-0.0366311 0.021453021 -0.03924361 -0.091500536 0.20499514 -0.09777816 -0.08979401 -0.1101798
0.13714851 -0.0114936065 -0.1434365 0.092954606 0.18567587 -0.061944082 0.16833246 -0.090319626
-0.07830542 0.105785154 -0.03244966 0.040759664 0.12346238 0.074506916 0.13203512 0.02078895
0.0802634 -0.09845521 -0.09364355 -0.068214916 -0.13425614 -0.19398092 0.21436195 -0.059374064
-0.20417422 -0.15091614 -0.14873089 0.07199982 -0.10639156 -0.07545207 -0.25753605 -0.06914763
-0.006312542 -0.056692835 0.046142112 0.11135145 0.06359779 -0.048074123 0.016918333 -0.15606363
0.16471618 -0.1300972 0.10600338 0.14400586 -0.023118956 0.117500074 -0.071844734 0.1250627
0.061744895 0.05464343 0.11552999 -0.011207521 0.06018582 -0.005013029 -0.00927829 -0.032270458
-0.06434557 -0.12720689 0.13236709 -0.14669913 -0.017643752 0.022376927 -0.12451144 -0.100357085
-0.09139193 -0.0017572045 0.1463672 -0.12669317 -0.019244293 -0.25465107 -0.13390052 -0.0019827732
-0.02828771 -0.13813837 0.030122608 -0.09304324 0.05224427 -0.1477622 0.13478757 -0.094731055
0.18170996 0.11187846 -0.17365281 0.09400653 0.111417346 0.13804337 0.014369267 -0.039736006
-0.047781203 0.038348347 0.079431035 -0.14167081 0.02216835 -0.009646327 0.16496037 0.07662155
0.03882478 -0.18242446 -0.13569929 -0.055605933 0.11339368 0.11771295 -0.078005 0.08102176
0.14222631 -0.03907864 0.08772873 0.11125255 -0.0627973 -0.09759127 -0.040338393 0.064386986
-0.08744078 0.016049165 -0.03596724 0.11553014 -0.08912873 0.075897634 -0.046057962 -0.012075507
0.15689056 0.013338401 0.06358571 -0.044950113 0.1502383 -0.16609938 -0.03313827 -0.10644668
-0.242133 0.08453663 -0.02471788 0.2060749 0.15670928 0.059814595 0.16061701 -0.08196856
0.21164916 -0.015466481 0.029168908 -0.08126781 0.008238514 0.07213258 0.039175626 0.031539656
-0.02908403 0.08010281 -0.0022307506 -0.0041982736 -0.022551158 0.10339943 0.047610357 -0.17303331
0.07129713 -0.1092538 -0.16369209 0.1355233 -0.20694365 0.092155784 0.19945374 -0.009607699
-0.07386545 0.18032762 -0.051937006 -0.030701885 0.1886158 0.046364192 0.17397864 0.121566236
00000000: f993 c23d b56d 81bd afa8 843d c713 00bc
00000010: 1963 babc 3bb6 413d c4de 233d e93f 043a
00000020: 15d1 113e c325 17be a356 613d 589c 82bd
00000030: f1c7 0dbd 47ce 20bb f4e9 0ebd 6ee7 1a3e
00000040: 1e26 673e 1c16 6c3d 8426 97bd d745 39be
00000050: d01b 2abe 789a e33c bf54 b33d 55a0 6bbe
00000060: 5709 72bd ebf6 f83d 02f6 57bd 4b95 35bd
00000070: 6be3 0ebc d1cc 513d 6302 a9bd 3286 a2bd
00000080: 572b 173e 74ca 4d3d 9036 dcbc 8ac2 0fbe
00000090: 4654 36bd 18f2 0e3e a8ed ab3d 830c 343e
000000a0: b013 a13d 6d54 a3bd 9bd2 bfbd e9ee 0b3e
000000b0: 1a00 c13d 984e d1bd 73a4 3ebc c020 0fbd
000000c0: 9927 8dbc bb59 1dbc cd07 83bd 1cb6 4c3e
000000d0: 7f04 593e 475b 323e d141 d3bd 97a2 f3bd
000000e0: de4e 0dbe 173d 133c 94cf 1ebd 5970 fbbd
000000f0: 3fe8 733e ffe8 223d 2bc9 d13d 0032 4f3b
00000100: 50a1 cabd c725 a63d 3930 3fbe 2003 fbbd
00000110: 370b 6abe 9bd7 263c 3a4f f43d 1c20 5fbe
00000120: 5854 233d 8304 27be 08cf edbd 043b 0d3e
00000130: ec11 03bd e6df fd3d 2a92 2fbe b31a ac3c
00000140: 7e0a 16bd 3fbe af3c e8bd 20bd a264 bbbd
00000150: 3fea 513e ea3f c8bd ece5 b7bd f2a5 e1bd
00000160: a970 0c3e ae4f 3cbc 05e1 12be fc5e be3d
00000170: d121 3e3e 14b9 7dbd 585f 2c3e 7ff9 b8bd
00000180: 985e a0bd e3a5 d83d efe9 04bd 9bf3 263d
00000190: d8d9 fc3d 1597 983d 3734 073e 974d aa3c
000001a0: 2361 a43d e3a2 c9bd 31c8 bfbd 43b4 8bbd
000001b0: 717a 09be efa2 46be b381 5b3e 3832 73bd
000001c0: 0c13 51be c389 1abe e94c 18be a474 933d
000001d0: d1e3 d9bd 9d86 9abd c4db 83be 469d 8dbd
000001e0: 71d9 cebb bf36 68bd 83ff 3c3d 3b0c e43d
000001f0: 8f3f 823d 5fe9 44bd 5198 8a3c 25cf 1fbe
00000200: 5cab 283e 3338 05be 4d18 d93d 4676 133e
00000210: f763 bdbc e1a3 f03d 5523 93bd 7010 003e
00000220: 37e8 7c3d cad1 5f3d fd9a ec3d c09f 37bc
00000230: 6885 763d 5644 a4bb f803 18bc 072e 04bd
00000240: 9cc7 83bd 8642 02be 3d8b 073e 4c38 16be
00000250: a189 90bc d14f b73c dbff febd 0488 cdbd
00000260: b12b bbbd 0052 e6ba 49e1 153e dbbb 01be
00000270: 35a6 9dbc a061 82be 381d 09be 6af1 01bb
00000280: a1bb e7bc 2574 0dbe b0c3 f63c 748d bebd
00000290: 16fe 553d f94e 17be c105 0a3e 5b02 c2bd
000002a0: 2d12 3a3e 8920 e53d 0bd2 31be 7f86 c03d
000002b0: c72e e43d 3e5b 0d3e 136d 6b3c 39c2 22bd
000002c0: 39b6 43bd 2813 1d3d bdac a23d 2712 11be
000002d0: 669a b53c a10b 1ebc 5feb 283e c2eb 9c3d
000002e0: bc06 1f3d 7acd 3abe c1f4 0abe 0cc3 63bd
000002f0: f23a e83d 7d13 f13d 16c1 9fbd bdee a53d
00000300: c6a3 113e ed10 20bd 1fab b33d 60d8 e33d
00000310: df9b 80bd efdd c7bd df39 25bd 53dd 833d
00000320: 2714 b3bd 8a79 833c 6252 13bd 119b ec3d
00000330: 2089 b6bd 3870 9b3d 46a7 3cbd 59d8 45bc
00000340: eba7 203e 4f89 5a3c 3a39 823d 9c1d 38bd
00000350: 12d8 193e f515 2abe ffbb 07bd b800 dabd
00000360: b7f1 77be 8a21 ad3d 277d cabc 4c05 533e
00000370: 6678 203e 2600 753d c978 243e 22df a7bd
00000380: 8fba 583e 2067 7dbc a2f3 ee3c bd6f a6bd
00000390: d5fa 063c 3fba 933d 9f76 203d ba2f 013d
000003a0: a241 eebc f10c a43d c931 12bb ac91 89bb
000003b0: 35bd b8bc 15c3 d33d 1403 433d a52f 31be
000003c0: 3b04 923d 75c0 dfbd e69e 27be 9fc6 0a3e
000003d0: 09e9 53be 2cbc bc3d 9a3d 4c3e 9c69 1dbc
000003e0: c546 97bd cea7 383e e6bb 54bd 8582 fbbc
000003f0: 8024 413e 61e8 3d3d 7527 323e b8f7 f83d

bn1.running_mean f4 [400]
0.57831764 0.61345786 2.6465595 1.7812961 0.41576746 1.0804685 0.05362286 0.10682271
0.13571964 0.22907932 0.6683346 0.15722416 1.8172632 0.25842482 0.26257476 1.8244051
0.42131135 1.5102228 0.0077638063 0.050519064 1.9861822 0.48276657 0.3748558 0.0123882955
0.17437412 3.9405274 0.5057691 0.9120595 0.25857306 0.058287073 0.3298674 1.5659971
0.23596151 1.6718396 0.8120693 0.00021091037 0.97952735 0.6995982 0.28628814 0.5093301
0.075740516 0.042227797 0.5133088 0.1110161 1.1105068 6e-45 0.06304938 0.17685162
0.37272608 0.8495975 0.028279476 0.42548922 3.7208095 0.16240065 1.8165374 0.029367631
2.8110502 2.665354 0.21127523 0.08630333 0.34659517 2.7403088 1.454485 1.5312251
0.00025838095 0.004549401 2.5775776 0.32694983 4.562853 0.052705336 0.33846468 6e-45
1.1019868 0.49717593 0.043922376 0.14687984 0.27878717 2.4883544 0.086982146 0.019562224
0.615982 0.42196554 1.4784296 0.047148075 2.7907186 0.2719659 0.11414256 0.35008034
0.035032626 2.440573 1.0873779 0.0224894 3.1334195 0.21298973 1.0778028 0.17688464
6e-45 0.64712363 1.3665868 2.9783518 0.15915969 2.4386299 0.2621988 1.9677379
3.5513763 0.6603914 0.44333652 1.7849345 0.26417348 0.17954311 0.011800707 0.028560812
0.021653203 3.956457 0.47077563 0.7161268 0.4311792 0.06303386 3.3348224 0.21767686
0.35876438 2.927931 0.86127746 0.7764864 0.49009877 0.6903087 1.7998534 3.2192245
0.94862354 0.6815227 0.06426104 0.13235289 0.2178167 0.5122898 0.59416085 1.7577108
0.3095051 0.46380606 0.056080986 2.42591 0.4432699 1.4453403 1.8104575 0.25844744
0.29111257 2.6423163 1.0441658 0.051554244 2.2158263 0.056181494 0.014770259 0.47650474
1.0636752 0.027828751 1.1770126 0.15539369 1.5790842 1.0876025 0.1901627 0.12324954
0.37235042 0.253927 0.04388131 0.85772485 1.2396424 0.23638959 0.0630248 0.44400078
0.15739068 0.28923476 0.8438948 0.9051643 0.65042776 0.16316923 1.4854478 0.19116703
1.0324162 0.7342765 0.055585757 1.0559404 0.05717779 3.2720785 1.651525 0.06287436
0.33114114 1.511438 0.315508 6e-45 0.3896539 0.19735721 0.0605286 0.09399675
0.4633661 0.15419012 4.3479047 2.0791254 0.055741217 1.1088337 0.9358912 2.70859
0.22880855 1.8946376 0.008783624 0.06785226 0.5143738 1.2303683 0.12935449 3.0492413
4.051789 3.0262637 0.21665278 1.597699 0.22683047 0.10631095 2.938034 0.43027428
1.2135808 1.1863159 0.8310785 0.2862621 0.1989147 0.65252334 1.5763392 0.6525399
0.6049148 0.7864499 1.9776987 0.092262246 0.61432344 0.3944341 0.2130668 1.0768596
0.45109653 0.63301784 0.6943204 0.6115876 0.5090095 2.2219744 2.5166512 2.1056757
3.8423738 1.8043741 0.08143362 0.5999845 2.6971786 0.24505201 0.09617226 2.9965808
0.6554781 0.14711352 0.7345936 2.7999034 1.0405143 6e-45 0.51913047 0.5813458
00000000: a00c 143f 930b 1d3f 3b61 2940 8301 e43f
00000010: 79df d43e cb4c 8a3f a5a3 5b3d ddc5 da3d
00000020: 17fa 0a3e c593 6a3e fa17 2b3f 5fff 203e
00000030: 159c e83f 4250 843e 3370 863e 1b86 e93f
00000040: 1fb6 d73e fb4e c13f 8767 fe3b 14ed 4e3d
00000050: 383b fe3f 2e2d f73e 19ed bf3e 47f8 4a3c
00000060: 218f 323e 9a31 7c40 157a 013f bb7c 693f
00000070: b063 843e 6dbe 6e3d 61e4 a83e 9872 c83f
00000080: e59f 713e d7fe d53f c6e3 4f3f d227 5d39
00000090: 4ec2 7a3f de18 333f 5c94 923e 7563 023f
000000a0: d81d 9b3d 0ef7 2c3d 3568 033f 695c e33d
000000b0: 1625 8e3f 0400 0000 0920 813d 9718 353e
000000c0: f4d5 be3e 397f 593f 5caa e73c b9d9 d93e
000000d0: be21 6e40 5b4c 263e 4c84 e83f 6394 f03c
000000e0: 3fe8 3340 2995 2a40 8958 583e cdbf b03d
000000f0: ec74 b13e 3861 2f40 912c ba3f 2fff c33f
00000100: 4e77 8739 2413 953b 08f7 2440 f865 a73e
00000110: e402 9240 8de1 573d 3e4b ad3e 0400 0000
00000120: e70d 8d3f d88d fe3e f3e7 333d ab67 163e
00000130: 31bd 8e3e 3341 1f40 b223 b23d f540 a03c
00000140: ffb0 1d3f de0b d83e 2e3d bd3f 571e 413d
00000150: 229b 3240 1d3f 8b3e 93c3 e93d bb3d b33e
00000160: 5f7e 0f3d 5932 1c40 332f 8b3f b13b b83c
00000170: f289 4840 fb19 5a3e 71f5 893f 3f21 353e
00000180: 0400 0000 e5a9 253f 51ec ae3f 519d 3e40
00000190: c2fa 223e 8312 1c40 ec3e 863e d6de fb3f
000001a0: c049 6340 690f 293f 01fd e23e bc78 e43f
000001b0: bf41 873e 26da 373e c157 413c 5df8 e93c
000001c0: 0f62 b13c 9736 7d40 8109 f13e 1654 373f
000001d0: 85c3 dc3e e517 813d bb6d 5540 afe6 5e3e
000001e0: f7af b73e 3963 3b40 ae7c 5c3f d0c7 463f
000001f0: 3aee fa3e 12b8 303f 9961 e63f c607 4e40
00000200: fed8 723f 4678 2e3f 4b9b 833d 8487 073e
00000210: 570b 5f3e 6d25 033f ed1a 183f abfc e03f
00000220: 7477 9e3e fd77 ed3e 2db5 653d 1c42 1b40
00000230: 46f4 e23e e900 b93f 12bd e73f 3953 843e
00000240: b50c 953e b61b 2940 3aa7 853f 8b2a 533d
00000250: 19d0 0d40 911e 663d f5fe 713c 6ef8 f33e
00000260: 8226 883f 1ff9 e33c 59a8 963f 861f 1f3e
00000270: 6e1f ca3f 8f36 8b3f 03ba 423e 416a fc3d
00000280: b7a4 be3e b802 823e e3bc 333d db93 5b3f
00000290: 9aac 9e3f 1d10 723e 2513 813d 1254 e33e
000002a0: 062b 213e 9416 943e 7d09 583f d9b8 673f
000002b0: 6f82 263f d615 273e 2723 be3f 4ac1 433e
000002c0: 3726 843f 8bf9 3b3f e4ad 633d 0e29 873f
000002d0: 4233 6a3d bc69 5140 2c65 d33f 46c4 803d
000002e0: 558b a93e cd76 c13f 448a a13e 0400 0000
000002f0: b780 c73e 0218 4a3e d6ec 773d 5e81 c03d
00000300: 523e ed3e 04e4 1d3e 0922 8b40 6410 0540
00000310: e750 643d 43ee 8d3f 9196 6f3f 8a59 2d40
00000320: ca4c 6a3e 7c83 f23f 30e9 0f3c 20f6 8a3d
00000330: 00ae 033f b57c 9d3f 8175 043e c526 4340
00000340: 41a8 8140 4eae 4140 3ada 5d3e 6781 cc3f
00000350: 3f46 683e 8eb9 d93d c008 3c40 e94c dc3e
00000360: 9e56 9b3f 33d9 973f 90c1 543f f290 923e
00000370: 4cb0 4b3e c50b 273f 7cc5 c93f db0c 273f
00000380: b2db 1a3f c854 493f 3b25 fd3f fdf3 bc3d
00000390: 4d44 1d3f 44f3 c93e 2f2e 5a3e 89d6 893f
000003a0: 20f6 e63e 750d 223f fbbe 313f 0191 1c3f
000003b0: 724e 023f d434 0e40 d010 2140 64c3 0640
000003c0: 74e9 7540 bbf5 e63f abc6 a63d 9698 193f
000003d0: 939e 2c40 eaee 7a3e f6f5 c43d fbc7 3f40
000003e0: 6acd 273f eda4 163e 530e 3c3f 9e31 3340
000003f0: 932f 853f 0400 0000 bce5 043f 14d3 143f
