Navigation/checkpoints/DQN_checkpoint.pth (torch_old, 205807 bytes, 8 tensors)

fc1.weight f4 [256, 37]
00000000: adc1 313c 5786 8f3e 4ada 3dbe 089b d5bd
00000010: f092 5c39 da16 33be ccc4 923d 02b6 e93e
00000020: 8bd2 8d3e e950 c33d e18a 123d 1ea8 f4bd
00000030: 1f74 b03d 567a acbd fa29 32bf b26c efbe
00000040: 3650 953e f296 b23e 645b 9f3c 4042 b3bb
00000050: e660 883e 308a fc3e 9e49 c73d a235 25bf
00000060: c819 a2bc 1a5a a73d ddf7 d63d 8420 c23d
00000070: 92e3 053d 9363 8f3e 0ebb 043f dc91 5fbd
00000080: bfcc 03bf fd15 20bf abb0 32bf 3f12 83bc
00000090: 1e4a c8bd c0da 6dbd 6e48 9d3d 54ae 96be
000000a0: fff9 1abf 3ac6 e6be acb6 bcbe 709a 10be
000000b0: 7310 f4be 6775 e33c bd84 cc3d 5112 3bbd
000000c0: e491 bebe 79c1 fcbe 7a0f 143d 6e5e 683e
000000d0: 39c6 4e3e 73c4 7f3d 628e b7be e9fd 86bf
000000e0: 2511 f4bc c197 7bbe 3a43 59bf 6cbd 14bf
000000f0: 6b0f 8b3e fc1d bc3e d1fc 51bf e5b9 8f3e
00000100: 91f3 62bc 8b92 54bf 1565 35be b8c2 11be
00000110: 094b 24be 658b 433e e445 48bf 2f3a fbbe
00000120: 0201 c33d 59e7 f83d 4a8d a53e a475 d23c
00000130: b539 c0bb 88f3 7cbf 88d7 103e 6fe0 50bf
00000140: 0b1d f7be c595 c43d 7ccd ab3e 364d 82bf
00000150: a5ac aebe d8cd 5c3d 836b a33e 2f67 d4be
00000160: 8579 33bf 29c6 8fbe 7985 ce3e 1b57 38be
00000170: 157b 5abd 5014 4d3e 0457 91bf 8aab 8c3e
00000180: 1fee a5be e34b 713e 1240 e1be 9717 79be
00000190: f416 353e 2754 43be 73d5 b0bc ec65 cabe
000001a0: f658 01bf 58fd 85bd 4e93 d63d 81f4 86bf
000001b0: 8a91 18bf 7926 3fbd 7bf1 b3bd f8e0 8a3e
000001c0: 5618 073e 9df1 8d3c ac83 b23d 1ad0 e23d
000001d0: 6f81 233e 345f 8cbd 9315 183e 19bf 873c
000001e0: d029 333d 71cf e13c 591e 71bc 3ef9 7f3e
000001f0: efde 7abd c28c 4e3e ad8b f83d 4001 303d
00000200: 3203 07be cd26 8f3d dbbb a4be 3131 093f
00000210: 235d 3bbf 10f1 4ebf 1ab7 c0bd 009b edbf
00000220: 7d6d 843e 75b7 f03c 65af 373d 295a 073e
00000230: c2f3 40be c12d 803e 1cd1 573e e8de c83d
00000240: 5ebc 22be 657c b5be 55a5 98bd d48f 01bd
00000250: d3fa 243e 4383 903c 1050 2dbf 9d09 fabe
00000260: 3675 d7bb 7215 6c3e 8b3a 68be 78ba 73be
00000270: 1e22 983d a359 14bf 792e 243e 3b92 87be
00000280: df1b 0c3e 1c46 0bbf 96a9 10bf 9702 a1be
00000290: f425 06be 56f7 d43d 2b57 0e3c 3d8f 3d3e
000002a0: dbd6 183e d114 2cbe 787b 603e 39c3 a0be
000002b0: a29c 873d 7130 2c3e 5951 c3be 60dc 213e
000002c0: 1722 94be f593 0b3e 368d 843e 9ad2 e1be
000002d0: 6d82 12be 8045 5b3e 31ba 913d 0b04 27be
000002e0: af91 4ebd 2a0c 95be 92fc 7cbd 7ab8 a8be
000002f0: 5322 0c3e 0e7a fdbd e010 3f3e bf07 c4be
00000300: 5e90 99bf 3f80 8dbe 1f2e b9bf 3401 cebd
00000310: 4fd5 f0be 1e6c 71bd eb8f 9dbd c24a 913e
00000320: 1fc5 79be 2ba7 163e 0b36 dcbe 2ffa 6dbc
00000330: 8818 27be 5f0b 24be e306 303e ecb7 0fbe
00000340: ce85 243e ba18 113d ce1d 28be 5b81 223d
00000350: 7354 c0be 5b6c cfbc a9b8 62bf f9ec 2dbf
00000360: 8663 74be 8bb8 0fbf aa7a 743e 67dc bfbf
00000370: 6ae8 babd d614 213e a929 76be eb0d a8b9
00000380: dec4 563e c594 6cbe 924c 1c3d 11b3 5a3d
00000390: 8bc0 923e 5172 48bf 867b f73c dcce 553e
000003a0: e8b9 91bd f430 983e 6591 b6bd a2a5 27be
000003b0: d475 133e 090d bdbe 31e8 9cbd aede 533e
000003c0: 336f 9c3e 80b1 843e fb75 2d3d 9310 97be
000003d0: 7bd4 b83e cd3a d73c 60f4 043f 70f2 913e
000003e0: 727d 3fbd 5001 83be 5e2f 9abe 7920 de3d
000003f0: eb07 cd3e f28f fcbe 6ecf 0bbf 60a0 2b3e
0.010849399 0.2803218 -0.18540302 -0.104299605 0.00021035573 -0.17489186 0.07166442 0.45646673
0.27699694 0.09536917 0.035776976 -0.11946128 0.08615898 -0.08421771 -0.695953 -0.46762615
0.2916276 0.34880787 0.019452758 -0.005470544 0.26636428 0.4932418 0.09730838 -0.6453496
-0.019787684 0.081714824 0.10496495 0.09478858 0.03268773 0.28005657 0.5184792 -0.05458246
-0.5148429 -0.6253355 -0.69800824 -0.015999911 -0.09779762 -0.058069944 0.076798305 -0.29429877
-0.60537714 -0.4507311 -0.36858118 -0.14121413 -0.476688 0.027765943 0.09986255 -0.045671765
-0.3722068 -0.49366358 0.036147572 0.22692272 0.20192803 0.062443208 -0.35850817 -1.0546237
-0.029793331 -0.24569608 -0.84868205 -0.58101535 0.271602 0.36741626 -0.8202639 0.28071514
-0.013852016 -0.83036107 -0.17714341 -0.14234436 -0.16044249 0.19096144 -0.78231645 -0.49067828
0.095216766 0.12153501 0.32334358 0.025690861 -0.005866254 -0.988091 0.14144719 -0.8159246
-0.48264346 0.09598879 0.3355521 -1.0179813 -0.34116092 0.053907245 0.31917962 -0.41484973
-0.701073 -0.28080872 0.40336207 -0.18001978 -0.053340036 0.2002728 -1.135468 0.27474624
-0.32408234 0.23564105 -0.43994194 -0.24325405 0.17684537 -0.1907507 -0.021586156 -0.39530885
-0.5052637 -0.06542462 0.10477315 -1.0543367 -0.59597075 -0.04666755 -0.08786293 0.27124763
0.13192877 0.017327124 0.08716521 0.110748485 0.15967344 -0.06854096 0.1485198 0.016570615
0.043741047 0.027564736 -0.014716708 0.24997422 -0.061247762 0.20170882 0.12136016 0.042969942
-0.13184813 0.069898225 -0.32174572 0.53590685 -0.7318899 -0.8083658 -0.09409924 -1.8562927
0.25864783 0.029384354 0.044845004 0.13217987 -0.18842986 0.25034907 0.21075863 0.09808141
-0.15892169 -0.35446468 -0.074534096 -0.031631306 0.16111307 0.017640715 -0.6770029 -0.4883546
-0.006575252 0.23055056 -0.22678582 -0.23801601 0.07428382 -0.57949275 0.16033353 -0.26478752
0.13682507 -0.54403853 -0.5650877 -0.31447288 -0.13100415 0.10398738 0.008687775 0.18511672
0.14925711 -0.16804816 0.219221 -0.31398943 0.06621672 0.16815354 -0.38148 0.15806723
-0.28932258 0.1363066 0.25888985 -0.4410599 -0.14307566 0.21413231 0.07115591 -0.16310136
-0.050431903 -0.29110843 -0.061764307 -0.32953244 0.13684969 -0.12376796 0.18658781 -0.3828716
-1.1997182 -0.27636907 -1.44672 -0.10058823 -0.47037742 -0.058941 -0.07693466 0.28377348
-0.24391602 0.14712207 -0.43009982 -0.01452498 -0.16317952 -0.16019963 0.17190127 -0.14035004
0.16066667 0.03542397 -0.1641762 0.039674144 -0.3756443 -0.025320223 -0.8856302 -0.67939717
-0.2386609 -0.56140965 0.23874918 -1.4989136 -0.09126361 0.15730605 -0.2403933 -0.00032053827
0.20973536 -0.23103626 0.03815896 0.053393427 0.28662524 -0.78299433 0.030210268 0.20879692
-0.07115537 0.29724848 -0.089144506 -0.16371778 0.14400417 -0.36924008 -0.076614745 0.20690414
0.30553588 0.25916672 0.042348843 -0.29504833 0.3609961 0.026273156 0.51935387 0.28505278
-0.046750493 -0.2558694 -0.30114263 0.108460374 0.40045103 -0.49328572 -0.5461339 0.16760397

fc1.bias f4 [256]
00000000: bd48 3e3d 0e08 a4bd f49b da3c cd7b 973c
00000010: 873a e7bd 2915 d3bd b5a6 88be 7d34 4abe
00000020: 32c7 8cbe b040 8cbe 5dc9 053e d6ab 353e
00000030: 91d8 7cbe 32e8 6bbe af54 98be f638 febd
00000040: 96e5 43be 4b45 3ebe 3911 07be 8ade 3bbe
00000050: 244c 0bbe 067f aebd 9432 433e 3d4d 76be
00000060: 805e 1abe e490 58bd f17a 87bd 105b 013e
00000070: 4256 14be 67c6 1b3e 7be5 cd3d eb47 01be
00000080: 7f9c 7ebe 18b1 cdbc 2d98 2cbe b13e ddbd
00000090: a82e d93d 80a3 c1bd e6d6 cabe e23e 83bd
000000a0: 1efb 86be b146 a5bd 26bb 03be c031 353d
000000b0: c556 5cbe 83e9 63bd 333f cabe 67f7 9fbe
000000c0: 7619 cdbd 7752 aabe 1c26 c3be 77f0 e23d
000000d0: 3968 c1bd 67cf 2cbe c58b 42be a54c 51be
000000e0: 3428 76bd 08c8 673d 48a7 bd3d 9093 6fbd
000000f0: 8b94 163e 426f a4bc 256f bd3d c768 6cbd
00000100: acb8 acbc 0135 92be aa39 87be b0a8 2abe
00000110: 7caf 44be 4ea3 51be fd78 61be 8429 243d
00000120: 305e c7be b2bb 2ebc 595f 07be 177f 89be
00000130: 6471 e63d 96b8 373b 2620 5abe 5276 e7bc
00000140: 6569 9bbe 7419 f63c 8865 c0bd 4bfa 50be
00000150: f578 2bbd fb02 d7bd 79d2 97be c915 d73c
00000160: fdb1 203e b50b 35be 0d4e ccbc d681 71be
00000170: 9ada 24be 544f 2dbd a35f b2bc 29ed 2dbc
00000180: 056e 263d 7a89 98be 607f ae3d a50d a13c
00000190: d365 26bd f514 b1be 75fb 81be 30a4 663e
000001a0: 3f0f 95be af37 5cbe 5803 41bb dca1 aebd
000001b0: fcc3 92be 7b30 93bd ac48 43bd 613f 6e3d
000001c0: 0396 f1bd b1f1 82bd e927 c13d f77c a5be
000001d0: 6e18 ccbe cdbb e5bd 4892 33bd 1383 8a3d
000001e0: 46e2 a6bd 3b3b 90bd 77cc 8fbe c2e7 7cbd
000001f0: 1d2d 51be 3ca9 a7bc 0bf4 a9bc 9fb2 ff3d
00000200: 22df fa3d 9be4 913d a71c 13be ac18 e03d
00000210: ea7a d13d 9342 28be 58df 1bbe d85b 90be
00000220: 643c 42be afab d0be c47e 0b3d fe19 12be
00000230: 4b0c 0dbe e7e4 08be 62d9 05be e8f4 6abe
00000240: 1efc 0abd e9bb 85be c9ec 99be 846e 8abd
00000250: 8f1c f9bd 4e36 d3bd ff1f f2bd ae93 15be
00000260: f5d0 bebe db3f 3fbe aa84 a8bd c06b 463c
00000270: f445 22be 499e 6bbe 64f4 a73d a87a fbbd
00000280: c33e 4c3e 3ef5 d93a 9bbe 5c3d ae38 22be
00000290: 9e6a b3bd e531 01be c509 f9bc 8780 8abe
000002a0: a35f c43d c4dd e8bd 0689 cc3d e591 70bd
000002b0: cb8a b8bd 3e54 aabd 0e79 103e cd55 1bbe
000002c0: 90b4 64bb 8b11 a5be f20a 8abd 7c0a 90be
000002d0: 6a5d bb3d a858 3abe 2882 82be 95ab 72be
000002e0: efb6 aabe 8f69 f4bd b945 303d a9a0 dabd
000002f0: e991 3ebe 58c8 2a3d 7eff efbe 5a81 3ebe
00000300: 5f4d 13be 00a3 053e a4fb 9cbd a359 bebd
00000310: f58e e4bd 5137 67be de35 acbc ce04 51be
00000320: 6a45 c1bd 4d45 ccbc 4c5b 78be fa11 e0bb
00000330: e973 d6bd 1da3 58bd 03c5 a4bd eab7 24be
00000340: 5817 763d bef7 93be 5db2 73be 2ba4 f6be
00000350: 4f99 a13c 242e 60be 82ea 823c 8eeb 2bbe
00000360: 77c3 7ebe db57 f13d 8153 233d b6e5 a3be
00000370: ce7a 8ebe e6ec 3fbe 33b0 9abe d0d6 92bd
00000380: 9fd8 f4be a2cc 6dbe 24ae d9bd 5516 e0bd
00000390: 24bb c63d 55f8 a5be ba64 8cbe 553a 4abd
000003a0: ce4d 3dbe 8e8d 37be da3e f63b 41e9 babe
000003b0: c909 efbd 5bc6 65be 8dbe 943d 112a 87be
000003c0: 5a88 5cbd 0186 933d c382 6cbe aa57 60be
000003d0: 2599 9dbd 1f31 8cbd 3ffe e3bb a2e5 98bc
000003e0: 8ed5 e2bc bc08 ec3c 177d 2cbd 7a69 88be
000003f0: 9ae1 89be 7825 0b3e ebc2 b9bc 8d89 84be
0.046456087 -0.08009349 0.026685692 0.01849165 -0.1129046 -0.1030677 -0.26689687 -0.19746585
-0.27495724 -0.27393103 0.13065095 0.17741331 -0.24691989 -0.23037794 -0.29752108 -0.12413208
-0.19130549 -0.1858112 -0.13190164 -0.1834661 -0.13603264 -0.085203215 0.19062263 -0.24052902
-0.15075111 -0.052872553 -0.06615246 0.12632394 -0.1448603 0.15212403 0.100535356 -0.12625091
-0.24864386 -0.025108859 -0.16854925 -0.10802973 0.10604602 -0.09455013 -0.3961708 -0.06408478
-0.26363462 -0.08070124 -0.1286436 0.0442369 -0.21517475 -0.055642616 -0.39501342 -0.3124344
-0.10014622 -0.3326604 -0.38115013 0.11081021 -0.09443707 -0.16875993 -0.1899863 -0.20439394
-0.060096934 0.05658725 0.09260422 -0.058490336 0.14705102 -0.020072583 0.09249715 -0.05771711
-0.021084152 -0.28556064 -0.26411182 -0.16665912 -0.19207567 -0.20472452 -0.2201881 0.040078655
-0.38939047 -0.010664867 -0.13219966 -0.26854774 0.11252096 0.0028033606 -0.21301326 -0.028254662
-0.30353847 0.030041434 -0.093943655 -0.20407979 -0.0418634 -0.10498615 -0.29652765 0.026255505
0.15692897 -0.17680247 -0.024939561 -0.23584685 -0.16099015 -0.04231198 -0.021774119 -0.010615625
0.040632267 -0.29792386 0.085203886 0.019659827 -0.04062445 -0.345863 -0.2538716 0.2252357
-0.29113194 -0.21505617 -0.0029451456 -0.08526966 -0.2866515 -0.07186981 -0.047676727 0.05816591
-0.117961906 -0.06393755 0.094314404 -0.32321903 -0.39862388 -0.11217461 -0.043840677 0.06763282
-0.08148627 -0.07042547 -0.28085682 -0.06174446 -0.20427366 -0.02046644 -0.020746252 0.12485241
0.122495905 0.07123681 -0.14366399 0.10942206 0.10228522 -0.16431646 -0.15221918 -0.2819507
-0.1896835 -0.40755984 0.03405644 -0.14267728 -0.1377422 -0.1336857 -0.13071206 -0.22944987
-0.033931844 -0.26119927 -0.30063465 -0.067593604 -0.1216365 -0.10313092 -0.11822509 -0.14607117
-0.37268797 -0.18676703 -0.08228429 0.012110651 -0.15846997 -0.230096 0.08200911 -0.12279254
0.19945817 0.0016628874 0.053892713 -0.15841934 -0.0876057 -0.1261669 -0.030400166 -0.27051184
0.09588554 -0.113704234 0.09987073 -0.058732886 -0.09010848 -0.08316849 0.14108679 -0.15169449
-0.0034897663 -0.32239947 -0.06740369 -0.28133 0.09148677 -0.18197882 -0.25489926 -0.23698266
-0.33342692 -0.11934196 0.043035243 -0.10675175 -0.18610348 0.04169497 -0.46874613 -0.18604031
-0.14384983 0.13050461 -0.07665184 -0.092944406 -0.111600794 -0.22579695 -0.02102178 -0.20411989
-0.09437068 -0.024935389 -0.24253577 -0.0068380805 -0.10471327 -0.052889932 -0.080453895 -0.16085783
0.060080856 -0.2889995 -0.23798509 -0.48172125 0.019726424 -0.21892601 0.015980963 -0.16789076
-0.24879251 0.11784335 0.039874557 -0.32011193 -0.27828068 -0.18742713 -0.30212554 -0.071698785
-0.4782152 -0.23222592 -0.10628918 -0.109417595 0.09703663 -0.32416025 -0.27420598 -0.049372036
-0.18486711 -0.17925093 0.0075148167 -0.36506084 -0.11671788 -0.22438948 0.07262907 -0.26399282
-0.053840972 0.072032936 -0.23096757 -0.21908441 -0.076952256 -0.068453066 -0.0069577987 -0.018664185
-0.027689721 0.028812759 -0.042111482 -0.26642972 -0.26929933 0.13588512 -0.022675952 -0.25886193

fc2.weight f4 [128, 256]
00000000: 5148 12bd b64d 663c fb0a 963d d2cc 5e3b
00000010: 1ff3 b3bc b80b ec3c ba72 c03b 92ff c73c
00000020: 9094 723c cced 90bc d6ce 1dbb f8da 92bd
00000030: c6c3 6bbd f6d3 aabd d129 d0bc 0d49 81bd
00000040: 3ebe 8ebd 190c ed3c c1ca 8abb b8e6 51bd
00000050: db5a 4fbd b9a0 05bd 864c fdbc 4bbc f2bd
00000060: 743a 063c e187 163c 367a b23c e240 90bd
00000070: 6caa ebbc 09c0 05bd f6e3 c6bd 794e a2bc
00000080: 399c a33c 81f6 16bd db46 133d 6fde c8bc
00000090: 4d81 93bd e4d8 6dbc 9ec0 033d fe2a cd3c
000000a0: c3a2 e4bc 3424 a5bc 6365 8cbd 3152 60bd
000000b0: 636f a4bc 98d2 423c b361 18bc 3118 823b
000000c0: 79ae 9cbd 87b9 0dbd e5c0 8ebd c6de 2dbd
000000d0: 3037 d33c 030a 65bc d67d 74bd 209e 93bd
000000e0: 255c 2abd 0024 63bd a4b3 92bd 0e2f 863c
000000f0: 9cd6 c6bc 3553 d3bc 8dc0 0e3d 9363 8bbd
00000100: afa7 e73b f67f f43c 49fa 3e3b 91ae 3f3d
00000110: 8d8a 21bd c853 91bd 1fc1 353d 8ee4 a6bd
00000120: 6f94 1ebd eed1 4e3d 6b35 24bd 000e d2bc
00000130: ae3d 60bd 3bc3 61bc fe65 37bd c429 f33b
00000140: 599d 503d f402 95bd 42db b13c 8f4a ebbc
00000150: 30f7 c0bd 40dc 8c3c e145 5bbd 7358 9b3c
00000160: d99c 19bd 83fc 87bd 4476 73bd 988b 983c
00000170: 6fcf 9abd e018 473b a95b 033c bb9f 91bd
00000180: 7d91 b63c b89a bbbd 81ed 0ebd 98ba 64bd
00000190: 30b1 ea3c 54a7 b3bd 9278 d9bc 7b25 56bd
000001a0: c19e 2f3d 4918 1d3c b298 5ebd c108 76bc
000001b0: 286d 69bd 9d94 9ebc 0b32 4dbc 2574 b33b
000001c0: 2202 e7bc e517 04bd 7b78 8bbd 27bd 9cbd
000001d0: dd1c f0bc 3bde abbb 4fc4 3fbc 8e4d 0a3c
000001e0: 362d 40bd bca9 d3bd 8aca 66bd 4479 91bd
000001f0: 65b5 9e3c 0b76 9a3c a8c7 46bd 3458 c8bc
00000200: 6c52 babc 45fa b7bc 0ccd 77bd 5489 24bc
00000210: bc25 00bd 5b2d 4ebc ff67 7d3b ea56 23bd
00000220: 4d36 b9bb a7bc 59bc 1522 feba 161d 043d
00000230: edaa b4bd 9d37 9cbd 3669 453d d2f4 d6bc
00000240: 670b d7bc 0708 283d fd37 223c 59fb 593c
00000250: 8974 67bd 343f 1c3d b9e4 86bd 0c4f a9bd
00000260: 52a8 c9bc 52ec ddbc b010 b7bd 8bbe 013d
00000270: 9b0f 6cbb 706a 51bd 15bf e73a 7317 e03c
00000280: 60d5 c6bc aa46 133d 25a4 933c bf23 96bc
00000290: 1c59 70bd 6606 c5bd 2ed0 8a3c f25e f0bc
000002a0: d15d 9bbd cb7b 91bd 722e 53bd e4b1 b9bc
000002b0: 12d4 39bd 65d3 b4bd 85de 09bd a6d9 3abd
000002c0: 899e 31bd 0758 153c edeb aabb 2e3e 9438
000002d0: e7ac 473d ba80 1f3d 4931 bfbd 4a32 acbc
000002e0: 5041 2dbd b421 cdbc 0bdf 003b 4dad a93c
000002f0: a027 5dbd 304b c83b 34a0 05bb b065 98bc
00000300: 5c02 18bd aaf9 533d 0a55 10bd ef51 8abc
00000310: 698f cdbd 5861 ce3c b31a c6bb 9c67 c8bd
00000320: f337 86bd 42b7 ec3b 0909 0e3b 4a11 56bd
00000330: 3517 36bd e5ad 8f3b 15e1 41bd dab2 f13b
00000340: 1a90 143c c795 94bd a6cc 143c 2825 38bd
00000350: 11a8 cb3b 94e3 d2bc fe57 333c cadc 0ebd
00000360: dd98 963c 1849 323c 79b9 1bbc 6d92 99bd
00000370: bce8 203d 5094 62bd 29b2 9d3b 248f 43bd
00000380: bdff 4abd cb5e ee3b 7bc8 b2bd fd3a 85bd
00000390: 61d5 f93b 70a5 0a3c 3870 e03c c566 fc3c
000003a0: 1e59 6cbb 26f6 e2bc bfc0 d4bc bf1a d93c
000003b0: e783 7bbd f63b 143d 4c25 f33b 6981 e8ba
000003c0: 6f48 243b 5e1f 96bd 3122 883b 7681 63bc
000003d0: 820a a1bc 4c26 1dbd e40d 923c ec0e aebc
000003e0: 4033 0dbc 4600 84bd 17b8 063c 01a3 5ebd
000003f0: cb94 fc3c 38da 253b 63cf 35bc 276b b8bd
-0.035713498 0.014056614 0.07326313 0.0033996594 -0.021966515 0.028814182 0.0058730515 0.024413858
0.014805928 -0.017691515 -0.0024079583 -0.07170671 -0.05755975 -0.083412096 -0.025410565 -0.063127615
-0.069698796 0.028936433 -0.004235596 -0.05124542 -0.050623756 -0.03262398 -0.030920278 -0.1185232
0.008192647 0.0091876695 0.02178679 -0.070436254 -0.028767787 -0.032653842 -0.09711449 -0.01981281
0.019971954 -0.03685618 0.035956245 -0.024520127 -0.072023965 -0.014517043 0.032166116 0.025044914
-0.027909642 -0.020158865 -0.068552755 -0.054765884 -0.020072645 0.01189103 -0.009300637 0.003970169
-0.076504655 -0.03460076 -0.069703855 -0.04244878 0.025783151 -0.013979438 -0.05969032 -0.07207894
-0.041591782 -0.055454254 -0.0716317 0.01637986 -0.024272256 -0.025796512 0.0348516 -0.06806102
0.00706955 0.029846173 0.002914088 0.04679734 -0.039438773 -0.07096058 0.044373628 -0.08149062
-0.038715776 0.050493173 -0.040090006 -0.025641441 -0.054746322 -0.013779457 -0.044775 0.0074207503
0.05093131 -0.07275954 0.021710996 -0.028722076 -0.09422147 0.017194867 -0.05353344 0.018963074
-0.037503097 -0.0663996 -0.05943896 0.018621251 -0.07559096 0.0030379817 0.008017459 -0.07110544
0.022286171 -0.0916037 -0.03489447 -0.055842012 0.028648943 -0.0877215 -0.02654675 -0.052281838
0.04287601 0.00958831 -0.05434484 -0.0150167355 -0.056988865 -0.019357974 -0.012524138 0.005476492
-0.02819926 -0.03224935 -0.06810089 -0.076532654 -0.029310638 -0.005244998 -0.011704518 0.008441342
-0.046918117 -0.10335109 -0.0563455 -0.07103208 0.019373605 0.018855115 -0.04853025 -0.024456121
-0.02274438 -0.022458205 -0.060498282 -0.010042507 -0.031285986 -0.012584056 0.0038666723 -0.03987781
-0.005652225 -0.013289607 -0.0019388819 0.0322543 -0.08821664 -0.07627795 0.04819604 -0.026239786
-0.026250554 0.04102328 0.009901044 0.013304555 -0.05650762 0.038146213 -0.06586594 -0.0826703
-0.024616394 -0.027090225 -0.0893873 0.031675857 -0.0036020044 -0.051126897 0.0017680848 0.027354931
-0.024271667 0.035956062 0.018022606 -0.018327592 -0.05867873 -0.09620361 0.016944971 -0.029342148
-0.075862534 -0.0710369 -0.051557966 -0.022667833 -0.04536826 -0.08829383 -0.033659477 -0.045617722
-0.04336408 0.009115226 -0.005216113 7.068772e-05 0.048748877 0.038941123 -0.09335572 -0.021020073
-0.042298615 -0.025040485 0.0019664194 0.020712519 -0.053992867 0.0061124787 -0.0020389678 -0.018603176
-0.037111625 0.05175177 -0.03523735 -0.016884772 -0.10037119 0.025192901 -0.0060456633 -0.09785387
-0.0655364 0.0072239945 0.0021672866 -0.052262582 -0.044455726 0.0043847435 -0.047333796 0.007376057
0.00906756 -0.0725513 0.009081995 -0.04495731 0.0062151034 -0.025743283 0.010946272 -0.03487853
0.018383438 0.010881685 -0.009504669 -0.074986316 0.039284453 -0.055317223 0.004812498 -0.04774393
-0.049560297 0.007274484 -0.08729645 -0.06505392 0.0076243137 0.008462295 0.02739726 0.030810723
-0.003606386 -0.027705263 -0.025970815 0.026502011 -0.06140509 0.036189996 0.0074202176 -0.0017738763
0.0025067588 -0.073302016 0.0041544666 -0.013885846 -0.01965833 -0.0383666 0.01782889 -0.02124735
-0.008618176 -0.06445365 0.008222601 -0.05435467 0.030832669 0.002530707 -0.011096808 -0.09004813

fc2.bias f4 [128]
00000000: ca5c b0bd 83e9 39bd 5bdf 12be 0bc5 b0bd
00000010: b1fd dbbd dfdf c9bd cac3 3e3e 42f9 e9bd
00000020: ebc7 023d 4f1a e33d 01e9 3cbe 370b 5ebd
00000030: 950f 32be 2e4a d33c c6ab e2bd 7fd8 96be
00000040: 08da 5bbe 7409 b63c a705 d1bd deb7 8abd
00000050: f9ef 2a3e 07bf 01bd a827 02be fb6e 50be
00000060: 3276 20be 8e4c 5abe 1921 b3be 7d54 50bd
00000070: b621 04be 0631 5f3e a684 ae3d f95e e7bd
00000080: 0d06 a8bd ee3f bb3c 0854 6ebe 17f7 9dbd
00000090: 0db2 4f3e d89c 93bd d4fc 15bd 3edf b0bd
000000a0: 2da4 99bd f836 11be 1ab2 36be f18e abbc
000000b0: b3fe 03be 7731 65be 510e 5ebc 2b28 33be
000000c0: e8d6 cd3d 7a0c 45be 8356 04be a21b a7bd
000000d0: 22f4 2cbd a0f7 f43e e11d 9f3d 7d43 10bc
000000e0: f7f8 c9bd 3114 51be b5e0 95bd 33ce 04be
000000f0: 13b5 f6bd 0fe2 033f 61c6 a4bd 29bc a0be
00000100: c619 67be 66b5 11bd 5a15 ce3d 2c3a 00be
00000110: 08df de3e 9a31 1ebe 831f d9bd bd7d 1d3f
00000120: 060f abbe cebf 3dbe 3b3e 6dbe e4d7 3bbe
00000130: 0a12 5cbd 5aed a8bd 3128 7dbd 4c82 a2bb
00000140: 6547 2d3e c328 04be ab0b 2ebe 3602 acbd
00000150: c470 02bc ae14 61bd b805 5ebe 35ab 2bbd
00000160: cff4 dbbd d659 14be d7b0 8fbc c091 503c
00000170: 2d9b a2bd 2630 4abe bddc 4dbe b535 333e
00000180: 5e6c 85bc c9fd 82bd cb86 e8bc 4aa2 06be
00000190: 0525 10be f6a3 30be 0fd9 fabd 9ad5 27bd
000001a0: 14fc 20be 5002 73be 29d7 28bd 2b21 153e
000001b0: f577 43bd 7ded 80bc d058 b13e ebdd 0fbd
000001c0: daeb b5bd afd7 1bbe cb9b 22be 6444 ecbd
000001d0: 26a6 27be 0f24 a23d edd4 0b3e 339c fcbd
000001e0: 80eb 10bd 157f 1fbe cfe1 14be 97fb e23d
000001f0: 6628 e2bc 3d44 11be 647c a4bd 7782 083e
-0.08611448 -0.04538871 -0.14343016 -0.08631333 -0.10741747 -0.09857153 0.18629375 -0.11424495
0.031928938 0.11089002 -0.18448259 -0.054209914 -0.17388757 0.025792208 -0.110679194 -0.29462048
-0.21469891 0.022221304 -0.10206156 -0.06773351 0.16693105 -0.03167632 -0.1271044 -0.20354836
-0.15670088 -0.21318266 -0.3498619 -0.050861824 -0.12903485 0.21796045 0.085213944 -0.112974115
-0.08204279 0.022857632 -0.23274243 -0.07713144 0.20282765 -0.0720765 -0.03661807 -0.0863633
-0.07502017 -0.14181125 -0.17841378 -0.020942183 -0.12890129 -0.2238215 -0.013553218 -0.17495792
0.10050756 -0.1924304 -0.12923627 -0.081595674 -0.04222501 0.47845173 0.07769371 -0.008805153
-0.098619394 -0.20417859 -0.0731825 -0.12969284 -0.12046256 0.51516813 -0.0804565 -0.31393555
-0.22568426 -0.035573386 0.10062666 -0.12522191 0.43529534 -0.15448609 -0.106017135 0.61519986
-0.334099 -0.18530199 -0.2316827 -0.18344074 -0.05372814 -0.08248396 -0.061805908 -0.0049593803
0.16921766 -0.12906174 -0.16996638 -0.08398859 -0.007961456 -0.054951362 -0.21681869 -0.041911323
-0.10740053 -0.14487395 -0.017540378 0.012730062 -0.07939754 -0.1974493 -0.20103736 0.17500956
-0.016287025 -0.06396062 -0.028384587 -0.13147846 -0.14076622 -0.17250046 -0.12248432 -0.04097519
-0.1572116 -0.23731351 -0.041220818 0.14563434 -0.04772182 -0.015738243 0.3463807 -0.035123747
-0.08882876 -0.15218996 -0.15879743 -0.11536482 -0.16371974 0.07917034 0.13655443 -0.1233448
-0.03538084 -0.15575822 -0.14539264 0.11083143 -0.027607154 -0.14186187 -0.08031538 0.13331018

fc3.weight f4 [64, 128]
00000000: feb8 533d 3ca0 55bd c5eb 30bd b6e0 c63d
00000010: 757a 95be 258b fabc ef14 613d 2fd6 06be
00000020: 4c96 16be 200d fcbd fe17 dbbd ea11 80bd
00000030: 8efe 843d 2f2f f03d 9d2d cc3d 2153 46bc
00000040: 67ce 83bd ec3d acbe bd24 263d 4319 90bd
00000050: 2549 98be 8ac0 9d3c a760 ddbc 3528 dbbd
00000060: 72c9 ddbd f828 183e e95f 9abc 46cb 2cbc
00000070: 7c91 683d 0218 05be 8873 bd3c 86dd 90be
00000080: 207d 5abc f799 85be e630 1a3e d66a a03d
00000090: 50e5 0fbe bdde a8bc ffa2 35bd ce66 f53d
000000a0: db67 d3bd bfdd 0cbe 9a8a 9a3c 6dfe a3bd
000000b0: 7d83 1fbe b414 ab3d 024b 343d 4d7d 9abd
000000c0: d7f8 d03c eb45 0e3e 809a a7ba df11 c9bc
000000d0: a20b 093d 7c35 443b 3d45 7cbe e128 89bd
000000e0: 1a2c efbd 510e d63b f38b 7a3d 263f 0f3d
000000f0: db4e 6dbd d625 99be 30a4 c4bc c723 40bd
00000100: 7107 83bd 9ea1 ac3d 8a59 26bd 541d f03c
00000110: fb2a 003d fd22 93bc b1f0 bcbc ab9d f5bd
00000120: 79c4 533e 443b b53d 88f4 42be 8739 57be
00000130: 5945 503d 1815 74ba a9ca 7ebd f4fa 913d
00000140: 7839 72be b893 923c bba7 2c3d c8c1 c3bc
00000150: 3d1f ea3c 45ae a4bc d8d6 bcbc b700 5bbd
00000160: 66ac cb3d 2427 58bd 3c88 2bbe a180 cf3d
00000170: aeb8 c2bd 69ef 0abe 1785 7bbd 1725 933e
00000180: f215 97bd c077 1d3d 4c52 a33e 2ec6 43bd
00000190: fca9 433c caf1 d8bd f2cd aabd dbf4 1fbe
000001a0: 05b7 383d a03c b23d 17ea 783d 2e57 88be
000001b0: 679b 9b3c a00c 0a3d 0329 e83c 226f a2bd
000001c0: 5bb7 e1bc 9e7b ebbd 8f36 c6bd 2f81 aabd
000001d0: 7110 2e3d 25a9 063e 346a 03be 3aa3 b6bd
000001e0: 06c4 5ebd 801b 7dbe 3675 babd c2a2 73be
000001f0: 083b 843c 686c d3bd 4f7b 6abd bb5d af3d
00000200: a25f de3c a398 85bd 5fee e3bd 0594 5bbe
00000210: 601d 1ebf 16f3 94be c794 233e 5c69 373d
00000220: f2e6 b03e a566 fabe 4fb3 52be 3959 083d
00000230: 70a2 50be e5e7 f4bd 2fc9 273d 2d13 c5be
00000240: 8ffd be3d 2ed0 733e d4fe 5dbd fb55 d1bd
00000250: c8c3 92bc 4164 703b f0ed eabd 6d97 64be
00000260: ec21 00be 05bc 633c 2664 81bc 5b36 7abc
00000270: f706 e3bc 8eb8 1fbd 645e 88be 9ab8 1d3e
00000280: ad72 043d a660 fabd aa22 18bc 2d44 9f3c
00000290: 5670 c1be bb9a 4fbe 7f04 613c a284 0dbe
000002a0: c285 103e 6e28 93be f399 24bd f857 b43c
000002b0: 2e59 d6be 35a6 3f3d b0f1 eabc ca26 963e
000002c0: 46d0 803b 9ec9 a83d b269 2abd d379 533b
000002d0: fcf8 96be 88a9 ae3d 966b 2fbe 32f2 b63d
000002e0: 07ce f6be 9eeb 66be 9ed9 fbbc 61c5 8d3d
000002f0: 60e5 9dbe 964d 893d c08e 27bc 823f 1c3e
00000300: a0ee b4be a7ce 63be 82c3 16bd b49d 803d
00000310: d52b febd ca69 57bd eacd 093e 7e2e 923c
00000320: 3f13 d83c f6ac 62be 120a 85be 172c a63c
00000330: 3061 793b 02e8 cdbe 4042 1e3c 6d31 023d
00000340: 9189 253e 7e79 1cbd 8722 783e 3ff6 c43d
00000350: 0856 183d 9c44 64bd 6b17 ecbb a2a8 163d
00000360: 587d 50bd 3620 a03d 1e21 153c cc3d 2abe
00000370: 1fda b63c 36ea 1b3d 4a63 2e3e f0a8 78be
00000380: 12d9 613d 0d92 90bd a9b7 023e deaa ba39
00000390: 5443 0c3e a1f9 553e b932 c53e 6c3d d6bd
000003a0: 6a4f 0a3e ddb3 403e fac4 863b 87fd 393c
000003b0: 382c 1fbe a9bf e53e 183d f6bd 4a83 24bd
000003c0: 07e9 d6bd c009 b13d 9b08 8ebe 9a89 553d
000003d0: 0637 6dbe a593 0c3d a5dd d33d aa28 89be
000003e0: 34fd e93d ef2b 49bd 1d4e 9abe 0fee 08bd
000003f0: 4f74 c4bc 8593 3bbe e1b2 0cbd 9ae2 aebd
0.051690094 -0.052154765 -0.043193597 0.09710829 -0.2919499 -0.030583927 0.054951604 -0.13167642
-0.14705771 -0.12307191 -0.106979355 -0.06253417 0.06493865 0.117277496 0.099696375 -0.01210478
-0.064358525 -0.33640993 0.04056238 -0.07036068 -0.29743305 0.019256849 -0.027023626 -0.10701028
-0.10829438 0.14859378 -0.018844562 -0.010546511 0.05677937 -0.1299744 0.023126379 -0.2829401
-0.013335496 -0.26094028 0.15057716 0.07832877 -0.1405232 -0.020614022 -0.0443449 0.11982499
-0.10322543 -0.13756464 0.018864919 -0.08007512 -0.15577503 0.08353558 0.044016846 -0.075434305
0.025509281 0.13893859 -0.0012787133 -0.024544654 0.03345836 0.0029939106 -0.24635787 -0.0669725
-0.116783336 0.0065324684 0.061168622 0.034972332 -0.05793653 -0.2991168 -0.024004072 -0.04690912
-0.06397904 0.084292635 -0.040612735 0.02931086 0.03129099 -0.01796102 -0.02306399 -0.119929634
0.20680417 0.08849195 -0.19038594 -0.21018039 0.050847385 -0.00093110045 -0.06220499 0.07127944
-0.23654735 0.017892703 0.042152148 -0.023896113 0.028579349 -0.02010263 -0.023051664 -0.05346748
0.09944992 -0.052771702 -0.16751188 0.10131956 -0.09507881 -0.1356789 -0.06140622 0.28739235
-0.073772326 0.03844428 0.31898725 -0.04779642 0.011942383 -0.105929926 -0.08340062 -0.15620749
0.045096416 0.087029696 0.06077012 -0.26629013 0.018995 0.033703446 0.028339868 -0.07931353
-0.027553251 -0.114981875 -0.09678375 -0.08325421 0.04249615 0.13150461 -0.12833482 -0.08917852
-0.05438616 -0.24717522 -0.091043875 -0.23792556 0.01614143 -0.10323411 -0.057246502 0.085627995
0.02714521 -0.06523254 -0.1112945 -0.21443184 -0.6176357 -0.2909171 0.15974723 0.044778213
0.34551197 -0.48906437 -0.20576213 0.033288214 -0.20374465 -0.11958293 0.040963348 -0.38491192
0.09325706 0.23809883 -0.0541981 -0.102214776 -0.017915621 0.003668085 -0.11471164 -0.2232339
-0.1251294 0.013899808 -0.015794825 -0.015271748 -0.027713282 -0.038994364 -0.26634514 0.15402451
0.032335926 -0.122254655 -0.009285608 0.019441688 -0.37781018 -0.20273869 0.013733982 -0.13820127
0.14113525 -0.28741783 -0.04018588 0.022014603 -0.41864914 0.046789367 -0.028679699 0.2932647
0.003931078 0.082415804 -0.041604705 0.0032268658 -0.29486835 0.08528429 -0.17130885 0.08932914
-0.4820406 -0.22550818 -0.030743416 0.06922413 -0.30839062 0.067042515 -0.010226905 0.15258601
-0.35338306 -0.222468 -0.036807545 0.062800795 -0.12410704 -0.052591123 0.13457456 0.017844435
0.026376365 -0.22136292 -0.25984246 0.020284696 0.0038052313 -0.4021607 0.00965935 0.031785417
0.16165759 -0.0382018 0.24231921 0.0961728 0.03719142 -0.055729493 -0.00720494 0.036781915
-0.050900787 0.07818644 0.009102134 -0.16625136 0.022320805 0.038065158 0.17030063 -0.24283195
0.055138655 -0.07059107 0.12765373 0.0003560399 0.13697559 0.20896007 0.3851526 -0.10460934
0.13506857 0.18818612 0.004112837 0.01135195 -0.15544212 0.44872788 -0.120233715 -0.04016427
-0.10493665 0.08644438 -0.2774094 0.05213318 -0.23165521 0.034320492 0.1034501 -0.26788837
0.11425248 -0.049114164 -0.3013772 -0.033430155 -0.023981242 -0.18317993 -0.03435028 -0.085393146

fc3.bias f4 [64]
00000000: 0693 5bbd aa6e 733f 2129 cdbd 9d7d 01be
00000010: 065f 693f 3d7a 713f 403d 35be 7819 56be
00000020: 7aef 9cbd 9ce9 44bf d810 593f f7b7 6ebd
00000030: 74c3 0ebf ab81 11be 9f8b 12be 3c9f 613f
00000040: 7062 34be 3a86 f6bd 6989 0fbe 3cd0 6b3f
00000050: 7418 4bbe 7d49 6f3f 57ac 27bc 9789 6fbe
00000060: 2019 06be 8fe7 a2be c2f1 873f e0eb 783f
00000070: dd71 b4bd bb38 bfbd e510 063f db1c 5ebc
00000080: f86f 95bc e29f 49be e61d f43c 93f7 2fbe
00000090: 672a 03be 27d2 323e 1189 8b3d 1eb7 ca3e
000000a0: 1f75 413f b549 c63d 1c25 3dbe edbc 733f
000000b0: 68a2 35bb 6ad3 5cbd d743 1a3e 8947 3ebe
000000c0: 076b fdbd 12d0 8ebe 2f47 adbd a159 d7bd
000000d0: e317 d43d 7721 9fbe 7c7c fd3d 8102 49be
000000e0: c007 81be fed2 00bf 7fb4 24be 0933 44be
000000f0: ba2e d1be df5e 723f 9f06 e63d d3e9 9cbd
-0.05360701 0.95090735 -0.1001761 -0.12645574 0.9116062 0.94327146 -0.17699146 -0.20908153
-0.07662864 -0.7691896 0.84791327 -0.05828091 -0.5576699 -0.1420962 -0.14311074 0.881336
-0.17615676 -0.120373204 -0.14017262 0.92114615 -0.19833547 0.9347151 -0.01023396 -0.2339233
-0.13095522 -0.3181729 1.0620654 0.97234917 -0.0881078 -0.09336992 0.5236953 -0.013556684
-0.018241867 -0.19689897 0.029799413 -0.17184286 -0.12809144 0.1746298 0.06813253 0.39592832
0.7556934 0.09682027 -0.18471187 0.9521015 -0.002771521 -0.053912558 0.15064941 -0.18581976
-0.123739295 -0.2789312 -0.08460843 -0.10515142 0.103561185 -0.3108022 0.12377259 -0.19629861
-0.25201225 -0.5032195 -0.16084479 -0.19160093 -0.40855962 0.9467601 0.112317316 -0.07661786

fc4.weight f4 [4, 64]
00000000: b3e9 4f3e 3062 1f3e fd2b e73d 700f 62bd
00000010: 4322 b13e 8f11 a33e b9ae 74bd 079e 0b3e
00000020: 7c47 dabb 8ab8 bebe 9564 5c3e 045e d13c
00000030: b1fa e5bd 187e fabc 5891 503d f6ac 763e
00000040: 8df8 2a3e eac1 5fbf 2839 893d abe8 503e
00000050: 81e3 aa3d 2d6c 9b3e 0c7c abbe 5309 4c3e
00000060: 0981 8abd d709 1ebe c00f 733e c9d1 533e
00000070: 6d46 8bb8 842f 863c fbb3 563e b154 f4bd
00000080: 62fd 9cbd d2c0 2d3e 4535 38be 9910 193d
00000090: bd6b 06bc 26db 61bf bc35 39bf 9c51 2e3e
000000a0: c040 6d3e ab52 883e 2306 8abc a223 b33e
000000b0: 3ba3 9abe 5a0d d73d 69ab 2bbf 3a59 10bd
000000c0: fe44 c13a efc6 9c3d 1207 323d 1841 f5bc
000000d0: 8860 56bf 629c 393e 9868 973d 1b2f 9ebe
000000e0: 16fe fd3d 52c7 273d 7ff9 853e 989e b33d
000000f0: 2b7c a9bd 6fdf bc3e 0392 99bc fb77 493d
00000100: 6b55 d63d 44f7 dc3e dfb3 2d3d 2f35 debb
00000110: 6471 6bbd 1c12 943e 2807 583d 804d ce3d
00000120: a54a 9bbd aa12 74be 09f4 8f3e 10ec a63d
00000130: e2f9 b9bd 3f13 cb3d 8385 893d 1527 9b3a
00000140: fa50 843d 6a15 b03e 35a0 363d cf42 cc3e
00000150: f343 b73e 8fbd b93e 3ca4 0ebe 2782 533d
00000160: 8b10 843b 7297 023d a9a1 b13e c571 0c3e
00000170: 47bd 1c3d 6035 5d3e 8803 ef3d 1a75 2a3e
00000180: 1a3b fcbd 6afd 34be 12e0 61bd 8d85 bd3d
00000190: e8cd 143e b612 ba3c 81b8 153e 6f96 f63d
000001a0: d5af 953e ee5c 6d3e d116 a7bc c44c 903e
000001b0: 8642 3bbe 1ad0 883d c2f3 4a3e 012f e43c
000001c0: 5a6a ed3c 70d5 b03c 007a 7e3d 6b90 a93b
000001d0: 7ca3 ac3d 5f7b 973e 3db1 37bf 36a3 3fbe
000001e0: 1544 673e 6dd2 d03d cd1d cebd bfca b2bc
000001f0: 6444 06bc 9612 903e dacd 50be f895 2ebc
00000200: c21b 123e 1ef6 3a3e b2d7 0d3e c0c2 b9bd
00000210: d86b 893e 86cb 8e3e c3d8 1cbd 03e1 bdbd
00000220: 31ee 95bb a87f aebe b806 833e faad 2c3e
00000230: d271 0e3d 4b17 d93c 2caa d1bc f41b 9c3e
00000240: ddf0 d33e 23c8 a13e d6a8 c3bd c591 803e
00000250: 3227 20be bdff 143e b974 ea3d dd2b e0be
00000260: db6d 98bd f2ed 5ebe 3a32 af3e 336c df3e
00000270: 51e3 543a 8b63 093e 0046 3f3c 779a 8e3e
00000280: 0036 c83c 1cb5 00be c20f 3cbf 0f51 673d
00000290: 3802 7f3d 8526 ed3b dfa7 21be c868 ecbe
000002a0: 2812 943e ef09 97be 1d09 483c 9548 953e
000002b0: d490 06bf 6244 343e c050 8a3d 0c84 783e
000002c0: 9553 28bf b07b 94bd 0a6c d33d 7548 183d
000002d0: af47 1e3d 1a63 493c 293d 82bf e380 1fbe
000002e0: 3a24 173e 4756 b53e cb92 793c 321c db3d
000002f0: 52bb 87be 2e8f 033e af96 9abf a945 3a3d
00000300: 94ce 39be f878 fc3e 1008 783d d26a ccbc
00000310: 5ecb cb3e 589e c03d f57c cebc 9e36 25bd
00000320: 3a31 a03c 3ceb 55be d123 353e bf31 5dbd
00000330: 2e8a 93be 458f 99bc feba e53c 3000 c23e
00000340: 10c8 f2be 3683 6d3e e6d7 073d e786 5e3e
00000350: d3b7 7a3d 9062 8f3e 5417 043e 992d da3d
00000360: 0922 af3c ddb3 e5be 0816 8d3e 8b8a aa3e
00000370: a616 8a3c 1f53 403e 6ab1 4bbd cd3f fe3b
00000380: d55b 0b3d 29ce dcbe 7fb4 8a3d c031 1b3d
00000390: 7279 4abf f4a7 f4bc 66df ed3d c0f6 c8be
000003a0: 1058 05be 0500 d13d a54f 663d 363a 593e
000003b0: 40a0 1cbe 7ec5 95be fc33 99be fc26 00bc
000003c0: 73d8 ce3e 30af f7bd 4ade a2bf 5740 d43c
000003d0: afe5 d6be d76b 11bf 620f a03d 4705 c03d
000003e0: d2ae ba3e 72bf a23e a7d4 81bb aaaa 943c
000003f0: e672 173e 90d9 953e 8eaf ccbd 6e7d 12be
0.20303993 0.155648 0.11287687 -0.055190504 0.34596452 0.31849334 -0.05973694 0.13634501
-0.0066613536 -0.37250167 0.21522744 0.025557525 -0.11229456 -0.030577704 0.05091986 0.24089417
0.16696377 -0.87405264 0.06700355 0.20401256 0.08344174 0.3035597 -0.33493078 0.19925432
-0.06762893 -0.15433441 0.23736477 0.20685495 -6.641154e-05 0.01638008 0.20967095 -0.11930216
-0.076655164 0.16968086 -0.1798907 0.037369344 -0.008204398 -0.8822502 -0.7234762 0.17023319
0.23169231 0.2662557 -0.01684863 0.34988123 -0.3020266 0.105005935 -0.67058426 -0.035241343
0.0014745293 0.07655131 0.043463774 -0.029938266 -0.83741045 0.18126062 0.073929965 -0.30895314
0.12401979 0.04096157 0.26166913 0.08770484 -0.08275636 0.36889216 -0.018746382 0.049186688
0.10465511 0.431574 0.042407867 -0.0067812423 -0.057481185 0.28920066 0.0527412 0.10073376
-0.07582597 -0.23835245 0.28115872 0.08150494 -0.090808645 0.0991578 0.067149185 0.0011837209
0.064607576 0.34391338 0.04458638 0.3989472 0.3579403 0.36277434 -0.13929838 0.051637795
0.0040302924 0.03188271 0.3469365 0.13715275 0.038266446 0.21602392 0.116705954 0.16646233
-0.1231596 -0.17674795 -0.05514533 0.092539884 0.14531672 0.022714 0.14621164 0.12040412
0.29235712 0.23179981 -0.020396622 0.28183568 -0.18287095 0.06680317 0.19819549 0.027854444
0.028981376 0.02158615 0.062128067 0.0051746867 0.0842962 0.29586312 -0.7175482 -0.18714604
0.22584565 0.101963855 -0.10064278 -0.021825192 -0.0081950165 0.2813918 -0.20391026 -0.0106558725
0.14268401 0.18257949 0.13851812 -0.09070349 0.2684009 0.2788965 -0.038292658 -0.09271433
-0.004575514 -0.3408177 0.25591063 0.16863242 0.034776516 0.026500365 -0.02559384 0.30490077
0.41394702 0.31598005 -0.09553687 0.25111213 -0.15639952 0.14550681 0.11448044 -0.43783465
-0.07442828 -0.21770456 0.34218007 0.43637237 0.0008121031 0.13416879 0.011674404 0.27852222
0.024439812 -0.12569088 -0.73461545 0.056473788 0.062257975 0.007237258 -0.15786694 -0.46173692
0.28920102 -0.29499766 0.012209204 0.29156938 -0.5256474 0.17604211 0.06753683 0.24269122
-0.65752536 -0.07250154 0.10323341 0.037178475 0.03864258 0.012291694 -1.0174915 -0.1557651
0.14759913 0.35417387 0.015232752 0.10698737 -0.26510102 0.12847587 -1.2077235 0.04547659
-0.1814521 0.49311042 0.060554564 -0.02495328 0.39803594 0.09405202 -0.025206069 -0.04033529
0.019554723 -0.20890516 0.17689444 -0.05400252 -0.2881636 -0.018745074 0.028043266 0.37890768
-0.4741826 0.23194584 0.03316488 0.21731149 0.061210465 0.28004885 0.12899524 0.10653228
0.021378534 -0.44863787 0.2755587 0.33308825 0.016856503 0.18781708 -0.049729742 0.0077590705
0.034023125 -0.43126038 0.06772708 0.037889242 -0.7909156 -0.029865243 0.116148755 -0.39250755
-0.13021874 0.10205082 0.0562283 0.21213612 -0.15295506 -0.29252237 -0.29922473 -0.007821795
0.40399513 -0.12093961 -1.2724087 0.025909586 -0.4197211 -0.56805176 0.07815434 0.093760066
0.36461502 0.31786686 -0.0039621177 0.018147785 0.14789924 0.2926755 -0.09994422 -0.1430566

fc4.bias f4 [4]
00000000: 3036 093f 9fd8 283f f83d 1f3f 0ef9 3e3f
0.5359831 0.6595554 0.6220393 0.7459878
