Continuous Control/DDPG/actor_checkpoint.pth (torch_old, 553527 bytes, 14 tensors)

fc1.weight f4 [400, 33]
-0.015363573 -0.072426885 0.09079115 -0.11815181 -0.066155404 -0.06993688 0.15610926 -0.043450218
0.31267977 -0.013620661 -0.046510622 -0.03656308 0.13570231 0.028535418 0.16535184 -0.061529096
-0.12529129 0.098890565 0.012858291 -0.06821343 0.012012173 0.27254865 0.0557353 -0.15422814
0.052353542 -0.11843732 -0.07857947 0.16546261 -0.0061028986 0.0130202435 -0.16609348 -0.020262886
-0.17149466 -0.14273855 -0.010417708 -0.23109975 -0.0061767055 -0.06368427 -0.23612007 -0.12343995
-0.0024477304 -0.031642664 -0.091943674 -0.116596326 -0.11635258 -0.065725125 0.11043213 0.08284478
0.053633887 0.024222275 -0.07747603 0.037595864 -0.026922239 0.041104957 0.19338664 -0.10744757
0.09998202 0.14595558 0.039541394 0.047106553 -0.07272192 -0.0031530384 0.012555484 0.036354292
-0.017029028 0.18292277 0.111839965 -0.04087383 0.008174014 -0.02417032 0.11234895 0.14507468
0.013082969 -0.018958917 -0.04681837 -0.0058633434 0.11335561 -0.024132764 0.0052557876 0.0282945
0.19026875 -0.08539531 -0.02008236 -0.06921324 0.036406144 -0.05149259 -0.006891613 -0.023044689
-0.0977228 0.10409121 0.030813849 -0.05311677 -0.06647623 0.101786904 -0.113875166 0.041657854
-0.112013474 0.0030481033 -0.055273592 0.17637178 0.13427797 0.12908801 -0.07475327 0.061538704
-0.024348833 -0.05866952 0.0064911065 -0.018778374 -0.066057734 0.010282025 0.017197087 -0.021384124
-0.18237615 -0.026935993 -0.19407041 -0.09380345 0.03783124 0.060486022 -0.0193775 -0.0078048985
0.0008127919 0.025680032 -0.050440572 0.002381934 -0.037702747 0.06555735 -0.09895181 0.092332825
0.029585134 0.05006578 -0.020254403 0.0150832785 0.13570732 0.1762523 -0.025852108 -0.096793614
0.10917043 0.096963294 -0.0025795726 -0.06410851 0.14094225 0.06768645 -0.012894652 0.09099932
-0.029092964 0.20075472 -0.097595245 -0.016604675 0.018495176 -0.028721694 0.14626002 -0.034908287
-0.027563747 -0.12971196 0.032125056 0.0037791114 0.0029541743 0.015960854 -0.074414566 0.17575538
-0.00070194574 -0.008009363 -0.17541729 0.038640495 -0.1895895 -0.06090524 0.03763094 -0.081763275
-0.17787373 -0.013456451 -0.15843031 0.018350812 -0.08997349 0.035328694 -0.016858416 -0.044963066
0.041684307 -0.022784214 -0.07840509 0.16272359 0.053507596 -0.08850677 0.087416984 0.077098936
0.051740192 0.052644245 -0.062135875 -0.09022193 -0.15515262 0.06933845 -0.104040384 0.106242
0.15032946 -0.051040176 0.017975334 -0.10952572 -0.00038238242 -0.21399492 -0.057790484 -0.027927693
-0.27226052 -0.09623722 -0.006573604 0.043311466 -0.04955932 0.08041804 0.010169293 -0.056065004
-0.034209516 0.016173953 -0.05089219 -0.09059599 -0.03556677 0.16231038 -0.052409336 -0.018927954
0.020743733 0.02698163 0.023600712 -0.014138075 -0.00055767316 -0.066816285 -0.036854528 -0.067073375
0.09610464 0.16408327 -0.024311606 -0.006211363 -0.13083102 0.042642597 0.028129883 -0.05597012
0.115909144 0.121625386 -0.03363292 -0.024164528 0.13426876 0.083640866 0.0077883094 0.15465242
0.2400331 0.20045616 0.16536662 0.13684428 -0.0150546795 -0.111329705 0.013653151 0.06140322
-0.0040018056 -0.029395401 0.035017885 -0.13781457 -0.010452592 0.070762835 0.11542185 -0.22397296
00000000: 7fb7 7bbc 8c54 94bd b6f0 b93d 93f9 f1bd
00000010: 7c7c 87bd 113b 8fbd 1bdb 1f3e dbf8 31bd
00000020: 9017 a03e 3129 5fbc ec81 3ebd 2bc3 15bd
00000030: 8cf5 0a3e 1cc3 e93c fe51 293e ef05 7cbd
00000040: 5c4c 00be 2387 ca3d 95ab 523c 7cb3 8bbd
00000050: b5ce 443c 7f8b 8b3e b34a 643d fbed 1dbe
00000060: ab70 563d 448f f2bd 46ee a0bd 086f 293e
00000070: d3fa c7bb dc52 553c 6914 2abe 5afe a5bc
00000080: 4c9c 2fbe 0e2a 12be 09af 2abc 6aa5 6cbe
00000090: f665 cabb e66c 82bd 76c9 71be 16ce fcbd
000000a0: 1a6a 20bb bd9b 01bd f74c bcbd 0eca eebd
000000b0: 434a eebd e59a 86bd 3e2a e23d 86aa a93d
000000c0: 35af 5b3d cb6d c63c c1ab 9ebd 1ffe 193d
000000d0: 078c dcbc ac5d 283d 2607 463e 790d dcbd
000000e0: 60c3 cc3d 6175 153e 28f6 213d cdf2 403d
000000f0: 3bef 94bd 35a3 4ebb 84b5 4d3c 3de8 143d
00000100: 7680 8bbc 1b50 3b3e 5a0c e53d 516b 27bd
00000110: 4dec 053c d600 c6bc 3517 e63d 758e 143e
00000120: f359 563c bb4f 9bbc 9fc4 3fbd 4a21 c0bb
00000130: fc26 e83d 13b2 c5bc be38 ac3b dec9 e73c
00000140: d0d5 423e bce3 aebd c383 a4bc acbf 8dbd
00000150: 9c1e 153d e5e9 52bd 0ad3 e1bb 37c8 bcbc
00000160: e422 c8bd c62d d53d 536d fc3c f890 59bd
00000170: b124 88bd a775 d03d 6237 e9bd 6da1 2a3d
00000180: 5267 e5bd b0c2 473b 9066 62bd ce9a 343e
00000190: 2a80 093e a62f 043e 3e18 99bd 0210 7c3d
000001a0: 3477 c7bc 734f 70bd 59b3 d43b 1bd5 99bc
000001b0: 4749 87bd f075 283c e8e0 8c3c c22d afbc
000001c0: d0c0 3abe dfa8 dcbc 65ba 46be 061c c0bd
000001d0: eef4 1a3d 31c0 773d 90bd 9ebc 3cc0 ffbb
000001e0: 8b11 553a ee5e d23c c69a 4ebd 391a 1c3b
000001f0: 326e 1abd ef42 863d 3fa7 cabd fe18 bd3d
00000200: 865c f23c c611 4d3d 90ec a5bc db1f 773c
00000210: dcf6 0a3e 7c7b 343e cdc7 d3bc bb3b c6bd
00000220: bf94 df3d b194 c63d 0c0e 29bb 534b 83bd
00000230: 2a53 103e 329f 8a3d 1744 53bc da5d ba3d
00000240: 5e54 eebc a592 4d3e 04e0 c7bd 8706 88bc
00000250: 3283 973c c249 ebbc 30c5 153e fefb 0ebd
00000260: 5ecd e1bc 36d3 04be 9095 033d f8aa 773b
00000270: d29a 413b 56c0 823c aa66 98bd 38f9 333e
00000280: c802 38ba b439 03bc 97a0 33be 7f45 1e3d
00000290: c023 42be c677 79bd e722 1a3d 8173 a7bd
000002a0: 8824 36be 7278 5cbc 8e3b 22be 7154 963c
000002b0: 0544 b8bd d2b4 103d a91a 8abc 312b 38bd
000002c0: 2abd 2a3d f6a5 babc d992 a0bd 03a1 263e
000002d0: c82a 5b3d 0a43 b5bd ad07 b33d 0ce6 9d3d
000002e0: 86ed 533d 7ea1 573d 3082 7ebd 46c6 b8bd
000002f0: 54e0 1ebe 5101 8e3d 2013 d5bd 6895 d93d
00000300: f7ef 193e 810f 51bd 0241 933c 054f e0bd
00000310: 807a c8b9 7c21 5bbe b7b5 6cbd 9ec8 e4bc
00000320: bb65 8bbe 0518 c5bd 6367 d7bb 5d67 313d
00000330: b7fe 4abd 37b2 a43d 1b9d 263c 6ba4 65bd
00000340: 471f 0cbd 3d7f 843c 5474 50bd 648a b9bd
00000350: 76ae 11bd b134 263e 2cab 56bd cc0e 9bbc
00000360: c3ee a93c 9408 dd3c 4856 c13c 62a3 67bc
00000370: d030 12ba fad6 88bd c6f4 16bd c45d 89bd
00000380: 82d2 c43d 7205 283e 2229 c7bc b088 cbbb
00000390: 91f8 05be 01aa 2e3d a470 e63c ed40 65bd
000003a0: c661 ed3d bb16 f93d acc2 09bd b0f4 c5bc
000003b0: c07d 093e e74b ab3d 1335 ff3b 345d 1e3e
000003c0: 3dcb 753e 6144 4d3e de55 293e e820 0c3e
000003d0: e7a7 76bc d400 e4bd 77b1 5f3c f181 7b3d
000003e0: 9421 83bb a0ce f0bc ea6e 0f3d 431f 0dbe
000003f0: 5941 2bbc 1bec 903d 4a62 ec3d 2b59 65be

fc1.bias f4 [400]
-0.13083485 0.0706655 -0.18122652 0.06464726 -0.14476053 -0.1430472 -0.15136892 -0.076454595
-0.13155107 -0.17812617 -0.197953 -0.12004492 -0.030646281 -0.073488615 -0.100685395 -0.115153626
-0.25678027 -0.10798539 -0.07488456 -0.18934315 -0.21969639 -0.06478542 -0.13596787 -0.08474787
-0.32580072 -0.29817984 -0.17116632 -0.17121598 0.01597714 -0.06738642 -0.2118343 -0.22907972
0.088665605 -0.2967178 -0.0038251071 -0.18935506 -0.19510724 -0.11439544 -0.13019013 -0.09605612
0.001684165 -0.22538397 -0.09989127 -0.08774149 -0.11969368 -0.057449266 -0.2377127 -0.040448647
-0.103081085 -0.12874055 -0.27103037 -0.21521927 -0.10794914 -0.16925697 -0.055009533 -0.13103874
-0.21147615 -0.3379566 -0.095929116 -0.15393637 -0.06989782 -0.28669694 -0.02646296 -0.056143943
-0.052003894 -0.13875559 -0.1795211 -0.15220052 -0.1309772 -0.27072778 -0.119071305 -0.1583828
-0.22469597 -0.12708126 -0.21682516 -0.1000515 -0.079160005 -0.11362492 -0.013550298 0.029138148
-0.013710528 -0.08972997 -0.25694904 -0.06741913 -0.15193072 -0.1418987 0.03699491 -0.034666352
-0.13648218 -0.124798566 -0.07926368 -0.11172306 -0.07668297 -0.18836084 -0.053311322 -0.13615166
-0.1716648 -0.05002112 -0.12256831 -0.013842458 -0.0026229636 0.16587315 -0.00023810269 -0.09778582
-0.112860136 -0.22346029 -0.30571637 -0.10747625 -0.20871033 -0.16454445 -0.17419152 -0.06395371
-0.19217847 -0.12605378 -0.14305273 -0.024199339 0.040892676 -0.08533178 -0.11748587 0.009855587
-0.20809607 -0.2597872 -0.105203494 -0.23887464 -0.2628008 0.08146656 -0.07062941 -0.19988109
-0.238677 -0.12777577 -0.06233461 -0.11767826 -0.098161936 -0.23704198 -0.19534564 0.0515809
-0.18780476 -0.25739765 -0.09779975 -0.062296517 -0.22516695 -0.16353717 -0.11536093 0.014372905
-0.1650107 -0.22741686 0.0005123038 -0.055509817 -0.07049156 -0.13038914 -0.26257333 -0.0063483072
-0.25622165 -0.19783704 -0.12865514 -0.066102006 -0.075988345 0.00085139036 -0.22918062 -0.09471214
-0.096741274 -0.13536939 -0.16258779 0.01167612 -0.20095454 -0.0609277 0.16040239 -0.048647843
-0.18184215 -0.23620401 -0.06330112 -0.024534326 -0.1349769 -0.15597002 -0.23861906 -0.29853266
-0.20512038 0.040649462 -0.108638175 -0.31085774 -0.08220272 -0.14243804 -0.1981645 -0.041403733
-0.22186384 -0.27278134 0.011181638 -0.25580972 -0.1696488 -0.21774143 -0.0052734464 -0.10208585
-0.12408854 -0.069643244 -0.048493832 -0.16900046 -0.11398076 0.07396966 -0.3229443 -0.096928574
-0.12369457 -0.076791935 0.00053540315 -0.13807367 -0.2321738 -0.13196477 -0.22221665 -0.21753263
-0.03390988 -0.08455527 -0.04855527 -0.14468588 -0.13116659 -0.036023412 0.085388474 -0.09794405
-0.17203754 0.010829741 -0.04198179 -0.24030651 -0.08715914 -0.06977758 -0.10558373 -0.11086998
-0.20906 -0.0779589 -0.17974436 -0.13289157 -0.10223533 -0.21842493 -0.1449839 -0.007645288
-0.115525514 -0.11054199 -0.17616746 -0.02940832 -0.16173148 -0.12995118 -0.243117 -0.17711684
0.093699604 -0.12168937 -0.021198506 -0.024891112 -0.10232267 -0.13472502 -0.24288847 -0.0056334604
-0.084018275 -0.01471423 -0.14537704 -0.089465804 -0.17976597 -0.07588384 -0.14378728 -0.07055993
00000000: 92f9 05be 13b9 903d 7293 39be c865 843d
00000010: 1b3c 14be f77a 12be 7400 1bbe 3a94 9cbd
00000020: 53b5 06be b566 36be 31b4 4abe 1cda f5bd
00000030: e90d fbbc 3381 96bd 2534 cebd aad5 ebbd
00000040: b478 83be 7227 ddbd 145d 99bd 2ce3 41be
00000050: 17f8 60be 38ae 84bd 293b 0bbe 4b90 adbd
00000060: 5acf a6be 07ab 98be 3946 2fbe 3e53 2fbe
00000070: 7ee2 823c e401 8abd 17eb 58be e093 6abe
00000080: 5096 b53d 65eb 97be a6ae 7abb 4be6 41be
00000090: 31ca 47be 2848 eabd 9050 05be 12b9 c4bd
000000a0: 33bf dc3a 0ecb 66be cb93 ccbd cfb1 b3bd
000000b0: f621 f5bd ec4f 6bbd f56a 73be 7bad 25bd
000000c0: 2d1c d3bd 90d4 03be 7ec4 8abe 7162 5cbe
000000d0: 7014 ddbd b351 2dbe ad51 61bd 052f 06be
000000e0: 348d 58be a608 adbe 7c76 c4bd 7fa1 1dbe
000000f0: 9726 8fbd f1c9 92be d9c8 d8bc 31f7 65bd
00000100: 0902 55bd f215 0ebe 61d4 37be 74da 1bbe
00000110: e31e 06be d59c 8abe a8db f3bd 1a2f 22be
00000120: b316 66be 9721 02be 6a07 5ebe cde7 ccbd
00000130: a41e a2bd 2fb4 e8bd 1202 5ebc 20b3 ee3c
00000140: 1fa2 60bc 59c4 b7bd d38e 83be 0a13 8abd
00000150: ba93 1bbe e54d 11be fa87 173d 4efe 0dbd
00000160: fcc1 0bbe 6496 ffbd ff54 a2bd 0fcf e4bd
00000170: f60b 9dbd aae1 40be f95c 5abd 576b 0bbe
00000180: e6c8 2fbe f2e2 4cbd 1805 fbbd 7acb 62bc
00000190: 07e6 2bbb a7da 293e 34ab 79b9 ef43 c8bd
000001a0: 3723 e7bd c6d2 64be db86 9cbe 821c dcbd
000001b0: 29b8 55be 577e 28be 435f 32be 2afa 82bd
000001c0: 6fca 44be 3e14 01be 6a7c 12be b13d c6bc
000001d0: 147f 273d 6ec2 aebd 6f9c f0bd 5479 213c
000001e0: 2317 55be d402 85be ee74 d7bd 8e9b 74be
000001f0: d48d 86be f1d7 a63d 27a6 90bd a1ad 4cbe
00000200: be67 74be a7d7 02be 9352 7fbd 4d01 f1bd
00000210: 2009 c9bd 22bb 72be b008 48be 7e46 533d
00000220: e44f 40be a0c9 83be 3c4b c8bd a22a 7fbd
00000230: 2a92 66be 4a76 27be 5a42 ecbd 557c 6b3c
00000240: 91f8 28be f7df 68be 204c 063a 435e 63bd
00000250: e15d 90bd bb84 05be 0370 86be 7605 d0bb
00000260: 7c2f 83be cb95 4abe 2cbe 03be 7d60 87bd
00000270: c79f 9bbd d72f 5f3a 53ae 6abe 70f8 c1bd
00000280: 4a20 c6bd 469e 0abe 6a7d 26be 324d 3f3c
00000290: 07c7 4dbe 538f 79bd 8640 243e f642 47bd
000002a0: d434 3abe 77df 71be 05a4 81bd 36fc c8bc
000002b0: 6237 0abe 9bb6 1fbe 8e58 74be 46d9 98be
000002c0: 140b 52be 0d80 263d b17d debd bf28 9fbe
000002d0: e659 a8bd 47db 11be a2eb 4abe f696 29bd
000002e0: 4630 63be ffa9 8bbe 3033 373c 7ef9 82be
000002f0: 6ab8 2dbe 9cf7 5ebe e0cc acbb 6312 d1bd
00000300: 2222 febd 1ea1 8ebd 78a1 46bd 750e 2dbe
00000310: bf6e e9bd 687d 973d f558 a5be 7d82 c6bd
00000320: 9453 fdbd 1745 9dbd 4c5a 0c3a 2f63 0dbe
00000330: f8be 6dbe c621 07be c38c 63be e0c0 5ebe
00000340: 16e5 0abd 502b adbd e4e1 46bd 8928 14be
00000350: 8950 06be 498d 13bd 27e0 ae3d e496 c8bd
00000360: 9c2a 30be 3a6f 313c 19f5 2bbd e912 76be
00000370: 7e80 b2bd 8ce7 8ebd 483c d8bd cd0f e3bd
00000380: d313 56be eaa8 9fbd e80e 38be ba14 08be
00000390: c260 d1bd c9aa 5fbe a976 14be 5385 fabb
000003a0: a498 ecbd d763 e2bd 3e65 34be b8e9 f0bc
000003b0: f09c 25be ec11 05be aaf3 78be 1e5e 35be
000003c0: 94e5 bf3d 4738 f9bd 7da8 adbc 72e8 cbbc
000003d0: 8c8e d1bd 5bf5 09be c1b7 78be e498 b8bb
000003e0: c611 acbd f413 71bc b8dd 14be d939 b7bd
000003f0: 9214 38be fd68 9bbd f93c 13be b981 90bd

fc2.weight f4 [300, 400]
0.09226626 0.07267999 -0.08404586 -0.0043878374 -0.051037036 0.0032948256 0.052027054 0.081574775
-0.019943165 0.10293694 0.056625035 0.044513 0.018419929 0.09051459 -0.10149753 -0.055122714
0.030036518 0.023157842 0.027620092 0.025350343 0.11004924 0.03753534 0.1487455 0.036889266
0.18301685 0.13698542 0.13538629 -0.15135638 -0.072009474 0.1392379 0.20538367 -0.039361622
-0.07317765 -0.012295382 0.035964075 -0.10535693 -0.18281524 -0.08306106 0.053570762 -0.2901412
0.09971538 0.25690103 -0.0029594218 -0.011868235 -0.08797659 -0.049129978 -0.17819633 -0.16452113
-0.0016262835 0.046383094 -0.0047634267 0.021148188 -0.035577927 0.30410856 0.0860488 -0.112079315
0.025760438 -0.047455076 -0.030901022 -0.13397935 0.0072188242 0.044418186 -0.15431477 0.14013708
-0.04192307 -0.12121579 0.11553933 -0.027461218 0.06423494 0.006377404 0.060965236 0.11895168
0.101627655 0.032661945 -0.11477626 0.07025734 -0.10447867 -0.019016942 -0.14476252 -0.108613506
-0.041856416 -0.01709114 0.040690135 -0.031943597 -0.03494636 0.19375953 0.0085581085 -0.13361607
0.024153657 -0.03909295 0.285702 -0.12271817 -0.073253125 -0.074553855 0.10555141 0.07675468
-0.04314986 -0.089753255 -0.06645869 -0.08814345 -0.08034251 -0.07902311 -0.01887187 0.044268623
0.12264044 0.02547327 0.02904957 0.14969894 -0.067770556 0.10743351 -0.1361673 0.102699175
-0.023093678 0.022606215 -0.09254607 -0.13244681 -0.04882743 -0.14404197 0.15265414 -0.12707289
0.007604882 -0.03203577 0.092341796 0.131351 0.068909146 -0.044313043 -0.08817442 -0.30429208
0.10135364 0.014144799 0.14129995 0.1394171 -0.05128582 0.03967729 -0.15506367 0.15174772
0.008517157 0.20379043 -0.059487652 0.2516459 -0.22102055 0.059975 0.022426797 -0.17795368
-0.1461594 0.031255215 0.0349152 -0.18179618 -0.16598861 -0.07258739 -0.031289283 0.0044781016
-0.03880134 0.03536237 0.070142105 0.010080963 0.04865203 -0.15549806 0.058737125 -0.06265617
-0.10944328 -0.09132482 0.15892255 -0.103724435 -0.09927201 0.06715456 -0.03981249 -0.06294291
0.13407013 0.11370728 0.06868054 0.09992048 -0.18204376 -0.027413132 0.040393572 0.1536519
-0.14617331 0.020261606 0.018992187 0.007876867 0.01346103 0.10879323 -0.15941678 0.027348071
0.0028192906 0.012618438 0.078112446 0.2052535 0.03448006 -0.15446189 0.12698627 -0.004774181
0.008453303 0.17913477 0.18407701 -0.033505894 0.0037003572 -0.00520547 -0.11007374 0.03567506
0.043502145 -0.08982897 -0.038371623 0.07214258 0.06729364 0.054300737 -0.08679632 -0.1329679
-0.11055446 0.27308878 0.0013276305 0.046794396 0.2568732 0.045603737 0.08981478 0.027165608
0.12267357 -0.101550914 -0.016323436 -0.021572925 -0.0487458 -0.046407826 0.034384836 0.06312142
0.04721077 0.11106649 0.030547915 0.21687745 -0.048188426 0.11473074 -0.18359794 0.10846402
0.1073566 0.073119864 -0.1042164 -0.028532121 0.087673 0.115877435 -0.07789189 -0.011713998
-0.012896611 -0.009829054 -0.08328467 -0.06255011 0.051328138 -0.013454165 0.13216801 -0.12889737
-0.12612812 -0.26936466 0.052548192 0.08957608 0.0035849402 0.039700437 0.052613586 0.27786404
00000000: 18f6 bc3d 3fd9 943d 3c20 acbd d9c7 8fbb
00000010: 360c 51bd 00ee 573b 521a 553d ad10 a73d
00000020: d95f a3bc 9ad0 d23d a7ef 673d 4353 363d
00000030: 64e5 963c b75f b93d f0dd cfbd 5bc8 61bd
00000040: 250f f63c 84b5 bd3c 8843 e23c 86ab cf3c
00000050: 7f61 e13d a8be 193d be50 183e 3319 173d
00000060: c568 3b3e e845 0c3e b4a2 0a3e 2bfd 1abe
00000070: b479 93bd 6194 0e3e 1950 523e a739 21bd
00000080: 2ade 95bd 9272 49bc 114f 133d 60c5 d7bd
00000090: eb33 3bbe eb1b aabd 046d 5b3d 638d 94be
000000a0: 9437 cc3d 8888 833e dcf2 41bb fc72 42bc
000000b0: 122d b4bd 843c 49bd 1979 36be 3a78 28be
000000c0: 0529 d5ba 33fc 3d3d 8516 9cbb f73e ad3c
000000d0: 29ba 11bd 1eb4 9b3e 5a3a b03d d789 e5bd
000000e0: 8e07 d33c 4160 42bd 2424 fdbc e231 09be
000000f0: e38b ec3b d8ef 353d b104 1ebe 1880 0f3e
00000100: 86b7 2bbd fc3f f8bd e29f ec3d 59f6 e0bc
00000110: 9c8d 833d 8bf9 d03b afb6 793d f09c f33d
00000120: 2922 d03d 88c8 053d d10f ebbd 15e3 8f3d
00000130: eaf8 d5bd 6bc9 9bbc a03c 14be c270 debd
00000140: a271 2bbd b802 8cbc b3aa 263d 4ad7 02bd
00000150: ea23 0fbd e668 463e 4f37 0c3c a7d2 08be
00000160: e4dd c53c ee1f 20bd 8847 923e aa53 fbbd
00000170: bc05 96bd b1af 98bd 562b d83d 8f31 9d3d
00000180: e8bd 30bd 8ed0 b7bd 7e1b 88bd 8e84 b4bd
00000190: 9d8a a4bd ded6 a1bd 2e99 9abc 0453 353d
000001a0: e92a fb3d 52ad d03c 5df9 ed3c ae4a 193e
000001b0: 4acb 8abd 1a06 dc3d 716f 0bbe f253 d23d
000001c0: f42e bdbc ab30 b93c cb88 bdbd 23a0 07be
000001d0: 45ff 47bd bd7f 13be 5e51 1c3e 651f 02be
000001e0: 6032 f93b f137 03bd b21d bd3d e080 063e
000001f0: 3d20 8d3d 9881 35bd ca94 b4bd 2ccc 9bbe
00000200: 7f92 cf3d 96bf 673c efb0 103e 5bc3 0e3e
00000210: 1411 52bd a784 223d 03c9 1ebe c163 1b3e
00000220: 8c8b 0b3c 70ae 503e 53a9 73bd bbd7 803e
00000230: 3653 62be 58a8 753d 67b8 b73c 7d39 36be
00000240: cfaa 15be 7805 003d 3e03 0f3d c728 3abe
00000250: ebf8 29be b3a8 94bd 3129 00bd 0abd 923b
00000260: 27ee 1ebd 22d8 103d aaa6 8f3d a02a 253c
00000270: 5a47 473d e23a 1fbe 5796 703d e151 80bd
00000280: cc23 e0bd 8208 bbbd 98bc 223e 7a6d d4bd
00000290: 204f cbbd 5488 893d 6c12 23bd 36e8 80bd
000002a0: ae49 093e 5ddf e83d 62a8 8c3d 1ca3 cc3d
000002b0: ae69 3abe 8191 e0bc bb73 253d ec56 1d3e
000002c0: 75ae 15be abfb a53c 8195 9b3c fa0d 013c
000002d0: a78b 5c3c fcce de3d 273e 23be 1009 e03c
000002e0: d9c3 383b 91bd 4e3c 6bf9 9f3d f92d 523e
000002f0: f73a 0d3d 422b 1ebe b008 023e bc70 9cbb
00000300: b97f 0a3c 1b6f 373e af7e 3c3e 7a3d 09bd
00000310: b181 723b a692 aabb 576e e1bd 0320 123d
00000320: 4e2f 323d 40f8 b7bd 902b 1dbd 7dbf 933d
00000330: 3fd1 893d 736a 5e3d 45c2 b1bd bd28 08be
00000340: 606a e2bd 4bd2 8b3e e303 ae3a 7bab 3f3d
00000350: e284 833e fcca 3a3d d0f0 b73d 698a de3c
00000360: 483c fb3d edf9 cfbd bab8 85bc b4b9 b0bc
00000370: ada9 47bd 2216 3ebd 1dd7 0c3d ce45 813d
00000380: 1560 413d d476 e33d 9f3f fa3c 1f15 5e3e
00000390: 3a61 45bd f3f7 ea3d 1901 3cbe 6222 de3d
000003a0: c7dd db3d debf 953d 686f d5bd 32bc e9bc
000003b0: e78d b33d 2651 ed3d c985 9fbd 12ec 3fbc
000003c0: 4f4c 53bc 0a0a 21bc 2791 aabd 461a 80bd
000003d0: 743d 523d dc6e 5cbc 0d57 073e acfd 03be
000003e0: bb27 01be 2aea 89be c63c 573d aa73 b73d
000003f0: 51f1 6a3b ed9c 223d 5881 573d 3244 8e3e

fc2.bias f4 [300]
-0.027708562 -0.097118 -0.13453214 -0.052910514 -0.14476863 -0.13479356 -0.08535094 -0.092874594
-0.070092395 -0.06425815 -0.12712944 -0.15474994 -0.017191509 -0.071611695 -0.050279073 0.7036605
-0.16101454 -0.10037074 -0.06832003 -0.10068673 -0.009905994 -0.115817 -0.112284735 -0.046980854
0.037784632 -0.033457465 -0.11910339 -0.03133656 -0.050045487 -0.024747584 -0.09003608 -0.006787217
-0.06316487 0.0018256537 -0.052566756 -0.07128812 -0.10284283 -0.08190191 -0.13420914 -0.073945664
-0.06251443 0.038541242 0.019770602 -0.16896263 -0.03388392 -0.16887318 -0.097500026 -0.10460537
-0.11645848 -0.14064685 -0.13204554 -0.032337576 -0.09576452 -0.08892829 0.18875302 -0.09654382
-0.062005047 -0.043583613 -0.051287334 -0.08338192 -0.07283206 -0.09989749 0.2555075 -0.052227676
-0.06302804 -0.12754008 -0.038637344 0.34213677 -0.157366 -0.096795954 -0.11009557 -0.07103866
-0.18346615 -0.15170938 -0.12281848 0.06423726 -0.12810767 -0.05308522 -0.1390458 -0.14974648
-0.064954706 -0.19913384 -0.07125007 0.026251981 -0.10833667 -0.09923505 -0.10664791 -0.08709236
-0.11967864 -0.09061065 -0.06881964 -0.08929481 -0.10535426 -0.08468808 -0.061305076 -0.011264472
-0.13168225 -0.14040972 -0.059537873 -0.11420774 -0.13697194 -0.09912779 0.020135073 -0.016101189
-0.032785855 -0.16446604 -0.08194888 -0.08797532 -0.09355765 -0.0665453 -0.08579917 -0.110934064
-0.12131295 -0.08118768 -0.15942946 0.07463547 0.18173271 -0.036229655 0.46875557 -0.024511127
-0.08118722 -0.18778469 -0.077064954 0.030838406 0.137033 -0.03296231 -0.04644768 -0.057493743
-0.08506776 -0.15269364 -0.2021626 0.040006865 -0.07588264 0.013786131 -0.13383807 -0.03384489
-0.0707801 -0.16862984 -0.18179087 -0.02981977 -0.023711057 -0.11954403 -0.00022299492 -0.074463725
-0.12941332 -0.10416757 -0.1394382 -0.12746033 0.0068316567 -0.057165578 -0.10216124 -0.10013599
-0.13531353 -0.025088057 -0.18799487 -0.09623775 -0.051345125 -0.08044426 -0.047685374 -0.18547742
-0.049311087 -0.1267889 -0.03837804 -0.09496276 0.0054043923 -0.15351906 -0.034610275 -0.042250745
0.029649144 -0.075296745 -0.12693344 0.090890065 -0.13549387 0.050493702 -0.06691873 -0.12922204
-0.099057004 -0.040826127 -0.080851085 -0.0135217 0.44501254 -0.2042218 -0.0151729155 -0.10516926
-0.048177525 -0.09355076 -0.11938882 -0.17256328 -0.03846233 -0.043410826 -0.099785194 -0.08323682
-0.063127495 -0.13128385 -0.06359321 -0.04366762 -0.04625521 0.01698405 -0.1129041 -0.114859395
-0.13978294 -0.068778776 0.039437283 -0.13363445 -0.19080576 -0.042417042 -0.1510127 -0.114146836
-0.039904337 0.26852575 -0.06735482 -0.035135813 -0.06502397 0.63630044 -0.19095059 -0.1262101
-0.051156394 -0.11295449 -0.13567483 -0.003966919 0.07906472 -0.08858718 -0.0705816 -0.16674617
-0.1342173 -0.08557596 -0.09783482 -0.058187302 -0.12822744 0.29479086 -0.0120676635 -0.03407522
-0.025608977 -0.15692905 0.0078715775 -0.018830074 -0.12950951 -0.0828237 -0.14044012 -0.13958877
-0.06717371 -0.17581747 -0.14676397 -0.14220937 -0.13275498 -0.10025724 0.03042974 -0.056210283
-0.09171247 -0.067779265 -0.037452143 -0.14644991 0.19615598 -0.096013136 -0.024759024 -0.09078657
00000000: 11fd e2bc cde5 c6bd cbc2 09be b2b8 58bd
00000010: 3a3e 14be 5307 0abe 79cc aebd 0935 bebd
00000020: 9a8c 8fbd c799 83bd 382e 02be c576 1ebe
00000030: 35d5 8cbc 27a9 92bd 6ef1 4dbd 1823 343f
00000040: ffe0 24be 2d8f cdbd 5feb 8bbd d834 cebd
00000050: c04c 22bc 7731 edbd 8af5 e5bd ff6e 40bd
00000060: 0fc4 1a3d b20a 09bd 7aec f3bd c45a 00bd
00000070: 7ffc 4cbd 72bb cabc d664 b8bd 4e67 debb
00000080: 955c 81bd c64a ef3a 3d50 57bd 81ff 91bd
00000090: 439f d2bd 30bc a7bd 1f6e 09be d370 97bd
000000a0: 9107 80bd 6cdd 1d3d f5f5 a13c 8a04 2dbe
000000b0: dec9 0abd 17ed 2cbe 18ae c7bd 573b d6bd
000000c0: c981 eebd ba05 10be f236 07be 6874 04bd
000000d0: 3020 c4bd 0920 b6bd 7948 413e c4b8 c5bd
000000e0: 01f9 7dbd bb84 32bd ab12 52bd 24c4 aabd
000000f0: fa28 95bd 0e97 ccbd e1d1 823e b0ec 55bd
00000100: d814 81bd de99 02be 3142 1ebd 8d2c af3e
00000110: 8d24 21be f53c c6bd c979 e1bd b87c 91bd
00000120: 8dde 3bbe b459 1bbe 4188 fbbd d38e 833d
00000130: a82e 03be e36f 59bd 0662 0ebe 2457 19be
00000140: f906 85bd bee9 4bbe 8feb 91bd 650e d73c
00000150: 9edf ddbd bf3b cbbd 386a dabd 7b5d b2bd
00000160: 131a f5bd 1492 b9bd 50f1 8cbd 33e0 b6bd
00000170: f9c3 d7bd f270 adbd 081b 7bbd 9f8e 38bc
00000180: b6d7 06be 91c7 0fbe fcdd 73bd bfe5 e9bd
00000190: 5f42 0cbe 8303 cbbd 4ff2 a43c a4e6 83bc
000001a0: 764a 06bd c969 28be d0d4 a7bd 682c b4bd
000001b0: 279b bfbd e748 88bd 7ab7 afbd 6631 e3bd
000001c0: ed72 f8bd ba45 a6bd 7a41 23be 7bda 983d
000001d0: 2418 3a3e 8c65 14bd bb00 f03e 8fcb c8bc
000001e0: 7c45 a6bd a14a 40be 3bd4 9dbd d3a0 fc3c
000001f0: 6152 0c3e 7d03 07bd ec3f 3ebd 8f7e 6bbd
00000200: 0138 aebd b95b 1cbe b603 4fbe 3dde 233d
00000210: 5c68 9bbd 39df 613c d90c 09be f0a0 0abd
00000220: 28f5 90bd 4dad 2cbe 6327 3abe 9748 f4bc
00000230: b13d c2bc 80d3 f4bd bed3 69b9 7080 98bd
00000240: ed84 04be cf55 d5bd e3c8 0ebe f684 02be
00000250: 17dc df3b 7426 6abd ea39 d1bd 1914 cdbd
00000260: a18f 0abe 7885 cdbc ba81 40be 4c18 c5bd
00000270: 444f 52bd f6bf a4bd bd51 43bd cbed 3dbe
00000280: 6cfa 49bd f3d4 01be 4b32 1dbd d67b c2bd
00000290: 5417 b13b 1a34 1dbe 81c3 0dbd 1e0f 2dbd
000002a0: c3e2 f23c 2e35 9abd d7fa 01be 9224 ba3d
000002b0: e8be 0abe 7cd2 4e3d b00c 89bd c852 04be
000002c0: 66de cabd 4c39 27bd 4195 a5bd 1f8a 5dbc
000002d0: afd8 e33e 851f 51be d297 78bc fb62 d7bd
000002e0: cc55 45bd 8a97 bfbd 2082 f4bd 6eb4 30be
000002f0: ad8a 1dbd 8dcf 31bd 2e5c ccbd 1178 aabd
00000300: fd48 81bd 466f 06be 283d 82bd d1dc 32bd
00000310: 1a76 3dbd 2222 8b3c 443a e7bd 673b ebbd
00000320: 4223 0fbe e3db 8cbd fd88 213d 78d7 08be
00000330: 9662 43be 7ebd 2dbd 13a3 1abe d1c5 e9bd
00000340: bb72 23bd 357c 893e 53f1 89bd 92ea 0fbd
00000350: 4a2b 85bd 96e4 223f 8d88 43be 383d 01be
00000360: 5e89 51bd af54 e7bd 58ee 0abe eefc 81bb
00000370: afec a13d 326d b5bd 168d 90bd 82bf 2abe
00000380: 4370 09be 7342 afbd 9f5d c8bd cf55 6ebd
00000390: 0e4e 03be d4ee 963e 73b7 45bc 7592 0bbd
000003a0: ebc9 d1bc 02b2 20be caf7 003c 8741 9abc
000003b0: 249e 04be 799f a9bd 89cf 0fbe 5cf0 0ebe
000003c0: 5f92 89bd 7f09 34be 4b49 16be 559f 11be
000003d0: ecf0 07be ab53 cdbd ca47 f93c c13c 66bd
000003e0: bfd3 bbbd dbcf 8abd 6b67 19bd f7f6 15be
000003f0: 1ddd 483e 89a2 c4bd 70d3 cabc 4fee b9bd

fc3.weight f4 [4, 300]
0.052985214 0.05793349 0.021764727 -0.34998444 -0.08152952 -0.10371975 -0.18218432 0.027586387
0.5713666 -0.4229624 0.2810122 -0.07864703 -0.35293075 0.03783159 0.30059636 -0.106994316
0.3466391 -0.29792213 0.052093055 0.24358988 0.3347915 -0.21917954 0.6409323 -0.57490736
0.09133214 -0.16909255 -0.64071786 -0.5092819 -0.25570646 -0.19716644 -0.15075347 0.15680224
0.51591575 0.26701772 0.50224084 -0.051643986 0.020282373 0.3584772 0.068918966 0.37108582
-0.7105612 -0.13542256 -0.08997957 0.098541506 -0.2056091 -0.23191743 -0.3649292 -0.3522137
0.09390453 0.18171483 0.30087465 1.0925863 0.3570053 -1.1248715 -0.13957262 0.8932156
-0.20132017 -0.4739587 -0.22609353 0.21464999 0.06431353 -0.7841329 0.16951562 -0.05731724
-0.31201467 0.094799004 0.59061104 -0.059351657 -0.5420952 0.35729253 0.63631815 0.20267634
-0.2752003 0.0100831445 0.20332503 -0.22976106 0.7791318 -0.012525088 0.1338383 -0.061495073
-1.2112776 -0.011691769 0.15327618 -0.13796537 -0.18098526 0.46342117 -0.34137183 0.20891868
0.21532676 -0.62110025 0.3819013 -0.6678853 0.2726737 0.44954142 0.31712586 0.11999032
0.6304329 0.11931044 0.50375813 -0.6338242 0.23343937 0.022458766 0.2750221 -0.2103962
0.17226651 -0.04388179 0.053191353 0.0069579664 0.5272649 -0.5897775 0.4193422 -0.010086253
0.568532 0.18478028 0.16793033 -0.38882074 -0.34764186 0.79493093 0.20656066 -0.12783857
0.19979723 -0.38297403 -0.46715093 -0.7527622 0.29446435 0.43842083 0.2592072 0.51772565
-0.6636449 -0.14040197 -0.0010689473 0.8819022 0.18907905 0.48854417 -0.31600228 0.6553077
-0.011258252 -0.19889246 0.044400044 -1.2950901 -0.20468992 0.7586132 -0.37329674 -0.20421396
-0.35526744 0.36538878 -0.41761205 0.78376716 -0.07645645 0.41746664 -0.016768733 -0.8368142
-0.26259455 0.10017757 0.023366464 -0.25281402 0.13072124 -0.34919292 0.48145133 0.44182244
0.5330829 -0.30446008 -0.275397 0.58538127 0.24604826 0.26114655 0.10295725 -0.23819746
-0.11605387 -0.06534094 0.15652604 -0.08537612 0.29134437 -0.43738165 0.31103393 -0.22044706
0.6218618 0.6893098 0.6461547 0.08607932 -0.6160662 -0.02575668 0.17019646 -0.22065768
0.1693618 1.284195 -0.07710104 0.11856974 -0.45665 -0.269967 -0.4136166 0.39166817
-0.20295472 0.66734344 -0.05866927 0.5985845 -0.3344301 0.48647583 0.20035757 -0.20942222
0.42420027 0.005681104 0.28617215 -0.30068916 0.43893638 0.3656418 0.22627912 0.7406656
0.8302591 0.08881283 0.09707727 0.60818726 0.04629324 0.042643096 -0.31584525 0.109511055
-0.5319104 0.22917876 -0.22834876 0.5603589 -0.4134122 0.5710229 0.3021015 -0.5018558
0.05280727 0.70681524 0.6508621 -0.081076056 -0.16472295 0.069249585 0.032167103 0.44421607
0.8952379 -0.44241416 -0.32077643 0.6932552 -0.16519715 0.7619971 0.00013466964 0.5024026
0.41737404 0.2201661 0.025728233 -0.42012852 0.21818152 -0.27294415 -0.6646028 0.6060165
-0.34116936 -0.020619575 0.52663237 -0.73668915 0.64909965 0.5019737 0.14620936 0.4206485
00000000: 0607 593d ab4b 6d3d f14b b23c 2931 b3be
00000010: f3f8 a6bd 056b d4bd 878e 3abe d9fc e13c
00000020: 1545 123f 878e d8be d5e0 8f3e b211 a1bd
00000030: 57b3 b4be 4cf5 1a3d c4e7 993e d61f dbbd
00000040: ae7a b13e 4089 98be 875f 553d a06f 793e
00000050: cb69 ab3e 9a70 60be 2414 243f 212d 13bf
00000060: 580c bb3d 9926 2dbe 1606 24bf 4c60 02bf
00000070: f5eb 82be 00e6 49be 1e5f 1abe c490 203e
00000080: 0e13 043f 8cb6 883e db92 003f a588 53bd
00000090: 3827 a63c 538a b73e 6325 8d3d f6fe bd3e
000000a0: 57e7 35bf 36ac 0abe 3547 b8bd 21d0 c93d
000000b0: 318b 52be c37b 6dbe 00d8 babe 5b55 b4be
000000c0: 0551 c03d 7413 3a3e 3e0c 9a3e ded9 8b3f
000000d0: 66c9 b63e cafb 8fbf 20ec 0ebe c7a9 643f
000000e0: e026 4ebe b7aa f2be 1085 67be 35cd 5b3e
000000f0: d0b6 833d efbc 48bf 8195 2d3e 7bc5 6abd
00000100: 63c0 9fbe fb25 c23d 4932 173f b91a 73bd
00000110: c0c6 0abf 0cef b63e bfe5 223f 638a 4f3e
00000120: 0ee7 8cbe c633 253c 7034 503e 7c46 6bbe
00000130: 2f75 473f 0736 4dbc e80c 093e 42e2 7bbd
00000140: 250b 9bbf d58e 3fbc 6ef4 1c3e cb46 0dbe
00000150: 3354 39be 8a45 ed3e 4ac8 aebe c7ee 553e
00000160: 9e7e 5c3e 6d00 1fbf 9188 c33e 88fa 2abf
00000170: e39b 8b3e 4b2a e63e 525e a23e 7cbd f53d
00000180: 0d64 213f 0859 f43d 4bf6 003f 4e42 22bf
00000190: bb0a 6f3e 72fb b73c b2cf 8c3e 1a72 57be
000001a0: a266 303e 64bd 33bd 2ddf 593d a7ff e33b
000001b0: d5fa 063f a9fb 16bf 05b4 d63e d040 25bc
000001c0: 508b 113f 0b37 3d3e eef5 2b3e 8313 c7be
000001d0: 1dfe b1be 9880 4b3f a384 533e 1de8 02be
000001e0: a597 4c3e 2c15 c4be 682e efbe 06b5 40bf
000001f0: 08c4 963e b278 e03e ceb6 843e ab89 043f
00000200: a2e4 29bf 89c5 0fbe eb1b 8cba 58c4 613f
00000210: f09d 413e 7622 fa3e 0dcb a1be 3fc2 273f
00000220: 8874 38bc 77aa 4bbe d2dc 353d 83c5 a5bf
00000230: 3c9a 51be 7a34 423f c020 bfbe 771d 51be
00000240: 9de5 b5be 3d14 bb3e 3fd1 d5be f7a4 483f
00000250: 3395 9cbd 30be d53e 955e 89bc 7539 56bf
00000260: cb72 86be e629 cd3d 076b bf3c d770 81be
00000270: cadb 053e 6ac9 b2be ca80 f63e 8d36 e23e
00000280: 1f78 083f 31e2 9bbe d600 8dbe 8cdb 153f
00000290: 13f4 7b3e 00b5 853e 40db d23d 09ea 73be
000002a0: a7ad edbd 79d1 85bd 5d48 203e add9 aebd
000002b0: 172b 953e 7df0 dfbe d73f 9f3e e0bc 61be
000002c0: 5632 1f3f 9b76 303f 656a 253f 5b4a b03d
000002d0: 84b6 1dbf acff d2bc fb47 2e3e 16f4 61be
000002e0: 2e6d 2d3e 8060 a43f 26e7 9dbd b1d4 f23d
000002f0: 07ce e9be 1d39 8abe 8ec5 d3be bb88 c83e
00000300: 5dd3 4fbe 05d7 2a3f 304f 70bd d53c 193f
00000310: 6c3a abbe 5c13 f93e 892a 4d3e c772 56be
00000320: c730 d93e 8e28 ba3b 2885 923e eef3 99be
00000330: 45bc e03e 6735 bb3e b7b5 673e 439c 3d3f
00000340: dc8b 543f 80e3 b53d 73d0 c63d 29b2 1b3f
00000350: fb9d 3d3d 87aa 2e3d 78b6 a1be 5547 e03d
00000360: 482b 08bf d6ad 6a3e 42d4 69be ae73 0f3f
00000370: c4aa d3be 8f2e 123f 0cad 9a3e 9f79 00bf
00000380: 704c 583d d8f1 343f e69e 263f 340b a6bd
00000390: 22ad 28be bad2 8d3d a7c1 033d 4a70 e33e
000003a0: 502e 653f 1c84 e2be cf3c a4be 2c79 313f
000003b0: 7129 29be 3e12 433f 1b36 0d39 759d 003f
000003c0: 0db2 d53e 3973 613e 04c4 d23c 161b d7be
000003d0: fa6a 5f3e 56bf 8bbe 6923 2abf e623 1b3f
000003e0: c0ad aebe 62ea a8bc 61d1 063f a997 3cbf
000003f0: 652b 263f 5981 003f e8b7 153e 3d5f d73e

fc3.bias f4 [4]
-0.040159997 0.011039328 -0.050502256 0.0051607355
00000000: cf7e 24bd 4cde 343c 74db 4ebd 631b a93b

bn1.weight f4 [400]
0.3210954 0.65740174 0.446767 0.75271857 0.7214568 0.37223575 0.38716167 0.19995183
0.61972994 0.48833075 0.35968944 0.28315514 0.47370574 0.3260561 0.45369726 0.42180493
0.5128559 0.46810672 0.42124563 0.5214982 0.44036254 0.69664896 0.35746837 0.25363818
0.30123106 0.18010151 0.5172738 0.341303 0.36241716 0.27058417 0.5934187 0.43162084
0.76341283 0.17753533 0.52998525 0.38094828 0.36590734 0.5927067 0.8214456 0.38459203
0.65306866 0.37015596 0.48165253 0.53274316 0.4632506 0.3986839 0.6486921 0.66199344
0.4570799 0.48467976 0.28148815 0.20853044 0.64627886 0.5191291 0.63303584 0.6670866
0.53384256 0.46176744 0.34839678 0.5409367 0.44314796 0.34234694 0.58336014 0.2872136
0.38437513 0.41321257 0.4900465 0.237547 0.7526914 0.73699194 0.3557127 0.49298403
0.41005647 0.42170873 0.6081818 0.43003446 0.650123 0.8241551 0.20076816 0.58521384
0.6118256 0.4892302 0.8169046 0.45874494 0.5829537 0.37427247 0.80500495 0.59610087
0.7570393 0.6444552 0.47833726 0.5675089 0.7101962 0.45563504 0.3635527 0.40014696
0.61077434 0.69870424 0.23037283 1.0113003 0.68363637 0.30091465 1.0091146 0.42465597
0.70006526 0.2497205 0.14671874 0.4977993 0.41219366 0.4250787 0.70820034 0.43027416
0.2982467 0.5189148 0.43551186 0.6838236 0.51928306 0.36514005 0.7497508 0.55076325
0.7702651 0.4506822 0.32029375 0.42890915 0.34741965 0.65713173 0.37061748 0.79031056
0.27772692 0.7103374 0.5522149 0.5667803 0.29283324 0.12004085 0.36804834 1.2937992
0.2970905 0.3110988 0.2835532 0.402705 0.46454298 0.52401125 0.7553509 0.60362476
0.80904084 0.35839638 0.3454174 0.5198741 0.47123823 0.35117334 0.2871345 0.50937134
0.550144 0.48538947 0.32189652 0.10443431 0.60967857 0.26196396 0.19166115 0.5282161
0.60572547 0.3386393 0.51587915 1.1543134 0.25402343 0.56099564 0.026254958 0.54650867
0.6742557 0.45828587 0.37836412 0.30019212 0.466834 0.5978683 0.27428728 0.37660733
0.36125252 -0.41646916 0.50288695 0.52424765 0.84235734 0.5129315 0.28483865 0.6419919
0.43013117 0.40157452 0.59404886 0.56413716 -0.302846 0.5913688 0.5735163 0.32658023
0.29164636 0.50119483 0.42473346 0.6750331 0.4850606 0.35345554 0.24642724 0.5644014
0.46895415 0.76599544 0.94620377 0.40635523 0.5208024 0.5785328 0.4300314 0.47850934
0.4423491 0.55379885 0.58649725 0.5350538 0.54621994 0.62526745 0.82640463 0.32343116
0.4142833 0.58664596 0.28556448 0.3862992 0.38711926 0.37122494 0.35837093 0.66591257
0.19232015 0.36214092 0.6505379 0.39104992 0.65866345 0.42196766 0.36519068 0.69612
0.8241143 0.54114413 0.49692535 0.53597337 -0.29642636 0.5324647 0.2611406 0.23468193
0.43270203 0.68252516 0.28706262 0.480103 0.3969253 0.43619782 0.28618115 0.73459
0.8008058 0.5034899 0.5457387 0.46052712 0.7138658 0.3798524 0.35873178 0.67933315
00000000: 9e66 a43e 7b4b 283f a5be e43e 2ab2 403f
00000010: 65b1 383f af95 be3e 0e3a c63e 2cc0 4c3e
00000020: 9fa6 1e3f 7d06 fa3e 3729 b83e b6f9 903e
00000030: 8f89 f23e d3f0 a63e 024b e83e d1f6 d73e
00000040: 864a 033f afab ef3e 82ad d73e e880 053f
00000050: 3377 e13e 9657 323f 1806 b73e dddc 813e
00000060: f53a 9a3e 886c 383e 0e6c 043f 44bf ae3e
00000070: be8e b93e 028a 8a3e 4aea 173f 68fd dc3e
00000080: 066f 433f d2cb 353e 1dad 073f a70b c33e
00000090: 3558 bb3e a0bb 173f 424a 523f 3fe9 c43e
000000a0: 822f 273f 1585 bd3e 299b f63e db61 083f
000000b0: 2f2f ed3e 4c20 cc3e af10 263f 6778 293f
000000c0: 6006 ea3e f227 f83e 371f 903e 0189 553e
000000d0: 8872 253f a5e5 043f a30e 223f 30c6 2a3f
000000e0: e8a9 083f c86c ec3e 1061 b23e d47a 0a3f
000000f0: 4ae4 e23e 1948 af3e 1757 153f a90d 933e
00000100: d1cc c43e 9990 d33e 60e7 fa3e 853f 733e
00000110: 62b0 403f 81ab 3c3f fa1f b63e 6768 fc3e
00000120: ecf2 d13e 35ea d73e cdb1 1b3f 7a2d dc3e
00000130: 766e 263f d4fb 523f 2b96 4d3e 93d0 153f
00000140: 9aa0 1c3f 617c fa3e a920 513f 9ee0 ea3e
00000150: 743c 153f a4a0 bf3e ce14 4e3f 119a 183f
00000160: 54cd 413f 04fb 243f 9fe8 f43e 4348 113f
00000170: 6bcf 353f ff48 e93e 9423 ba3e 10e0 cc3e
00000180: b55b 1c3f 48de 323f dbe6 6b3e 4a72 813f
00000190: cb02 2f3f 7c11 9a3e ab2a 813f 826c d93e
000001a0: 7a37 333f bbb6 7f3e 703d 163e 8ddf fe3e
000001b0: 0c0b d33e eaa3 d93e 9e4c 353f e54c dc3e
000001c0: cbb3 983e 9ad7 043f 69fb de3e 100f 2f3f
000001d0: bcef 043f a3f3 ba3e abef 3f3f d2fe 0c3f
000001e0: 1830 453f d1bf e63e 8bfd a33e fb99 db3e
000001f0: fde0 b13e c939 283f 93c1 bd3e cb51 4a3f
00000200: 3932 8e3e acd8 353f f55d 0d3f 8418 113f
00000210: 3dee 953e fad7 f53d d570 bc3e 369b a53f
00000220: 3f1c 983e 5848 9f3e e32d 913e 5a2f ce3e
00000230: 94d8 ed3e 9a25 063f ad5e 413f 2787 1a3f
00000240: 4d1d 4f3f bb7f b73e 8dda b03e 7816 053f
00000250: 2346 f13e fecc b33e 4b03 933e 2966 023f
00000260: 3dd6 0c3f f884 f83e 9fcf a43e a8e1 d53d
00000270: e513 1c3f 2420 863e d242 443e 2c39 073f
00000280: d310 1b3f 2162 ad3e a810 043f 8bc0 933f
00000290: 5c0f 823e 699d 0f3f a314 d73c fee7 0b3f
000002a0: 069c 2c3f 72a4 ea3e f1b8 c13e c8b2 993e
000002b0: de04 ef3e e60d 193f 626f 8c3e add2 c03e
000002c0: 17f6 b83e 723b d5be 33bd 003f 1835 063f
000002d0: bba4 573f 7b4f 033f 5fd6 913e 9559 243f
000002e0: 273a dc3e 2d9b cd3e 9613 183f 4b6b 103f
000002f0: a20e 9bbe f263 173f f7d1 123f 8635 a73e
00000300: ac52 953e 4e4e 003f aa76 d93e f8ce 2c3f
00000310: dd59 f83e 20f8 b43e 6c57 7c3e 9c7c 103f
00000320: c21a f03e 4718 443f 693a 723f cb0d d03e
00000330: 4e53 053f ba1a 143f 132d dc3e 2dff f43e
00000340: 957b e23e c3c5 0d3f af24 163f 49f9 083f
00000350: 12d5 0b3f 8711 203f 418f 533f c598 a53e
00000360: f11c d43e 6e2e 163f 8235 923e 02c9 c53e
00000370: 7f34 c63e 3211 be3e 657c b73e 3f79 2a3f
00000380: 93ef 443e 896a b93e a789 263f b237 c83e
00000390: 2b9e 283f 250c d83e 46fa ba3e ec34 323f
000003a0: 28f9 523f 6c88 0a3f 006d fe3e 8d35 093f
000003b0: 32c5 97be 9b4f 083f 39b4 853e 7650 703e
000003c0: 1f8b dd3e f8b9 2e3f dff9 923e 0fd0 f53e
000003d0: cb39 cb3e 5255 df3e 5686 923e 170e 3c3f
000003e0: 9c01 4d3f b7e4 003f 88b5 0b3f 36ca eb3e
000003f0: e9bf 363f 047c c23e b1ab b73e c7e8 2d3f

bn1.bias f4 [400]
0.10039436 -0.15543303 -0.0066217883 0.26675943 0.23888928 -0.09128023 0.3901884 -0.36151156
0.030984001 -0.20076413 -0.05467316 0.23830009 0.32273647 -0.019529456 0.23822959 -0.043514024
-0.7749028 0.21524882 -0.0029976147 -0.08005414 0.043695733 0.26170483 0.030487757 -0.3666913
-0.3534811 -0.40463996 0.044707045 0.6218248 0.052304313 0.025191752 -0.02994199 0.016919605
0.2255478 -0.22899647 -0.11410534 0.063858405 -0.34275046 0.5871258 0.18089452 0.4088588
0.31551087 0.18398626 0.3427561 -0.09439046 0.023393182 -0.061151505 0.2082243 -0.19531065
-0.13129418 0.15101251 0.52658004 -0.29114264 0.38623223 0.13611855 -0.06655547 -0.26843086
0.32425597 0.3288731 -0.14465463 0.31347945 0.45586187 -0.3610813 0.028112732 -0.21215121
-0.1951429 0.41342208 0.84625584 -0.044042245 -0.05753168 -0.24031094 -0.73216283 0.22541842
0.043045044 -0.31033266 -0.042705074 -0.007002027 0.009926897 0.24154241 0.08742354 0.10174165
0.4286513 0.21337438 0.13817388 -0.3478289 -0.1813942 -0.0136251515 0.029862156 0.060558677
0.40787667 -0.27059254 0.31601307 0.061982233 0.16912541 0.7228596 0.1141314 -0.17986356
0.038871653 -0.23704349 0.6978118 0.14347145 0.12989481 -0.24029636 0.24013275 -0.28504196
0.2313012 -0.62936234 -0.3939496 -0.45878902 0.296793 0.43027955 0.41584262 -0.3489575
0.12074732 0.013876888 0.42291164 0.16980095 0.33891246 0.1889878 0.30278382 0.22003427
-0.019627647 0.66231304 0.14362594 -0.3190029 -0.51391375 -0.036325406 -0.106844336 -0.0039008972
-0.07406123 0.3322269 -0.09818236 0.2352828 0.61902726 -0.5267309 -0.11693562 0.3474539
-0.27935675 -0.096779555 -0.10021381 0.41696835 0.21277045 0.21661146 -0.10869294 0.2742992
0.40416402 -0.2631768 -0.05335026 0.61775047 0.32356146 0.26240525 -0.1946742 0.35177082
0.27573356 -0.17725274 0.12549977 -0.5543564 -0.047673807 -0.15294832 -0.08606568 0.3445132
0.24270017 0.09128 -0.0888753 0.2919689 0.16176209 -0.032270182 -0.70436025 -0.23855336
-0.1744785 -0.085556276 -0.14675602 0.1192413 0.010576009 0.13419281 -0.2828954 -0.27372435
0.2070415 -0.64027613 0.3993532 -0.17375347 -0.06380971 -0.022829082 -0.008874404 0.031074598
0.049580403 0.57929903 -0.109828666 0.35723394 -0.75748724 0.030273397 0.14418823 -0.19378968
-0.21281745 0.14208731 0.046410933 0.36672977 0.10179555 -0.25028703 0.77639735 0.3500303
0.32957733 0.22365426 0.17775396 0.39735392 0.23327732 0.096028306 -0.30353707 -0.12671785
-0.16581859 0.26401544 0.22534744 0.055507544 -0.00081113103 -0.18544742 -0.13828495 0.14710434
0.5995659 -0.3337712 0.049920894 -0.09826794 0.11794601 0.56671846 -0.10189949 -0.06863926
-0.7747042 -0.031704914 0.19458789 -0.016346047 0.2743311 0.13301547 0.19021411 -0.14141713
0.417242 0.23977365 -0.3458483 -0.1384515 0.16310985 0.3408237 0.2157905 -0.055639282
0.2255348 0.21092911 0.05679917 -0.06866922 0.63153565 0.38074318 -0.031733245 0.28322297
0.5209824 0.038877532 -0.026206374 -0.5824094 -0.046797954 0.37232402 0.18697707 -0.28072196
00000000: 8f9b cd3d d629 1fbe 96fb d8bb b194 883e
00000010: 649f 743e 21f1 babd c6c6 c73e 0b18 b9be
00000020: 29d2 fd3c 1d95 4dbe f7f0 5fbd f004 743e
00000030: b73d a53e 3dfc 9fbc 75f2 733e c33b 32bd
00000040: 0860 46bf 306a 5c3e a173 44bb 6df3 a3bd
00000050: 4cfa 323d 2dfe 853e 76c1 f93c f6be bbbe
00000060: 7afb b4be f82c cfbe bc1e 373d e92f 1f3f
00000070: 0c3d 563d ef5e ce3c e748 f5bc fc9a 8a3c
00000080: 01f6 663e 0d7e 6abe 0fb0 e9bd 32c8 823d
00000090: fd7c afbe e04d 163f 6a3c 393e f155 d13e
000000a0: a48a a13e e566 3c3e ba7d af3e c94f c1bd
000000b0: 0fa3 bf3c 007a 7abd c038 553e 84ff 47be
000000c0: fb71 06be 06a3 1a3e f3cd 063f a610 95be
000000d0: 3bc0 c53e a962 0b3e 3c4e 88bd c56f 89be
000000e0: e104 a63e 0e62 a83e 5820 14be 6180 a03e
000000f0: ba66 e93e a6df b8be ac4c e63c 2b3e 59be
00000100: 8ad3 47be 0fac d33e 39a4 583f a465 34bd
00000110: 57a6 6bbd 1214 76be 066f 3bbf 16d4 663e
00000120: 0050 303d ece3 9ebe 84eb 2ebd 4271 e5bb
00000130: 6ca4 223c e556 773e 1d0b b33d ed5d d03d
00000140: 2f78 db3e d07e 5a3e 747d 0d3e a116 b2be
00000150: 67bf 39be 073c 5fbc 7ba1 f43c 600c 783d
00000160: 36d5 d03e 1b8b 8abe 77cc a13e 15e1 7d3d
00000170: 362f 2d3e 540d 393f b9bd e93d 272e 38be
00000180: e237 1f3d 87bb 72be cba3 323f 2eea 123e
00000190: 2503 053e 4010 76be 5ce5 753e 05f1 91be
000001a0: 39da 6c3e e41d 21bf c3b3 c9be 65e6 eabe
000001b0: 41f5 973e 9a4d dc3e 53e9 d43e 8faa b2be
000001c0: 5f4a f73d e35b 633c e087 d83e 4de0 2d3e
000001d0: ef85 ad3e 0586 413e 7b06 9b3e aa50 613e
000001e0: 29ca a0bc 598d 293f ae12 133e 5954 a3be
000001f0: da8f 03bf f3c9 14bd 34d1 dabd 32a6 7fbb
00000200: 6aad 97bd a519 aa3e d513 c9bd f9ed 703e
00000210: 9278 1e3f d6d7 06bf f17b efbd 7ae5 b13e
00000220: d907 8fbe 5c34 c6bd e63c cdbd e07c d53e
00000230: 7fe0 593e 65cf 5d3e 679a debd f270 8c3e
00000240: 96ee ce3e 1cbf 86be cd85 5abd e524 1e3f
00000250: d9a9 a53e fb59 863e ac58 47be 4e1b b43e
00000260: f32c 8d3e be81 35be 0383 003e 4dea 0dbf
00000270: 9c45 43bd 7c9e 1cbe 3443 b0bd 0964 b03e
00000280: 6586 783e 02f1 ba3d 4104 b6bd f37c 953e
00000290: f6a4 253e bd2d 04bd f450 34bf 5547 74be
000002a0: 7eaa 32be 2138 afbd 3647 16be c834 f43d
000002b0: ff46 2d3c d769 093e aad7 90be 9925 8cbe
000002c0: b002 543e 23e9 23bf 0678 cc3e 6eec 31be
000002d0: aaae 82bd 0e04 bbbc f365 11bc 2890 fe3c
000002e0: d214 4b3d f14c 143f daed e0bd 5ee7 b63e
000002f0: afea 41bf eaff f73c 14a6 133e cd70 46be
00000300: d1ec 59be 567f 113e 6419 3e3d 01c4 bb3e
00000310: 2f7a d03d 9f25 80be fac1 463f 2c37 b33e
00000320: 5cbe a83e 9f05 653e 2205 363e f971 cb3e
00000330: 40e0 6e3e 7daa c43d 3669 9bbe 53c2 01be
00000340: 59cc 29be 082d 873e 7bc1 663e e15b 633d
00000350: 15a2 54ba eee5 3dbe 929a 0dbe 85a2 163e
00000360: 277d 193f 0fe4 aabe da79 4c3d b440 c9bd
00000370: ad8d f13d 7614 113f aeb0 d0bd be92 8cbd
00000380: 0453 46bf 03dd 01bd 0c42 473e 25e8 85bc
00000390: 2075 8c3e 3535 083e 7dc7 423e a7cf 10be
000003a0: bea0 d53e 3987 753e 0713 b1be 3bc6 0dbe
000003b0: 4506 273e 7280 ae3e 2ff8 5c3e 04e6 63bd
000003c0: 98f2 663e cdfd 573e 3fa6 683d 73a2 8cbd
000003d0: 52ac 213f c5f0 c23e b8fa 01bd 9a02 913e
000003e0: 1a5f 053f 0c3e 1f3d c0ae d6bc c818 15bf
000003f0: 36af 3fbd 41a1 be3e eb76 3f3e caba 8fbe

bn1.running_mean f4 [400]
0.03465151 0.31451026 0.190927 0.07626441 0.052196365 0.009190057 0.074903645 0.15460771
0.0746229 0.03344697 0.016916366 0.12146675 0.70824176 0.1370536 0.6474958 0.42712677
0.104962125 0.29601032 0.4678578 0.018044602 0.0002683558 0.17715672 0.37314937 0.046568707
0.018887429 0.0003644734 0.00094994693 0.04642086 0.53579694 0.3172575 0.009830353 0.003116887
1.0567654 2.7570607e-10 0.80525714 1.8821946e-06 0.015738068 0.11781685 0.16332069 0.23803481
0.35922274 0.06697329 0.1353266 0.19984066 0.12737449 0.18914239 6.3278707e-09 0.39431235
0.16892375 0.06301744 3.1158837e-05 2.6378586e-05 0.0865524 0.3793761 0.5267789 0.24192858
1.1866321e-05 5.154059e-05 0.0557095 0.0957149 0.41804844 0.0007535296 0.07440355 0.1286435
0.122095145 0.431637 0.10303225 0.345625 0.17718253 1.79711e-08 0.35369012 0.14587775
0.049648307 0.061137605 0.21445002 0.385758 0.7601298 0.07004336 1.0902101 0.77578926
0.7637966 0.10976769 0.00014693636 0.14998607 0.023532601 0.2289509 0.3847609 0.5689818
0.19743674 0.15184025 0.20814113 0.46168968 0.014184565 0.22037755 0.83654916 0.011994151
0.059018385 0.57015663 0.8482357 0.12220615 0.40303707 1.0914512 0.21182883 0.061035145
0.11403583 0.12326158 1.6321229e-06 0.13134268 0.048495777 0.42277026 0.04055589 0.47568557
1.719098e-05 0.12201176 0.07917886 0.13930812 0.33504713 0.022545574 0.042051792 0.11017901
0.06281175 9.8763965e-05 0.0096597485 0.044653248 0.035837214 0.7550564 0.29650354 0.03189789
0.08735476 0.0326485 0.43278348 0.38645703 0.30073765 0.015361786 0.0024610523 0.06264639
0.20513906 0.1256056 0.17139925 0.2683737 0.002332131 0.0016819779 0.19467501 0.49070033
0.0039407895 5.694255e-05 0.391203 0.1900511 0.2878802 0.089505434 0.11597688 0.06742175
0.0019700734 0.036387347 0.00070543104 0.7881513 0.02366244 0.8785825 0.0021206124 0.24465437
0.15172972 0.08584827 0.26701373 0.058861308 1.2280408e-07 0.3966139 0.81556726 0.27345002
0.039648578 0.019350922 0.22916177 0.06205436 0.16112912 0.030001557 0.013786106 0.000114495
0.018209536 0.60943055 0.37634316 1.2477221e-09 0.23654236 0.024861261 0.005072396 0.25550133
0.2093372 0.00038018377 0.12599815 0.014786577 0.43326828 0.016686475 0.48893225 0.044523638
0.4360031 0.5712432 0.079212844 0.2483544 0.1830159 1.6950476 0.008940025 0.013509787
0.23429054 0.040486902 0.3351184 0.5279024 0.13114816 0.10344162 0.014950014 0.2889983
0.29798725 0.15034299 0.5201793 0.030928351 0.03325103 0.17415752 0.803128 0.26625264
0.013049629 0.42200246 0.67260146 0.0014994052 0.52882266 0.081981905 0.048292395 0.107155934
0.03459369 0.23440672 0.011662781 0.009782244 0.43103415 0.0017958139 0.050641984 0.6083784
0.08516322 0.39518237 0.087205894 0.06484631 0.26184046 0.051482245 3.9266308e-07 5.837505e-06
0.65506124 0.23494914 0.22655144 1.2828441 0.010979839 0.33682123 0.19326779 0.412581
0.084435 0.25957808 0.023509506 0.15767196 0.0014820471 0.04935745 0.401051 0.28580433
00000000: beee 0d3d 7d07 a13e 5e82 433e 8430 9c3d
00000010: dbcb 553d e591 163c 1567 993d 7c51 1e3e
00000020: e4d3 983d b1ff 083d 3194 8a3c 8fc3 f83d
00000030: 554f 353f c757 0c3e 49c2 253f 5cb0 da3e
00000040: 62f6 d63d aa8e 973e 0f8b ef3e 46d2 933c
00000050: 1bb2 8c39 9268 353e 6f0d bf3e d4be 3e3d
00000060: cfb9 9a3c cb16 bf39 dc05 793a cd23 3e3d
00000070: fd29 093f 936f a23e 7d0f 213c b044 4c3b
00000080: 1744 873f 2e92 972f 5525 4e3f b79f fc35
00000090: 1fed 803c f649 f13d 8a3d 273e 66bf 733e
000000a0: 0bec b73e 4b29 893d 0e93 0a3e 08a3 4c3e
000000b0: 756e 023e 8bae 413e 8a6c d931 4fe3 c93e
000000c0: 59fa 2c3e 4a0f 813d 8cb0 0238 9547 dd37
000000d0: 6242 b13d 963d c23e fbda 063f 20bc 773e
000000e0: 7615 4737 4a2d 5838 a52f 643d 2c06 c43d
000000f0: 720a d63e 8488 453a e360 983d 1fbb 033e
00000100: 050d fa3d 86ff dc3e 9302 d33d c3f5 b03e
00000110: 566f 353e de5e 9a32 df16 b53e fa60 153e
00000120: 065c 4b3d 6d6b 7a3d c998 5b3e 1382 c53e
00000130: de97 423f e572 8f3d 018c 8b3f 209a 463f
00000140: 2d88 433f e2cd e03d ee12 1a39 f395 193e
00000150: 71c7 c03c 1b72 6a3e 61ff c43e cba8 113f
00000160: db2c 4a3e 037c 1b3e f322 553e 9762 ec3e
00000170: 6166 683c a7aa 613e 1628 563f 1e83 443c
00000180: 43bd 713d c9f5 113f fa25 593f 3847 fa3d
00000190: e05a ce3e acb4 8b3f a8e9 583e fdff 793d
000001a0: 9e8b e93d 9170 fc3d 510f db35 b27e 063e
000001b0: 82a3 463d 5875 d83e ef1d 263d 0f8d f33e
000001c0: 5935 9037 4de1 f93d 8728 a23d caa6 0e3e
000001d0: 4c8b ab3e 7fb1 b83c 803e 2c3d 88a5 e13d
000001e0: 72a3 803d 801f cf38 ec43 1e3c 53e6 363d
000001f0: 0bca 123d 604b 413f 50cf 973e 5da7 023d
00000200: 0de7 b23d 6fba 053d cc95 dd3e b2dd c53e
00000210: 49fa 993e 00b0 7b3c 9b49 213b c04c 803d
00000220: f90f 523e c19e 003e 4983 2f3e 4768 893e
00000230: aad6 183b d075 dc3a e358 473e 133d fb3e
00000240: bd21 813b 99d5 6e38 c24b c83e c19c 423e
00000250: 0965 933e a04e b73d 4985 ed3d 6a14 8a3d
00000260: 591c 013b e60a 153d adec 383a 49c4 493f
00000270: bcd7 c13c c8ea 603f f9f9 0a3b ad86 7a3e
00000280: 095f 1b3e 38d1 af3d 06b6 883e 8e18 713d
00000290: 21dc 0334 fa10 cb3e 04c9 503f a401 8c3e
000002a0: 8c66 223d d385 9e3c 62a9 6a3e b62c 7e3d
000002b0: 08ff 243e d3c5 f53c 1fdf 613c 091d f038
000002c0: 2a2c 953c a403 1c3f 0db0 c03e 527c ab30
000002d0: 2938 723e d8a9 cb3c 5736 a63b 12d1 823e
000002e0: 7e5c 563e 6753 c739 a905 013e 6643 723c
000002f0: 57d5 dd3e 13b2 883c 5455 fa3e 6b5e 363d
00000300: cc3b df3e ff3c 123f 583a a23d 9e50 7e3e
00000310: 8568 3b3e 52f7 d83f 2f79 123c 2758 5d3c
00000320: dce9 6f3e 98d5 253d a494 ab3e 9d24 073f
00000330: b44b 063e 33d9 d33d e7f0 743c 96f7 933e
00000340: c991 983e 83f3 193e 782a 053f 745d fd3c
00000350: 3b32 083d 5956 323e cc99 4d3f 4452 883e
00000360: 1cce 553c b510 d83e 9c2f 2c3f b187 c43a
00000370: ec60 073f 21e6 a73d 3fce 453d 9274 db3d
00000380: 1db2 0d3d 5108 703e 4015 3f3c b545 203c
00000390: 82b0 dc3e 8461 eb3a f86d 4f3d b0be 1b3f
000003a0: 0e6a ae3d 5855 ca3e 0199 b23d 24ce 843d
000003b0: f40f 863e 0cdf 523d 34cf d234 c9df c336
000003c0: 18b2 273f 8296 703e 1afd 673e 3c34 a43f
000003d0: c8e4 333c d573 ac3e fee7 453e d13d d33e
000003e0: 42ec ac3d 6be7 843e 0297 c03c c274 213e
000003f0: 4041 c23a 0a2b 4a3d 8f56 cd3e f254 923e
